Multimodel/Codes/Model_Path/DeepVAR.pth (torch, 263647 bytes, 18 tensors)

encoder.lstm.weight_ih_l0 f4 [200, 8]
0	0xbc45723a	-0.0120511595
1	0xbd25b2d2	-0.04045374
2	0x3df37531	0.11887587
3	0x3f2c7da7	0.6737923
4	0x3c878b4c	0.016545914
5	0xbdcd15c8	-0.1001392
6	0xbe09b832	-0.13449171
7	0x3e13fb77	0.14451395
8	0x3e1702cc	0.1474716
9	0xbe14ffc6	-0.14550695
10	0xbdf59c0a	-0.11992653
11	0x3ea99a7f	0.33125684
12	0x3e37da98	0.1795448
13	0xbdea9326	-0.114538476
14	0x3c463e1d	0.01209977
15	0x3e3b4aac	0.18290204
16	0x3e9ba826	0.30401725
17	0xbe1a5596	-0.15071711
18	0xbdedd101	-0.1161213
19	0x3e90c00e	0.28271526
20	0x3cd419f4	0.025891282
21	0x3ce328f0	0.027729481
22	0xbda580d6	-0.08081214
23	0xbe5a4cff	-0.21318434
24	0xbda54773	-0.080702685
25	0xbc2069c7	-0.009790844
26	0x3e3e45af	0.1858127
27	0x3d2e72c0	0.042589903
28	0xbd1764a8	-0.036961228
29	0xbdb2c494	-0.087289006
30	0x3d432f46	0.047652505
31	0x3e9ebebe	0.310049
32	0xbe2cd63a	-0.16878596
33	0xbe00f52c	-0.12593526
34	0xbe8e5218	-0.27797008
35	0x3eec1db9	0.46116427
36	0x3da72b98	0.08162612
37	0x3de8786a	0.11351092
38	0xbd8806d7	-0.066419296
39	0xbdf5727f	-0.11984729
40	0x3eb58e49	0.35460117
41	0xbeef06e3	-0.46684942
42	0x3e0552b3	0.13019828
43	0x3ed3b8dc	0.41351974
44	0xbd308531	-0.04309577
45	0xbea372dc	-0.31923568
46	0x3cd824a2	0.026384655
47	0xbe90ede6	-0.28306502
48	0x3dd4ad76	0.103846475
49	0x3c9854b1	0.018595072
50	0xbe0e9ce3	-0.13927035
51	0xbf3c1633	-0.73471373
52	0x3e25d3e1	0.16194107
53	0xbdfe750b	-0.12424668
54	0x3ec80e71	0.39073518
55	0xbe5e4ac7	-0.21708213
56	0x3ce4e73d	0.027942294
57	0x3e3cb928	0.18430007
58	0xbca71e85	-0.020400295
59	0xbd0e095a	-0.034676887
60	0x3e17db10	0.1482966
61	0x3d3d5b49	0.046229634
62	0x3e83f613	0.25773677
63	0x3e56db83	0.20982175
64	0xbda01147	-0.078157954
65	0xbdb02a74	-0.08601847
66	0x3cfbb8cf	0.030727772
67	0xbe280600	-0.16408539
68	0x3d504cc0	0.050854445
69	0xbe4d839e	-0.20069739
70	0x3d0bf583	0.034169685
71	0x3d8dc4b9	0.069222875
72	0x3e820158	0.2539165
73	0x3d4d9e34	0.050199702
74	0x3d8311b6	0.063998625
75	0xbe9b5f1c	-0.30346
76	0x3c78935b	0.015171851
77	0x3e9dae93	0.30797252
78	0x3ebb0266	0.36525267
79	0xbe9f1da9	-0.31077316
80	0x3db9a106	0.09063916
81	0xbd93cf29	-0.07217247
82	0xbdb63446	-0.08896689
83	0x3eb97930	0.3622527
84	0xbd951967	-0.07280236
85	0xbde8b4e2	-0.11362626
86	0x3e56424e	0.2092373
87	0x3dfff0c5	0.12497095
88	0xbd8a3f45	-0.06750349
89	0xbea5f961	-0.32416824
90	0xbe3bc784	-0.18337828
91	0x3cf1a196	0.029495995
92	0x3d203e2a	0.039121784
93	0x3ec05ad9	0.3756931
94	0xbd490e25	-0.049085755
95	0xbe515929	-0.20444168
96	0xbe8878aa	-0.2665456
97	0xbdf45846	-0.11930899
98	0xbb9ff7c9	-0.004881833
99	0xbe9c6ed4	-0.30553305
100	0xbd31593b	-0.043297987
101	0xbe148dfc	-0.14507288
102	0xbe4f12ef	-0.20222066
103	0xbe823dfe	-0.2543792
104	0xbe799a89	-0.24375357
105	0xbc37dd42	-0.011222186
106	0xbdb6214e	-0.08893071
107	0x3f28eb8e	0.6598443
108	0xbdd9d369	-0.106360264
109	0xbd567881	-0.052361015
110	0x3e9e21dd	0.3088521
111	0x3dfd4b18	0.123678386
112	0x3de75e3c	0.11297271
113	0xbe0a7e2a	-0.1352469
114	0x3d257a6d	0.040399957
115	0x3ec0efb0	0.37682867
116	0x3ed6276a	0.41826946
117	0x3e0ff064	0.14056545
118	0x3d586514	0.05283077
119	0xbd0eb776	-0.03484293
120	0x3e58bbda	0.2116541
121	0xbd53a422	-0.0516702
122	0xbe301d64	-0.17198712
123	0x3e1cff69	0.15331806
124	0xbc60c585	-0.013718967
125	0xbd9f4cc6	-0.07778315
126	0xbe59912e	-0.21246788
127	0x3d5faf61	0.054610614
128	0x3d15f8f8	0.03661439
129	0x3ebeb493	0.37247142
130	0x3cf7e5fe	0.030261036
131	0xbea005a0	-0.31254292
132	0x3cdb6f8a	0.026786584
133	0x3dd3cedf	0.10342192
134	0x3e93815e	0.28809637
135	0xbdb02389	-0.08600528
136	0x3ec0c837	0.37652752
137	0xbe6b97f9	-0.23007192
138	0x3dc9bf9c	0.09851
139	0x3eda237a	0.4260519
140	0xbd607632	-0.05480022
141	0xbdd6a4e3	-0.104806684
142	0xbdf56a46	-0.11983161
143	0xbd82dd16	-0.06389825
144	0xbd9c2286	-0.07623772
145	0xbe7f9eb0	-0.24962878
146	0x3be3ec92	0.0069556916
147	0xbeeed490	-0.46646547
148	0x3c01d152	0.007923441
149	0x3ea33e06	0.31883258
150	0xbe5462d8	-0.20740831
151	0xbe837cea	-0.2568124
152	0x3e186aba	0.14884463
153	0x3e21dd76	0.15807137
154	0x3e04426e	0.12915966
155	0x3ee2626e	0.4421572
156	0x3e252214	0.16126281
157	0x3ec8e66b	0.39238295
158	0xbef5b759	-0.47991446
159	0xbcab0239	-0.020875083
160	0x3e15e30a	0.1463739
161	0xbb3b312d	-0.0028563247
162	0x3d90b9c3	0.07066681
163	0xbeb5dc20	-0.35519505
164	0x3d9c1dbc	0.07622859
165	0xbdffaa87	-0.124836974
166	0xbbb36551	-0.0054747243
167	0x3e5f6237	0.2181481
168	0xbda236a0	-0.07920575
169	0xbd69358c	-0.056935832
170	0xbe242662	-0.16030267
171	0xbef61211	-0.4806066
172	0x3df35b5e	0.11882661
173	0x3db99c9b	0.09063073
174	0xbe87bac9	-0.26509693
175	0xbcddf175	-0.027092675
176	0xbded25f8	-0.115795076
177	0x3dbbba9b	0.091664515
178	0xbd783ac3	-0.060602915
179	0x3e18cdba	0.14922228
180	0xbdb866fa	-0.09004016
181	0x3e123105	0.14276512
182	0xbe73bd57	-0.23802696
183	0xbcac1e76	-0.021010619
184	0x3e39b0ef	0.18133901
185	0x3edbe42c	0.4294752
186	0x3e08c08a	0.13354698
187	0xbd8f77d2	-0.07005276
188	0x3e1608a3	0.14651732
189	0x3e12f082	0.14349559
190	0x3eb015eb	0.34391722
191	0x3d85bfdc	0.06530735
192	0xbf073657	-0.5281729
193	0xbe07ae94	-0.1325019
194	0x3e07ea77	0.13273035
195	0x3bbe2e02	0.0058038244
196	0xbda6041e	-0.08106254
197	0xbde51646	-0.11185889
198	0x3db781df	0.08960318
199	0xbeb68c49	-0.35653904
200	0x3ee0bcfa	0.43894178
201	0xbed04fc2	-0.4068585
202	0xbde82826	-0.11335783
203	0xbfa785d6	-1.3087718
204	0x3e6d9f7a	0.23205367
205	0xbb538010	-0.0032272376
206	0xbe95475e	-0.2915601
207	0x3d0efce6	0.03490915
208	0xbe287c51	-0.16453673
209	0xbd8cbbcf	-0.06871759
210	0x3de7680c	0.11299142
211	0xbe33a2f3	-0.17542629
212	0x3e348eb3	0.1763256
213	0xbdb5e3e2	-0.08881356
214	0xbe559879	-0.20858945
215	0xbdf24b32	-0.118307486
216	0x3e55e390	0.2088759
217	0x3ebf8ace	0.37410587
218	0x3dd803fd	0.10547636
219	0x3e966fe1	0.29382232
220	0x3e2d7455	0.16938908
221	0xbd5f8a7d	-0.054575432
222	0x3d01c5be	0.031682722
223	0x3e1a2d69	0.15056385
224	0xbeb31933	-0.34980163
225	0xbc2083d3	-0.009797054
226	0xbe825be4	-0.25460732
227	0x3f112a79	0.56705433
228	0xbd807de8	-0.06274015
229	0x3e0f6467	0.14003144
230	0x3db85d5c	0.09002182
231	0xbf003818	-0.5008559
232	0xbdf48075	-0.11938564
233	0x3e05365f	0.13009022
234	0x3dd54094	0.10412708
235	0xbecbe1f6	-0.39820832
236	0x3e2795cc	0.16365737
237	0xbdbcd26f	-0.092198245
238	0x3e4b3374	0.19843847
239	0xbd3608f3	-0.04444213
240	0x3e497d8e	0.19676802
241	0x3dda0f76	0.1064748
242	0x3d837454	0.06418672
243	0x3e7f47c5	0.24929722
244	0xbe009f32	-0.12560728
245	0x3cb70b32	0.022344206
246	0x3e1c893e	0.15286729
247	0xbdd0e948	-0.10200745
248	0x3e356550	0.17714429
249	0xbe13d3f4	-0.14436322
250	0xbc3cdfdd	-0.011527983
251	0xbdf073b6	-0.1174082
252	0x3e248aef	0.16068624
253	0xbd4b65ba	-0.04965756
254	0xbe1f9f8a	-0.15588203
255	0xbeca40d1	-0.39502576

encoder.lstm.weight_hh_l0 f4 [200, 50]
0	0xbe9fbad7	-0.31197235
1	0x3e6391c7	0.22223578
2	0xbe9f748c	-0.31143606
3	0x3d5ed696	0.054403864
4	0x3f0354c8	0.5130124
5	0x3e99eb81	0.30062488
6	0x3d1da505	0.038487453
7	0x3e487f1f	0.19579743
8	0x3e169230	0.14704204
9	0xbd6480fc	-0.05578707
10	0xbd9fe4b7	-0.07807296
11	0xbe54080d	-0.20706196
12	0x3f0162c9	0.5054136
13	0x3e134d55	0.14384969
14	0x3dee96ff	0.11649894
15	0x3e84bbba	0.25924474
16	0xbe5e04e2	-0.2168155
17	0x3da71207	0.08157735
18	0x3ed6777a	0.41888028
19	0x3f1eb780	0.6199875
20	0xbe988e98	-0.2979629
21	0xbdb1e411	-0.08686078
22	0xbe2e1c24	-0.17002922
23	0xbd8dae84	-0.06918052
24	0x3f47c3a6	0.7803291
25	0xbe31e2fb	-0.17371742
26	0x3dcf809c	0.10131952
27	0xbe012dbd	-0.12615104
28	0x3f2dd7ea	0.67907584
29	0x3f0044c5	0.50104934
30	0x3d2c7dd9	0.042112205
31	0x3e87ecaf	0.26547763
32	0xbe4602c7	-0.19336997
33	0xbe07e2e5	-0.13270147
34	0xbc0535cc	-0.008130502
35	0xbdde4e33	-0.10854759
36	0x3d6a21b9	0.057161067
37	0x3f2fbef7	0.68650764
38	0x3ef27765	0.47356716
39	0x3ee0cd52	0.43906647
40	0xbe0421d4	-0.1290353
41	0xbeccc845	-0.39996544
42	0xbf40e908	-0.7535558
43	0xbe2c5c65	-0.1683212
44	0x3e64b710	0.22335458
45	0x3e2e6ae7	0.17032968
46	0x3e2c68ab	0.16836803
47	0xbe90699b	-0.2820557
48	0xbf531b57	-0.8246359
49	0x3d133a14	0.03594406
50	0x3e30a298	0.17249525
51	0xbd8a2d64	-0.06746939
52	0x3e407143	0.18793206
53	0x3e2ff083	0.17181592
54	0x3d86bc7a	0.06578918
55	0x3df5e5ee	0.12006746
56	0x3e04a109	0.12952055
57	0xbe1805ca	-0.14845958
58	0x3d21db18	0.039515585
59	0xbf01963e	-0.50619876
60	0xbdd8d5d5	-0.1058766
61	0x3da72a7e	0.081624016
62	0xbec494f0	-0.3839488
63	0x3c5aa2fc	0.013344523
64	0xbe1b77a9	-0.15182365
65	0xbe7ee503	-0.24892049
66	0xbc10100b	-0.008792887
67	0x3c58d8e2	0.013235303
68	0x3dff1a56	0.12456195
69	0xba174a0a	-0.00057712256
70	0xbcdf74a3	-0.027277296
71	0xbdcb8151	-0.099367745
72	0xbd822c64	-0.06356123
73	0xbe0f3711	-0.1398585
74	0xbe63fd89	-0.22264685
75	0x3e2b7f96	0.16747889
76	0x3e8c09ec	0.2735132
77	0xbe954fc0	-0.29162407
78	0xbe08de02	-0.1336594
79	0xbd5c971d	-0.05385505
80	0xbebecf43	-0.37267503
81	0x3d5db205	0.05412485
82	0x3e13f1a6	0.1444765
83	0x3da81826	0.08207731
84	0xbd9bf9c1	-0.07615996
85	0xbe9841a8	-0.29737592
86	0x3e9c219b	0.3049439
87	0x3cce4dc3	0.025183564
88	0xbd3c2825	-0.045936722
89	0x3ddf008b	0.108887754
90	0x3e12daf7	0.14341341
91	0xbe61c1e2	-0.22046617
92	0xbcbacab9	-0.022801744
93	0xbd769ae7	-0.06020632
94	0xbe4f3070	-0.20233321
95	0xbe2b668e	-0.1673834
96	0x3dd14922	0.10219027
97	0x3de8d583	0.11368849
98	0x3e7319a3	0.23740248
99	0x3e6043eb	0.21900909
100	0x3f125c21	0.5717183
101	0xbcf37ab0	-0.029721588
102	0x3e9c7528	0.30558133
103	0x3cd3ffd6	0.025878828
104	0xbe761319	-0.24030723
105	0x3de1e60f	0.11030208
106	0x3e80884c	0.25103986
107	0xbd52a877	-0.05143019
108	0x3e4abce4	0.19798619
109	0xbe6527b2	-0.22378424
110	0xbe7893aa	-0.2427508
111	0x3eb21bf1	0.34786943
112	0xbdf1c4d0	-0.11805117
113	0xbd3ce2b5	-0.046114642
114	0xbde0ef2a	-0.10983117
115	0xbe0550ef	-0.13019155
116	0x3dde8431	0.10865057
117	0xbe2ed0b1	-0.17071797
118	0xbd9cdf58	-0.07659787
119	0xbd06ea07	-0.03293803
120	0xbdeff2be	-0.11716221
121	0x3d8763f3	0.06610861
122	0xbd2faf10	-0.042891562
123	0xbd38e1f4	-0.04513736
124	0xbe70dea0	-0.23522425
125	0x3e2c1308	0.16804135
126	0x3e53b600	0.20674896
127	0x3dd5d1b2	0.10440387
128	0xbe0e0352	-0.13868454
129	0x3dc4b467	0.096047215
130	0xbe0f5c34	-0.14000016
131	0xbe5ed494	-0.2176078
132	0x3e92fd91	0.2870908
133	0x3e25e3f4	0.16200238
134	0x3d180666	0.037115477
135	0xbe2c24c9	-0.16810907
136	0x3be4d1bc	0.00698301
137	0xbf13058c	-0.5743034
138	0x3e31f3e2	0.1737819
139	0x3d7a2512	0.06107051
140	0x3e554301	0.20826341
141	0x3a49d6c6	0.0007699545
142	0x3e804753	0.25054416
143	0xbe88bcd9	-0.2670658
144	0x3d189053	0.037247013
145	0x3de12bcd	0.109946825
146	0x3e6f0cbb	0.233447
147	0xbe6a3224	-0.2287069
148	0x3d04c96a	0.032418646
149	0x3e0e347f	0.13887213
150	0x3d7778d0	0.06041795
151	0x3e3a4964	0.18192059
152	0xbe80975d	-0.2511548
153	0xbddc8ba0	-0.10768819
154	0x3ee60755	0.4492747
155	0xbe0b91d2	-0.13629845
156	0xbe6ff385	-0.23432739
157	0x3e45c49d	0.19313283
158	0xbe91f311	-0.28505757
159	0xbf06dde0	-0.52682304
160	0xbe4037c1	-0.18771268
161	0x3ccb3506	0.024805557
162	0x3e0319eb	0.12802856
163	0x3e5e6ed6	0.21721968
164	0x3d99c890	0.075089574
165	0x3e6122b4	0.21985894
166	0xbe66213a	-0.22473612
167	0x3e27a700	0.16372299
168	0xbe8e975a	-0.27849847
169	0x3e5663a3	0.20936446
170	0x3cebe507	0.028795732
171	0x3e5f085d	0.21780534
172	0x3e00f08e	0.12591764
173	0xbe1db1ea	-0.153999
174	0x3e0ea827	0.13931333
175	0x3c083c73	0.0083151935
176	0x3ecb8c2d	0.39755383
177	0x3eb8dfbc	0.36108196
178	0xbde100a1	-0.10986448
179	0xbe53e745	-0.20693691
180	0xbcde7efc	-0.02716016
181	0x3c248f55	0.010043939
182	0x3d9bc22a	0.07605393
183	0xbe5d29e9	-0.21598019
184	0x3e1e4005	0.15454109
185	0xbe66671a	-0.22500268
186	0xbdad7710	-0.08469975
187	0x3d2b95fb	0.04189108
188	0xbaca82cc	-0.0015450357
189	0xbe49144b	-0.19636647
190	0x3e9a0f5a	0.30089837
191	0x3d987eb3	0.07446041
192	0xbe0c3789	-0.1369306
193	0x3d3639ab	0.04448859
194	0xbe6c21cb	-0.23059766
195	0xbd2a20d4	-0.041535214
196	0x3dd035c4	0.10166505
197	0xbe1eeaae	-0.1551921
198	0x3d03246d	0.03201716
199	0xbd157ed5	-0.03649791
200	0x3ead5046	0.33850306
201	0xbda6167a	-0.08109756
202	0x3e892e3e	0.26793092
203	0x3e214c19	0.15751685
204	0xbdfd9598	-0.12382048
205	0xbf1b3614	-0.6062939
206	0x3ecf22f9	0.4045637
207	0xbdbb4fb6	-0.09146063
208	0x3f087a12	0.53311265
209	0xbea2951f	-0.31754395
210	0x3f746815	0.95471317
211	0x3ee17fae	0.44042724
212	0xbec34008	-0.3813479
213	0xbe99d1d9	-0.30042914
214	0x3c57a885	0.013162737
215	0xbe1e3371	-0.15449311
216	0x3ea7ca6e	0.3277163
217	0xbe9e8e63	-0.30968007
218	0x3e9afead	0.30272427
219	0xbd03567d	-0.032064904
220	0x3ee0428c	0.4380077
221	0xbb684fa1	-0.0035447853
222	0xbe9e3d8f	-0.3090634
223	0x3ecd6042	0.401125
224	0xbdc40065	-0.09570388
225	0x3e2fcbed	0.17167635
226	0xbebf2de8	-0.3733971
227	0xbea3334d	-0.31875077
228	0xbe98bcdb	-0.29831585
229	0x3f015258	0.5051627
230	0x3eb1e27e	0.34743112
231	0xbd8ee6d4	-0.06977621
232	0x3e82fffe	0.25585932
233	0x3dc5df7d	0.09661768
234	0xbec1babf	-0.37837788
235	0x3f5cfd88	0.8632436
236	0xbd6cd7c9	-0.057822976
237	0x3e288bba	0.16459551
238	0xbcdac659	-0.026705908
239	0x3ed10eff	0.40831754
240	0xbe542db5	-0.20720561
241	0xbea1cfd7	-0.31603882
242	0x3e8d2703	0.27568826
243	0x3e08057f	0.13283347
244	0x3ec12dfe	0.37730402
245	0xbf073eb4	-0.5283005
246	0xbedd6a1c	-0.43245018
247	0x3e24adbc	0.160819
248	0x3dd04def	0.10171115
249	0x3ee080f6	0.4384839
250	0x3e0774ea	0.13228193
251	0x3e3db001	0.18524171
252	0xbeb6bf1c	-0.3569268
253	0x3d6baf8a	0.057540454
254	0xbe608d0f	-0.2192881
255	0x3dfb3e47	0.12267738

encoder.lstm.bias_ih_l0 f4 [200]
0	0x3e23de64	0.16002804
1	0x3e3b339e	0.18281409
2	0x3ea7393a	0.32660848
3	0xbc86edb1	-0.016470762
4	0x3e0962f5	0.13416655
5	0xbda4c684	-0.08045676
6	0xbd83355a	-0.064066604
7	0xbb459cb1	-0.003015321
8	0x3e9422e5	0.28932872
9	0x3ea5fa6b	0.32417616
10	0x3ee405eb	0.44535765
11	0xbbc86b78	-0.006116327
12	0x3dd071b2	0.10177936
13	0x3d32e269	0.043672953
14	0xbc4b0418	-0.012391113
15	0x3eca5e60	0.39525127
16	0x3dfdd523	0.12394168
17	0x3e53b5c4	0.20674807
18	0x3ef7afdb	0.48376355
19	0x3d92655e	0.071482405
20	0x3e943d38	0.28952956
21	0x3e4d3fad	0.20043822
22	0x3d53eb3e	0.051738016
23	0x3d7c677d	0.06162213
24	0x3e988049	0.29785374
25	0x3e1034d3	0.14082651
26	0xbc790456	-0.015198788
27	0x3e628d5c	0.22124237
28	0x3e5aab7f	0.21354483
29	0x3debe38e	0.11518012
30	0x3e23d1da	0.15998021
31	0x3e98f3f6	0.29873627
32	0x3e9661c3	0.2937146
33	0x3e824209	0.25441006
34	0x3dffd4a8	0.12491733
35	0x3eb23b79	0.34811
36	0x3df959a2	0.12175299
37	0x3e054cdd	0.13017602
38	0xbde32aca	-0.11092146
39	0x3e38ab46	0.18034086
40	0x3df79910	0.12089741
41	0x3e660098	0.22461164
42	0x3ecf7353	0.40517673
43	0x3e341d90	0.17589402
44	0x3eeecf48	0.46642518
45	0x3e359254	0.17731601
46	0x3e2d6ef5	0.16936858
47	0x3ee8bb68	0.4545548
48	0x3d48d4b6	0.049030982
49	0x3e947ac9	0.28999928
50	0x3e9d8a41	0.30769542
51	0x3c15547b	0.00911438
52	0xbe7b9e29	-0.24572052
53	0x3ea91a42	0.33027846
54	0x3d26ee8e	0.040754847
55	0xbc857b9d	-0.016294295
56	0x3e02eedf	0.12786435
57	0x3dcd90e2	0.100374
58	0xbc151e6d	-0.009101492
59	0xbd83e110	-0.06439412
60	0xbec81a58	-0.390826
61	0x3de2ea6a	0.11079867
62	0xbcfadb0b	-0.030622026
63	0x3d94e55e	0.07270311
64	0x3e521383	0.20515256
65	0xbdec2c13	-0.11531844
66	0x3dee10b4	0.116242796
67	0xbe362ff5	-0.17791732
68	0xbe53d994	-0.20688468
69	0x3e249471	0.16072251
70	0x3c73e65c	0.014886465
71	0x3dd7082a	0.10499604
72	0x3dac90c8	0.08426052
73	0x3e54f839	0.20797814
74	0xbe114fe5	-0.14190634
75	0x3e21490c	0.15750521
76	0x3e189b32	0.14902952
77	0x3e331e99	0.17492141
78	0xbdf3b044	-0.118988544
79	0xbd9564aa	-0.07294591
80	0x3e2b9d99	0.16759337
81	0xbe4729c6	-0.19449529
82	0xbe2de3d4	-0.16981441
83	0x3dae9b2c	0.085256904
84	0x3e4d9b20	0.20078707
85	0xbd0ddc35	-0.034633834
86	0x3da26e93	0.079312466
87	0x3d27435b	0.04083572
88	0x3e59ee3c	0.21282285
89	0xbe919dcd	-0.28440705
90	0x3ad33b7f	0.0016115754
91	0xbd034a01	-0.032052997
92	0xbeabebf7	-0.33578464
93	0x3d8100a4	0.0629895
94	0xbe8d7db7	-0.27634975
95	0x3ce3219f	0.027725993
96	0xbd617cc0	-0.05505061
97	0xbeb2535b	-0.3482922
98	0x3e55af7e	0.20867726
99	0x3e8594ed	0.26090184
100	0x3cbbadb7	0.022909982
101	0x3d48924b	0.04896764
102	0x3d57cd61	0.0526861
103	0x3d366ff1	0.04454035
104	0x3c3d9d27	0.011573113
105	0xbd86ed23	-0.06588199
106	0x3d8d19e4	0.06889704
107	0x3d5a3c0d	0.053279925
108	0xbd9ac34c	-0.07556781
109	0x3c067201	0.008205892
110	0x3d65092d	0.055916954
111	0xbd1fc657	-0.03900751
112	0x3cb113e6	0.021615934
113	0x3b71f94d	0.0036922276
114	0xbdb8e3dd	-0.090278365
115	0xbdd46db2	-0.10372485
116	0x3db5470d	0.088514425
117	0x3c89ab5e	0.016805347
118	0x3d9dd8c0	0.077073574
119	0x3ca33c9f	0.019926367
120	0xbd6c6872	-0.057716794
121	0xbd897c46	-0.067131564
122	0xbda7af7e	-0.08187769
123	0xbc578552	-0.013154345
124	0x3cc3e7da	0.023914266
125	0xbc198ed3	-0.009372431
126	0x3c8c5250	0.017129093
127	0x3cb54a3a	0.02213012
128	0xbd3dca75	-0.046335656
129	0x3d668b65	0.05628528
130	0xbe28cc60	-0.16484213
131	0x3e0a05e2	0.13478807
132	0x3d8f69a5	0.07002572
133	0x3e328067	0.17431794
134	0xbda94e2f	-0.082668655
135	0xbd16ca3e	-0.036813967
136	0xbdc35d0f	-0.09539234
137	0xbd7d45e5	-0.061834235
138	0x3d294aca	0.04133109
139	0xbdc92b59	-0.09822721
140	0xbdcc458b	-0.09974202
141	0x3dba4bb9	0.09096474
142	0xbdaaf39b	-0.08347245
143	0x3e035aba	0.12827578
144	0x3cd9efbc	0.026603572
145	0xbd92f099	-0.071747966
146	0xbcf24888	-0.029575601
147	0x3d9392ca	0.07205732
148	0x3e029f50	0.12756085
149	0x3d81fc31	0.0634693
150	0x3ed4c272	0.415546
151	0x3e8aff04	0.27147686
152	0x3e32a8b6	0.1744717
153	0xbc25aab2	-0.010111498
154	0x3eaadd5a	0.33372003
155	0x3d0afaeb	0.0339307
156	0x3cbb423d	0.022858733
157	0x3d9588a9	0.073014565
158	0x3ebbb998	0.36665034
159	0x3ea78f61	0.32726577
160	0x3f45b8e3	0.7723524
161	0xbd0c970a	-0.03432373
162	0x3ea2e984	0.31818783
163	0x3e7b2c77	0.2452868
164	0x3d2d1214	0.04225357
165	0x3e7a38ee	0.2443578
166	0x3e058680	0.13039589
167	0x3e7f7865	0.2494827
168	0x3edc7679	0.43059137
169	0xbd294ff0	-0.041336
170	0x3ed368ee	0.41290992
171	0x3e96a855	0.29425302
172	0xbd74aa4e	-0.059732728
173	0x3e49b728	0.19698775
174	0x3e78d1e2	0.24298814
175	0xbdc710c6	-0.09719996
176	0x3de55ef6	0.11199753
177	0x3e00fac5	0.12595661
178	0x3e6b1f72	0.22961214
179	0x3eb6a6ca	0.35674125
180	0x3dd69023	0.10476711
181	0x3e4220bc	0.189578
182	0x3e9bb9fa	0.30415326
183	0xbdc884e8	-0.09790975
184	0xbde47029	-0.11154205
185	0x3efe871b	0.49712452
186	0x3dd18f29	0.10232384
187	0x3d84eb25	0.06490163
188	0x3d830dcf	0.06399118
189	0x3e83359f	0.25626847
190	0x3e13fc26	0.14451656
191	0x3eaec879	0.34137323
192	0x3f2973fd	0.6619261
193	0x3ea54657	0.32280228
194	0x3f0b4fc7	0.54418606
195	0x3de8fe5d	0.11376641
196	0x3e702639	0.23452081
197	0x3f55c3c7	0.8350186
198	0x3ea7cf48	0.3277533
199	0x3e75b771	0.23995759

encoder.lstm.bias_hh_l0 f4 [200]
0	0x3cb282c0	0.021790862
1	0x3e902eae	0.28160614
2	0x3e11e805	0.14248665
3	0x3d42a467	0.047520068
4	0x3deb0f7a	0.11477561
5	0xbc3af912	-0.011411922
6	0xbd9225fd	-0.07136152
7	0x3d597fac	0.053100273
8	0x3f0275ad	0.5096081
9	0x3ec67bc2	0.38766295
10	0x3f0e030a	0.5547339
11	0x3dccf2b3	0.10007229
12	0x3e259c73	0.16172962
13	0x3ccfb315	0.025353948
14	0xbd1081e2	-0.035280116
15	0x3e92de05	0.28685012
16	0x3beaea12	0.0071690166
17	0x3ea7bd06	0.327614
18	0x3e9ef6b6	0.310476
19	0x3df21502	0.11820413
20	0x3efa8bbb	0.4893473
21	0x3e4dc624	0.20095116
22	0x3c36c9e8	0.011156537
23	0xbc378614	-0.0112014
24	0x3e4f3ee4	0.20238835
25	0xbc000dff	-0.007815837
26	0xbd4eefa3	-0.050521504
27	0x3e115913	0.14194135
28	0x3e219861	0.15780784
29	0x3dfd5dfd	0.123714425
30	0x3e510f71	0.20416047
31	0x3e65880e	0.22415182
32	0x3e898b90	0.2686429
33	0x3e89cb59	0.26912954
34	0x3e837d5d	0.25681582
35	0x3e8913b1	0.26772836
36	0x3e578591	0.21047045
37	0x3cdde6ea	0.027087647
38	0xbd8e88d7	-0.06959694
39	0x3e80a7ad	0.25127926
40	0x3db4bcae	0.0882505
41	0x3e6b1d53	0.22960405
42	0x3ee55ff7	0.44799778
43	0x3e552cb7	0.20817839
44	0x3e8be2ab	0.2732137
45	0x3e1b148f	0.15144561
46	0x3e807972	0.25092655
47	0x3f1994e7	0.5999283
48	0x3d3d775e	0.046256416
49	0x3e4c2e98	0.19939649
50	0x3e8b2013	0.27172908
51	0xbce8f0cd	-0.028435135
52	0xbe28c73f	-0.16482256
53	0x3eb3cc62	0.3511687
54	0x3da5a7ea	0.08088668
55	0x3e049aff	0.12949751
56	0x3cd9d9e6	0.02659316
57	0x3da41fde	0.08013891
58	0x3ca65120	0.020302355
59	0xbbc5d45b	-0.0060372776
60	0xbe83d8d7	-0.25751373
61	0x3d7b6a8e	0.061380915
62	0xbda171b0	-0.07883012
63	0x3d848671	0.06470955
64	0x3e41dcef	0.18931936
65	0x3c32b24f	0.01090677
66	0x3df403c0	0.11914778
67	0xbe8148b1	-0.25250772
68	0xbe4559f0	-0.1927259
69	0x3e22097e	0.15823933
70	0xbe1f0fa1	-0.15533306
71	0x3e845bf5	0.25851408
72	0x3e371005	0.17877205
73	0x3e4bd03b	0.19903652
74	0xbdf7bb86	-0.12096314
75	0x3dbc7d65	0.092036046
76	0x3e2a9395	0.1665786
77	0x3d349f46	0.044097207
78	0xbd82cb37	-0.063864164
79	0xbd7b8521	-0.06140626
80	0x3d092fc3	0.033492815
81	0xbd4dd1d6	-0.050248943
82	0xbe385ad3	-0.18003397
83	0x3da8b5a5	0.08237771
84	0x3e2d6b6c	0.1693551
85	0xbe01c9c3	-0.12674622
86	0xbc15f6a0	-0.009153038
87	0x3e1fbb0f	0.15598701
88	0x3e107ff9	0.14111318
89	0xbe86ad95	-0.26304308
90	0x3db2fc23	0.087394975
91	0x3d8d95fb	0.06913372
92	0xbee00d49	-0.43760136
93	0x3c3a4d7f	0.011371016
94	0xbebbc562	-0.3667403
95	0x3d9b9932	0.07597579
96	0xbc916ae4	-0.017751165
97	0xbecf9f8c	-0.40551412
98	0x3e4ea0f3	0.20178585
99	0x3e390a2c	0.18070287
100	0xbbdbb6ac	-0.006705126
101	0x3b259eda	0.0025271685
102	0xbd716b54	-0.058940247
103	0xbd361338	-0.044451922
104	0xbd56bd1c	-0.052426443
105	0x3e0e9bba	0.13926592
106	0x3c3d7953	0.0115645705
107	0x3ce3e4e2	0.0278191
108	0xbd6369ee	-0.055520944
109	0xbdec7cf2	-0.11547269
110	0x3c882d3e	0.016623136
111	0xbb74071f	-0.003723569
112	0xbd38ed2f	-0.04514807
113	0xbdd6d90d	-0.10490618
114	0x3c2521bb	0.010078843
115	0xbd9b62d8	-0.07587212
116	0xbcaebe02	-0.021330837
117	0xbd59fdd8	-0.0532206
118	0xbc58e1e7	-0.013237453
119	0x3d31b91d	0.04338943
120	0xbd18cf9c	-0.037307367
121	0x3d2d5ba9	0.042323742
122	0x3dbbe7ab	0.091750465
123	0xbdc763f4	-0.097358614
124	0x3d77f216	0.060533606
125	0x3e084c48	0.13310349
126	0x3e021710	0.1270411
127	0x3c9cc9f9	0.019139277
128	0xbd8fb2f7	-0.07016557
129	0x3d562a6a	0.052286543
130	0xbd43e2ba	-0.047823645
131	0x3c1bc9a0	0.00950852
132	0x3d1a471d	0.037665475
133	0x3e4845cc	0.19557875
134	0xbdf2c8fb	-0.1185474
135	0xbe06886c	-0.13137978
136	0x3de5f2cf	0.11227953
137	0x3ca62df8	0.020285591
138	0x3a20d310	0.00061349664
139	0xbcc7aa82	-0.024373297
140	0x3d6a1de6	0.05715742
141	0xbcd9cb10	-0.026586086
142	0xbd766905	-0.06015875
143	0x3cc1993b	0.023632636
144	0xbdbc1a9f	-0.09184765
145	0xbe00c79c	-0.12576145
146	0x3d1bfb24	0.038081303
147	0xbdad4dc0	-0.08462095
148	0xbc9cc748	-0.019137993
149	0xbdd72936	-0.10505907
150	0x3ea20f2c	0.316522
151	0x3e6929f4	0.2276991
152	0xbb9890d7	-0.004655938
153	0x3de0ece8	0.10982686
154	0x3e8080b9	0.25098208
155	0xbdeb3849	-0.11485345
156	0x3da70d0b	0.081567846
157	0xbc1b7d9c	-0.009490397
158	0x3e52c698	0.2058357
159	0x3e78c2c9	0.24293055
160	0x3f170291	0.5898829
161	0xbc98d06d	-0.018654073
162	0x3e190c7b	0.14946167
163	0x3d949e07	0.07256704
164	0xbd996502	-0.07489969
165	0x3ed5c359	0.417506
166	0x3e20d53c	0.15706342
167	0x3e179856	0.14804205
168	0x3f107e3c	0.5644262
169	0xbdb7b4b3	-0.089700125
170	0x3ee4977a	0.44646817
171	0x3eb1b1dd	0.3470601
172	0x3d92f302	0.07175256
173	0x3ddec057	0.1087653
174	0x3e8cfafa	0.2753523
175	0x3b082ba3	0.0020777963
176	0x3da35b29	0.07976372
177	0x3e267d1c	0.16258663
178	0x3e8c17c8	0.27361894
179	0x3ebcd706	0.368828
180	0x3db86d9b	0.090052806
181	0x3e8881d6	0.26661557
182	0x3eb21ccd	0.34787598
183	0xbe2cb995	-0.16867669
184	0xbd80280a	-0.06257637
185	0x3eedbac0	0.4643154
186	0x3e1fed1e	0.15617797
187	0x3d41eeea	0.047346987
188	0x3d306d4f	0.043072995
189	0x3ec3d963	0.3825179
190	0x3e8300ab	0.25586447
191	0x3e1e28cb	0.15445249
192	0x3f2e7766	0.6815094
193	0x3ea475ca	0.32121116
194	0x3f02af28	0.5104852
195	0x3e12e55a	0.14345303
196	0x3e1db385	0.15400513
197	0x3f23f74d	0.64049226
198	0x3eacffb6	0.33788842
199	0x3e7c8173	0.24658756

encoder.lstm.weight_ih_l1 f4 [200, 50]
0	0x3f04719f	0.5173587
1	0x3e4f5569	0.20247425
2	0x3e3eb5d9	0.18624057
3	0x3ed61deb	0.418197
4	0xbc9a5e5f	-0.018843828
5	0xbe6a98de	-0.22909877
6	0xbc88466d	-0.016635144
7	0x3e0c2bcf	0.13688587
8	0xbe3ef98e	-0.18649885
9	0x3e33ea6f	0.17569898
10	0x3eb63396	0.35586232
11	0xbe43601d	-0.19079633
12	0x3ae271ae	0.0017276311
13	0xbe82410e	-0.25440258
14	0xbd03f022	-0.03221143
15	0xbea234d9	-0.31680945
16	0xbdb81a2c	-0.08989367
17	0x3a87cab6	0.0010360095
18	0x3e505a05	0.2034684
19	0x3e08aae1	0.13346435
20	0xbe16ea49	-0.1473781
21	0xbdcff075	-0.101532854
22	0xbe885a1e	-0.26631254
23	0x3e25866d	0.1616456
24	0x3dd1d223	0.102451585
25	0x3e057933	0.13034515
26	0x3e02ebc4	0.1278525
27	0x3da91536	0.08255999
28	0xbf2d902c	-0.67798114
29	0x3dfa6ecf	0.12228166
30	0x3e148a59	0.145059
31	0x3db784a5	0.08960847
32	0x3e1af408	0.15132153
33	0x3e953eff	0.29149625
34	0xbe9b287b	-0.30304322
35	0x3e0c528d	0.13703366
36	0xbdb00937	-0.085955076
37	0xbd9ed1c7	-0.077548556
38	0x3d15b468	0.036549002
39	0xbeb47511	-0.35245565
40	0xbcfcfeee	-0.030883279
41	0x3e6e1342	0.23249534
42	0x3d06149b	0.032734495
43	0xbe2560ce	-0.1615021
44	0xbcd184cb	-0.025576016
45	0xbea311f4	-0.31849635
46	0x3eae8822	0.34088236
47	0x3f0536e8	0.52036905
48	0x3e34ebed	0.17668124
49	0xbe3ba914	-0.18326217
50	0xbd275e19	-0.040861223
51	0xbec4bc6f	-0.38425013
52	0x3ebff419	0.3749092
53	0xbe62544a	-0.22102466
54	0x3d1d0529	0.038335
55	0x3d5ba96d	0.053628374
56	0x3e3d5fe9	0.18493618
57	0xbec22754	-0.3792063
58	0xbe9f8e03	-0.31163034
59	0x3cb8c341	0.022554042
60	0x3ec5dc12	0.38644463
61	0x3eaa3904	0.33246624
62	0xbec59bdf	-0.38595483
63	0xbe96ea74	-0.2947575
64	0xbe279c21	-0.16368152
65	0x3e835a35	0.2565476
66	0x3eb30121	0.349618
67	0xbec4e188	-0.38453317
68	0x3e7ffaa8	0.24997962
69	0x3da9c515	0.082895435
70	0xbf026c9d	-0.5094698
71	0xbe62684b	-0.22110097
72	0xbdea7774	-0.11448565
73	0x3d300977	0.042977776
74	0x3e2d2c22	0.16911367
75	0x3e19b129	0.15008987
76	0xbc7a3fe4	-0.015274022
77	0x3dc25d5e	0.09490465
78	0x3e1d7cd1	0.15379645
79	0xbdcd564e	-0.10026227
80	0x39957de3	0.00028513288
81	0x3de6fbe2	0.112785116
82	0xbe3202ae	-0.17383835
83	0x3bb48ff6	0.0055103255
84	0xbe2c0588	-0.16798985
85	0xbc9d7566	-0.019221019
86	0xbd96be31	-0.07360495
87	0xbe3a3f30	-0.18188167
88	0x3ea10545	0.31449333
89	0xbe3b61a5	-0.18298967
90	0x3de7de58	0.113217056
91	0x3e7efea1	0.2490182
92	0xbe5284f6	-0.20558533
93	0x3eaf57c4	0.34246647
94	0x3ed8d41c	0.42349327
95	0x3de50360	0.11182284
96	0x3df25a98	0.11833686
97	0x3d102de9	0.035200033
98	0x3df4176d	0.119185306
99	0x3ef8bae6	0.48580092
100	0x3ee52b76	0.4475972
101	0x3df34305	0.11878017
102	0x3f0f287e	0.5592116
103	0x3c91f8f2	0.017818902
104	0xbd6c0aa8	-0.05762735
105	0xbe52f6bf	-0.20601939
106	0x3e541c01	0.20713808
107	0xbdc3e54f	-0.095652215
108	0x3df6ce0b	0.12051018
109	0x3e9f6330	0.31130362
110	0x3eee8dbf	0.4659252
111	0x3cc271ad	0.023735845
112	0xbd952fa3	-0.072844766
113	0x3d3c8718	0.046027273
114	0x3dbeab10	0.09309971
115	0xbd37cb0f	-0.044871386
116	0xbdd419a6	-0.103564546
117	0x3d90f984	0.07078841
118	0x3e7f0bce	0.24906847
119	0x3e54ea4f	0.20792507
120	0x3e30615d	0.17224641
121	0xbdffdd8b	-0.12493428
122	0xbe3f288e	-0.18667814
123	0xbd0e196f	-0.034692224
124	0x3c16cfac	0.009204786
125	0x3df46723	0.11933734
126	0xbe0bad30	-0.13640285
127	0x3e6a77fa	0.2289733
128	0xbe92d46c	-0.2867769
129	0xbea920d5	-0.3303286
130	0x3ce3fe52	0.02783123
131	0x3d731c09	0.05935291
132	0xbf05984b	-0.52185506
133	0x3d871c05	0.06597141
134	0x3e011286	0.12604722
135	0xbd628ac0	-0.055308104
136	0x3ceb669c	0.028735451
137	0x3e5943ef	0.21217321
138	0x3edeccdd	0.43515673
139	0x3ec6c9bf	0.38825795
140	0xbefceb7f	-0.4939842
141	0xbd90f7d9	-0.07078523
142	0x3ea28066	0.31738585
143	0xbe0e2e1c	-0.13884777
144	0xbe00461c	-0.12526745
145	0x3eadd115	0.3394858
146	0x3ea68bc1	0.325285
147	0xbe557a40	-0.20847416
148	0xbdac73fd	-0.084205605
149	0x3e5294b8	0.20564544
150	0x3e43b72f	0.19112848
151	0x3f294ea9	0.6613565
152	0x3ec0f505	0.37686935
153	0x3cff2f8f	0.031150607
154	0x3efbe4ba	0.49197942
155	0xbdaca9c0	-0.08430815
156	0x3b860af0	0.0040906593
157	0xbe987af7	-0.29781315
158	0xbe8dde15	-0.27708498
159	0x3c97d932	0.018536184
160	0x3ce2fb6b	0.027707776
161	0x3e91d302	0.284813
162	0xbd84dd8e	-0.06487571
163	0x3e6d14b5	0.2315243
164	0xbebee795	-0.37286058
165	0x3f5fc6e8	0.8741288
166	0xbdbae604	-0.09125903
167	0x3d22e31f	0.03976738
168	0x3ee2352e	0.44181198
169	0xbe99ca72	-0.30037266
170	0xbd244714	-0.040106848
171	0xbbfd29d3	-0.007725933
172	0x3e2f7424	0.17134148
173	0x3b53ceec	0.003231938
174	0x3e018cba	0.12651339
175	0x3cd2f5af	0.025751917
176	0xbe54073b	-0.20705883
177	0x3e85dd1e	0.26145262
178	0xbd901d04	-0.07036784
179	0xbdc859a1	-0.0978272
180	0xbd3b85ce	-0.045781903
181	0x3f02d67f	0.51108545
182	0xbe04e217	-0.12976871
183	0x3cf76d35	0.030203441
184	0xbe3d3b65	-0.18479688
185	0x3df87612	0.12131895
186	0xbe59ca4d	-0.21268578
187	0xbd1226d4	-0.03568156
188	0x3e84489c	0.25836647
189	0x3f5b998b	0.8578116
190	0xbe3f5cee	-0.18687794
191	0xbeaea10d	-0.34107247
192	0xbe5d6e23	-0.21624045
193	0xbe53983d	-0.20663543
194	0xbe642c9c	-0.22282642
195	0xbe14cac2	-0.14530471
196	0xbdddab9b	-0.10823747
197	0x3cc756e5	0.024333427
198	0xbc9edf03	-0.01939345
199	0xbe38b1b9	-0.18036546
200	0x3da4d1f9	0.080478616
201	0xbe126de6	-0.14299735
202	0xbd9942fa	-0.07483478
203	0x3e977749	0.29583195
204	0xbda6cbfe	-0.08144377
205	0xbe0a6e13	-0.13518552
206	0xbd8aae21	-0.06771494
207	0xbd6b9aa2	-0.057520516
208	0xbe9499f2	-0.290237
209	0xbe8b7117	-0.27234718
210	0x39b8099f	0.00035102383
211	0xbebb392f	-0.36567065
212	0xbd4b95ff	-0.049703594
213	0xbd918123	-0.07104709
214	0xbd89f066	-0.067353055
215	0xbe883f7b	-0.26610932
216	0x3d00d4c8	0.031452924
217	0xbe7a6962	-0.24454263
218	0xbe9a1cae	-0.30100006
219	0x3e874051	0.26416257
220	0x3e3cfa49	0.18454851
221	0xbd7bf6ae	-0.06151455
222	0xbd940cbd	-0.07228992
223	0xbee367a9	-0.44415024
224	0xbd1ba088	-0.03799489
225	0x3ea461b2	0.32105786
226	0x3cf8e39f	0.030381976
227	0xbeefa8ad	-0.46808377
228	0xbdb63def	-0.08898532
229	0xbf07e670	-0.53085995
230	0xbe7ad10a	-0.24493805
231	0x3e862a7f	0.26204297
232	0xbd2736de	-0.04082381
233	0x3e10dbbb	0.1414632
234	0xbe767c0d	-0.24070759
235	0xbbabc205	-0.005241635
236	0x3b78c44b	0.0037958797
237	0xbd67b7a0	-0.056571603
238	0x3ed00ce5	0.40634838
239	0xbdc52b44	-0.09627393
240	0xbe26ff15	-0.16308244
241	0x3d658ea4	0.056044236
242	0x3e755f37	0.23962103
243	0x3e2815bf	0.16414545
244	0xbd2bd761	-0.04195345
245	0xbcf0a003	-0.029373175
246	0xbd026ade	-0.031840198
247	0x3d51056d	0.051030565
248	0xbd51b21a	-0.05119524
249	0x3f08aa41	0.53384787
250	0xbdd1260f	-0.10212337
251	0xbe1da95a	-0.15396634
252	0xbd6a70a4	-0.05723633
253	0xbf05cf5e	-0.5226954
254	0x3e58ff54	0.2119115
255	0xbe89694c	-0.26838148

encoder.lstm.weight_hh_l1 f4 [200, 50]
0	0xbd3f3c13	-0.04668815
1	0x3e57a46d	0.21058817
2	0xbeb8fb6f	-0.3612933
3	0x3e54d63e	0.20784852
4	0xbdfd9c16	-0.12383287
5	0xbcbb2168	-0.022843078
6	0x3eae2348	0.34011292
7	0xbeb70c90	-0.35751772
8	0xbe59db0e	-0.21274969
9	0x3e7be82d	0.24600287
10	0xbed6b8c8	-0.41937852
11	0x3c829b1b	0.0159431
12	0x3e9841f5	0.2973782
13	0xbe954759	-0.29155996
14	0xbeb63022	-0.35583597
15	0xbe0e0b2f	-0.13871454
16	0xbda9356f	-0.08262145
17	0xbe0f0ae9	-0.13969006
18	0xbde7b252	-0.11313309
19	0xbe7f0946	-0.24905881
20	0xbee2a2fb	-0.4426497
21	0xbe438201	-0.19092561
22	0xbe9c36a9	-0.30510452
23	0xbcf0080f	-0.029300718
24	0xbe71bb06	-0.236065
25	0xbe9f0638	-0.31059432
26	0xbecc1d40	-0.39866066
27	0x3e31bafb	0.17356484
28	0x3e9cce66	0.3062622
29	0x3e1b3ef9	0.15160741
30	0xbda0b91d	-0.078478076
31	0xbe91c5b0	-0.28471136
32	0x3e3d74f2	0.18501642
33	0x3d07e1db	0.033174377
34	0x3e884068	0.26611638
35	0xbe24f762	-0.16109994
36	0xbe2de296	-0.16980967
37	0x3e854a4a	0.2603324
38	0x3ea4b043	0.32165727
39	0x3d608020	0.05480969
40	0xbd286e51	-0.04112083
41	0x3ecf890a	0.4053424
42	0x3e72cf9e	0.23712012
43	0x3e8feff6	0.28112763
44	0x3ee003c2	0.43752867
45	0x3db6730a	0.08908661
46	0x3eb26f67	0.34850618
47	0x3e298bca	0.16557232
48	0xbefba50d	-0.4914936
49	0xbdb37a75	-0.08763591
50	0x3d229600	0.039693832
51	0xbe051ac6	-0.12998495
52	0xbdf27a39	-0.11839718
53	0x3e9a04f0	0.30081892
54	0xbe0ac8db	-0.13553183
55	0x3e2f71dc	0.17133278
56	0x3e0474e5	0.12935217
57	0x3e36dcdf	0.17857693
58	0xbdc1392f	-0.09434735
59	0x3e44d5cd	0.19222184
60	0xbe280e7b	-0.16411774
61	0x3e28c06c	0.16479653
62	0x3d630b4b	0.05543069
63	0xbdd7034f	-0.10498678
64	0xbdac5f0f	-0.084165685
65	0x3e00c025	0.12573297
66	0xbe6eb6e4	-0.23311955
67	0x3e3e8e6e	0.1860902
68	0x3d6a28f2	0.057167955
69	0x3b594559	0.0033152907
70	0x3e4b0a7d	0.1982822
71	0x3dd515c8	0.10404545
72	0xbe029930	-0.12753749
73	0x3e3aa1f3	0.18225841
74	0x3e0d7602	0.13814548
75	0xbe518994	-0.20462638
76	0xbdd2f287	-0.10300165
77	0xbe96899c	-0.29401863
78	0xbd805cc7	-0.06267696
79	0x3b2bbf21	0.002620645
80	0x3d25df46	0.040496133
81	0xbe5d3bc6	-0.21604833
82	0xbb3de964	-0.0028978223
83	0xbe11f576	-0.14253792
84	0xbca609f1	-0.020268412
85	0x3d0fe299	0.03512821
86	0x3d5323a2	0.051547654
87	0x3eb3bb3d	0.3510379
88	0xbbb1d4df	-0.0054269875
89	0x3e2064d0	0.15663457
90	0x3b8d4cd8	0.004312139
91	0x3d3d5491	0.046223227
92	0x3e47d209	0.19513716
93	0xbd07bf39	-0.03314135
94	0x3e1aa9f3	0.15103893
95	0x3e1394a9	0.14412178
96	0xbd60dba4	-0.054896966
97	0x3e695c15	0.22789033
98	0x3d0ae67e	0.03391122
99	0x3dc13d2d	0.094354965
100	0xbed1403a	-0.40869313
101	0x3c812ef1	0.015769454
102	0xbd04b616	-0.032400213
103	0x3eaabde0	0.33347988
104	0xbe5be9c6	-0.21475896
105	0x3d6e74c8	0.05821684
106	0xbd1a77e7	-0.037712004
107	0x3d365ced	0.044522215
108	0xbe145db3	-0.14488868
109	0xbe871b80	-0.26388168
110	0x3f49a9b2	0.7877456
111	0x3d6b4583	0.05743934
112	0xbdc49870	-0.09599388
113	0xbd6a78cd	-0.05724411
114	0xbe0f3c0a	-0.13987747
115	0xbe51a81d	-0.20474286
116	0xbec3f21d	-0.38270655
117	0xbdb7db9e	-0.089774355
118	0x3dcaedbc	0.099086255
119	0x3d8b11d3	0.06790509
120	0xbdb10a4d	-0.08644543
121	0x3dd576e9	0.10423071
122	0xbaa7fe6b	-0.0012816911
123	0x3e4deafd	0.20109172
124	0x3e15d689	0.1463262
125	0xbd11ad6a	-0.03556577
126	0xbc6bae8d	-0.014384878
127	0xbe4e7f9c	-0.20165867
128	0xbdcaddbc	-0.09905574
129	0x3de3967d	0.11112688
130	0xbe1dff1f	-0.15429352
131	0xbebffb82	-0.37496573
132	0x3d4b0e38	0.049574107
133	0xbdec6a7d	-0.115437485
134	0x3e19b980	0.15012169
135	0xbe349c94	-0.17637855
136	0x3e2c709e	0.16839835
137	0x3e453f0c	0.19262332
138	0xbdebf73d	-0.11521766
139	0x3e80bf1b	0.25145802
140	0x3e686bf1	0.22697426
141	0xbe473b31	-0.19456173
142	0x3ec52fc3	0.38513002
143	0xbdf635f4	-0.120220095
144	0x3ddb4f8b	0.10708531
145	0xbe23f298	-0.16010511
146	0x3d3f7b21	0.046748284
147	0x3e315ab3	0.17319755
148	0xbdbef345	-0.09323744
149	0x3ddb842b	0.107185684
150	0xbed03397	-0.4066436
151	0x3ec37554	0.38175452
152	0xbbac12a0	-0.0052512437
153	0x3dfd443e	0.12366532
154	0xbe5c0bad	-0.21488829
155	0x3e022775	0.12710364
156	0xbc4552b7	-0.012043647
157	0x3d9a8ee0	0.075467825
158	0xbdbb8269	-0.09155733
159	0x3e8af077	0.27136585
160	0x3e63d7cb	0.22250287
161	0xbe581a05	-0.21103676
162	0x3d2ca49f	0.042149182
163	0x3e845d24	0.2585231
164	0xbe562104	-0.20911032
165	0x3c959666	0.018260192
166	0xbe4b7611	-0.19869258
167	0x3d8cd6c3	0.068769
168	0xbd26db1d	-0.040736306
169	0xbdb57b61	-0.08861423
170	0x3e1d0620	0.15334368
171	0x3ea3b766	0.3197586
172	0xbe66dd52	-0.22545364
173	0xbe891b31	-0.26778558
174	0x3e953e65	0.29149166
175	0xbcea120c	-0.028573059
176	0xbdf6f65b	-0.12058707
177	0xbe5c47c9	-0.21511759
178	0xbe196ccf	-0.14982913
179	0xbdbd2ae6	-0.09236698
180	0xbe7e2fd7	-0.24822937
181	0xbececbbf	-0.4038982
182	0x3e816623	0.25273237
183	0x3e55732a	0.20844713
184	0x3f0cfd2e	0.5507382
185	0xbdc7d7d7	-0.09757965
186	0xbccc90c4	-0.024971373
187	0x3efe0479	0.49612787
188	0xbc09fad7	-0.008421621
189	0xbd56a8f8	-0.052407235
190	0x3ed704f7	0.41995975
191	0xbd50f16a	-0.05101148
192	0xbe9e76ef	-0.30950114
193	0x3e191c64	0.14952236
194	0x3e2cf3c2	0.16889861
195	0xbe15355f	-0.1457114
196	0x3da8ff8f	0.08251869
197	0x3e5ebf64	0.21752697
198	0x3e0cfe29	0.1376883
199	0x3de1c8d0	0.1102463
200	0x3e005a05	0.1253434
201	0x3e475555	0.19466145
202	0xbe215134	-0.15753633
203	0xbcf30ad0	-0.029668242
204	0xbc3f874e	-0.011689974
205	0xbddd5482	-0.10807134
206	0x3e5c0109	0.2148477
207	0xbd83f9bb	-0.06444117
208	0xbd542337	-0.051791396
209	0xbcbfcebf	-0.023414014
210	0x3e1852de	0.14875361
211	0x3e059d64	0.13048321
212	0xbe3c9da9	-0.18419518
213	0xbe5bdf1a	-0.21471825
214	0xbea04bad	-0.31307736
215	0x3c9a6585	0.018847236
216	0x3e3854af	0.18001054
217	0x3e969d23	0.2941676
218	0x3e45185a	0.1924757
219	0x3e0d907e	0.1382465
220	0xbce77aeb	-0.028256854
221	0xbe64b873	-0.22335987
222	0xbe999dc7	-0.30003187
223	0xbeb1eb30	-0.34749746
224	0x3d41be49	0.04730061
225	0xbecb43af	-0.39700076
226	0x3ede2113	0.4338461
227	0x3dee4f0b	0.1163617
228	0x3e95625a	0.291766
229	0x3d863687	0.06553369
230	0x3d9d73d3	0.07688107
231	0x3e938a1d	0.2881631
232	0xbd488eb0	-0.048964202
233	0x3ebefb9b	0.37301335
234	0x3da9f3bd	0.082984425
235	0xbe97b209	-0.29628018
236	0xbda7084f	-0.081558816
237	0x3c514909	0.012773761
238	0x3efa19d2	0.48847824
239	0x3eb43377	0.35195515
240	0xbeb2c56f	-0.34916255
241	0xbe8ab7e3	-0.2709342
242	0x3e47fb55	0.1952947
243	0xbe443486	-0.19160661
244	0x3e5229bd	0.20523734
245	0x3e8ac5d5	0.2710406
246	0x3e9bd53d	0.30436125
247	0xbe06b6a3	-0.13155608
248	0xbc2d40ad	-0.010574502
249	0x3c9b18fa	0.018932808
250	0x3e86d4a8	0.2633412
251	0xbe4a6978	-0.19766796
252	0xbd93f93a	-0.072252706
253	0x3e2df157	0.16986595
254	0xbe7c53e2	-0.24641374
255	0xbeade575	-0.33964124

encoder.lstm.bias_ih_l1 f4 [200]
0	0x3e412f5b	0.18865721
1	0xbd368630	-0.044561565
2	0x3d9f2aa9	0.07771809
3	0x3d767ebf	0.06017947
4	0x3e8ce03b	0.27514824
5	0xbc8424da	-0.016130853
6	0xbbf461b3	-0.0074579357
7	0x3e4842f0	0.19556785
8	0x3dd032d6	0.10165946
9	0x3e0fde69	0.14049686
10	0x3ed023af	0.40652224
11	0x3e328dbb	0.17436878
12	0x3dd6b81d	0.104843356
13	0x3e5f89b2	0.2182987
14	0x3e616e5c	0.22014755
15	0x3c3a8519	0.011384272
16	0x3ee4f35b	0.44716915
17	0xbd1aef8e	-0.037826113
18	0x3d58a04f	0.052887257
19	0x3e1de2a0	0.15418482
20	0x3e04df06	0.12975702
21	0xbda6c6fa	-0.081434205
22	0x3df11c23	0.11772945
23	0x3e85e06d	0.26147786
24	0x3df11c04	0.11772922
25	0x3d7e2030	0.062042415
26	0x3e09bf0a	0.13451782
27	0xbd12bde9	-0.035825644
28	0x3e135ca3	0.14390807
29	0x3e8c8d1d	0.2745141
30	0x3e1bd9e8	0.15219843
31	0x3ecaa159	0.39576223
32	0xbddc46c0	-0.10755682
33	0x3e77537f	0.24152945
34	0x3cce6dd4	0.025198855
35	0x3dbcac2a	0.09212525
36	0xbddf0a50	-0.10890639
37	0x3df465a1	0.11933447
38	0x3ea4a631	0.32158044
39	0x3e10e079	0.1414813
40	0xbd497e10	-0.04919249
41	0x3d3988c7	0.045296457
42	0x3e8b73f5	0.27236906
43	0xb995a774	-0.00028544257
44	0x3e78e5ca	0.24306408
45	0x3e10175d	0.14071412
46	0x3e71c0a6	0.23608646
47	0x3e65d2c2	0.22443679
48	0x3e3725f3	0.1788557
49	0x3ccd0b6d	0.025029862
50	0xbe73a1cc	-0.2379219
51	0xbaa0db79	-0.0012272439
52	0xbd57faef	-0.052729543
53	0xbcb4b420	-0.022058547
54	0xbcc4dc43	-0.02403081
55	0x3e380944	0.17972285
56	0x3ce68615	0.028140107
57	0xbe61426c	-0.21997994
58	0x3ce2e058	0.027694866
59	0xbdb322e4	-0.08746889
60	0xbe55d7ea	-0.20883146
61	0xbe119cfa	-0.14220038
62	0xbd96296e	-0.07332121
63	0xbce234e6	-0.027613115
64	0x3d51ddeb	0.051237028
65	0x3d905b5e	0.07048677
66	0xbeafe1a8	-0.3435185
67	0x3e3f9b8c	0.1871168
68	0x3d5aeffa	0.053451516
69	0xbe0a5097	-0.13507305
70	0x3d9032df	0.07040953
71	0x3e775bbb	0.24156086
72	0x3d93fb12	0.07225622
73	0xbeb8318c	-0.359753
74	0xbe027e97	-0.12743603
75	0x3cf11266	0.029427718
76	0xbe2eea83	-0.17081647
77	0x3cc0e352	0.023545895
78	0xbdc3a9b7	-0.09553855
79	0xbf0791d7	-0.5295691
80	0x3d5fe6ac	0.054663345
81	0xbe40a4c3	-0.18812852
82	0x3d7b0e67	0.061293032
83	0xbe9ad607	-0.30241415
84	0xbe091757	-0.1338781
85	0xbd9af93d	-0.0756707
86	0x3d7111bb	0.0588548
87	0xbe253b94	-0.16136009
88	0x3b136d5c	0.0022495603
89	0xbdbe2721	-0.09284807
90	0xbd05cb16	-0.03266438
91	0x3d6137f7	0.054985013
92	0xbe99c8c6	-0.3003599
93	0xbda596c9	-0.080854006
94	0x3d1c6ef7	0.03819176
95	0x3d8ad581	0.06779004
96	0x3cf3a349	0.029740946
97	0xbe155f9e	-0.14587256
98	0xbe276c1c	-0.16349834
99	0x3d612a6a	0.05497209
100	0xbde5640d	-0.11200724
101	0x3da3fa0b	0.08006676
102	0xbe235b41	-0.1595278
103	0x3d83707e	0.064179406
104	0xbe2ca37f	-0.16859244
105	0xbdb19904	-0.086717635
106	0x3c17e677	0.009271256
107	0xbdad3912	-0.08458151
108	0xbda0cf1b	-0.07852002
109	0x3d560c3b	0.052257758
110	0x3db2e754	0.087355286
111	0x3d6c9600	0.05776024
112	0x3d4064ac	0.04697101
113	0xbe5a9d98	-0.2134918
114	0xbdb949ea	-0.09047301
115	0x3d3d281c	0.04618083
116	0x3cc12b38	0.023580179
117	0xbd82359f	-0.06357884
118	0x3ca62c58	0.020284817
119	0xbcb4c953	-0.022068655
120	0xbc3e7769	-0.011625149
121	0x3c97f13b	0.018547645
122	0xbe4fa944	-0.20279413
123	0xbe11d641	-0.14241888
124	0xbcac53bc	-0.021036021
125	0xbd907b3e	-0.070547566
126	0xbc593064	-0.013256166
127	0xbca70ffb	-0.020393362
128	0x3ddea891	0.10871995
129	0xbd4d44b2	-0.05011434
130	0x3e377601	0.17916109
131	0xbc9d0b8a	-0.019170541
132	0x3d0c8b6d	0.034312654
133	0xbcb6f584	-0.022333868
134	0x3da9104a	0.0825506
135	0xbd0e5e47	-0.03475788
136	0x3cbefb17	0.023313088
137	0xbd6c0367	-0.057620432
138	0x3d5cf8fb	0.053948384
139	0x3e15fb78	0.14646709
140	0xbc02f142	-0.007992091
141	0x3d26dae3	0.04073609
142	0xbd88f0b6	-0.06686537
143	0x3ce4389d	0.027859027
144	0x3daa107c	0.083039254
145	0x3dba27cc	0.09089622
146	0x3db179c7	0.08665805
147	0x3dbaca55	0.09120623
148	0xbd799d00	-0.060940742
149	0x3d551d7f	0.052030083
150	0x3d8bf8f0	0.068345904
151	0xbd7c1bad	-0.06154983
152	0x3c7bb41d	0.015362767
153	0xbbd6a485	-0.006550374
154	0xbc403b3b	-0.011732872
155	0x3cffb91a	0.031216193
156	0x383e6f29	4.5403056e-05
157	0x3d1aeb5b	0.03782211
158	0xbb62a840	-0.0034585148
159	0x3e09050a	0.13380828
160	0x3e894e2f	0.26817462
161	0xbd322b6f	-0.043498453
162	0xbd3a13e9	-0.045429144
163	0xbdf9b560	-0.12192798
164	0xbde84a37	-0.1134228
165	0x3de14a0a	0.1100045
166	0x3ddceec4	0.107877284
167	0x3d1c744c	0.038196847
168	0xbd600405	-0.054691333
169	0x3e3ca27d	0.1842136
170	0x3dfac418	0.12244433
171	0x3d8d0b37	0.06886905
172	0xbd9b9428	-0.07596618
173	0x3e9fa929	0.31183746
174	0x3dc6401e	0.09680198
175	0x3d201ee6	0.039091967
176	0x3e0f27b7	0.13979994
177	0x3c6f2477	0.014596096
178	0xbd0b7652	-0.034048386
179	0x3e9d0332	0.306665
180	0x3e0951da	0.1341013
181	0x3ea15f51	0.31518033
182	0xbe1247df	-0.14285229
183	0x3e7d757c	0.24751848
184	0xbe4f9a44	-0.20273691
185	0x3d5ff6f8	0.054678887
186	0xbe65f7f0	-0.22457862
187	0xbde8b08d	-0.113617994
188	0xbdc24563	-0.09485891
189	0x3dbce054	0.09222475
190	0x3d991f2a	0.07476647
191	0xbd3463cf	-0.044040497
192	0x3d351bea	0.044216074
193	0x3b22abb6	0.0024821586
194	0x3be93bab	0.0071177087
195	0x3d7ef535	0.062245566
196	0xbd9f6144	-0.07782224
197	0x3d8b241b	0.06793996
198	0x3dcbf580	0.09958935
199	0x3ce1185a	0.027477432

encoder.lstm.bias_hh_l1 f4 [200]
0	0x3e5efd13	0.21776228
1	0xbd8037c0	-0.062606335
2	0xbd61ba20	-0.055109143
3	0x3d233848	0.039848596
4	0x3e7959a0	0.24350595
5	0x3b95eabe	0.0045751026
6	0x3dd4acc8	0.10384518
7	0x3e1446b7	0.144801
8	0x3b7cba08	0.0038563032
9	0x3df6d063	0.12051465
10	0x3ee80ad1	0.45320752
11	0x3d527d12	0.051388808
12	0x3e0b2b07	0.13590632
13	0x3ccec01c	0.02523809
14	0x3e6cc593	0.23122244
15	0x3e2a0114	0.16601974
16	0x3ed8bb2c	0.423303
17	0x3dfa1352	0.12210716
18	0xba84e46e	-0.0010138878
19	0x3e9bd788	0.30437875
20	0x3df84bd9	0.12123842
21	0xbdd555a9	-0.10416729
22	0x3e1bb82f	0.15206979
23	0x3ebc5c16	0.36789006
24	0x3cea0c19	0.028570222
25	0x3b3d437a	0.002887933
26	0x3d8527a5	0.06501702
27	0xbd083564	-0.033254042
28	0x3df45eda	0.11932154
29	0x3e81791d	0.25287715
30	0x3e2e7b74	0.17039281
31	0x3ef30d99	0.47471312
32	0x3d811d29	0.0630439
33	0x3e4183ca	0.1889793
34	0x3dabba74	0.083851725
35	0x3d9063cd	0.070502855
36	0x3cd010a1	0.025398554
37	0x3e7accce	0.2449219
38	0x3e4a123f	0.19733523
39	0x3d0885a3	0.03333057
40	0x3df846ca	0.12122877
41	0x3d2d5350	0.04231578
42	0x3e7100a8	0.23535407
43	0x3d8c4291	0.06848634
44	0x3e5d836a	0.21632162
45	0x3e5df2d2	0.2167466
46	0x3e7b3682	0.24532512
47	0x3e406200	0.18787384
48	0x3e73781f	0.23776291
49	0xbd4ba8f0	-0.04972166
50	0xbe7e77a6	-0.2485033
51	0xbe10c43e	-0.1413736
52	0x3db99839	0.09062237
53	0x3d912833	0.070877455
54	0x3be83b30	0.007087134
55	0x3dc24711	0.09486211
56	0x3ddac4b7	0.10682052
57	0xbe7b4f18	-0.2454189
58	0xbe2a2627	-0.16616116
59	0xbd5848ac	-0.05280368
60	0xbe6504ed	-0.2236516
61	0xbd96ec55	-0.073692955
62	0xbe78b108	-0.24286282
63	0xbd6f62a4	-0.05844368
64	0xba2396e6	-0.0006240442
65	0x3d7ceb87	0.061748054
66	0xbeb066aa	-0.34453326
67	0x3d8f74e3	0.07004716
68	0xbe034679	-0.12819852
69	0xbe291a31	-0.16513897
70	0xbd560e71	-0.052259866
71	0x3e084fc5	0.1331168
72	0xbc4e41b7	-0.01258891
73	0xbedd5f42	-0.43236738
74	0xbd072e3b	-0.033003073
75	0x3cb83a60	0.022488773
76	0x3d498700	0.04920101
77	0x3d89f128	0.0673545
78	0x3d98237f	0.07428645
79	0xbf06253b	-0.5240056
80	0xbd091935	-0.033471305
81	0xbe68b111	-0.22723795
82	0x3d875957	0.06608837
83	0xbe1baceb	-0.15202682
84	0xbe0324c5	-0.12806995
85	0x3d59349a	0.05302868
86	0x3bbac111	0.005699285
87	0xbe1c56ce	-0.15267488
88	0x3e07d33d	0.13264175
89	0xbda8e73e	-0.08247231
90	0xbca20e9f	-0.019782363
91	0x3cf14b4d	0.029454852
92	0xbe2154ae	-0.15754959
93	0xbd1b2540	-0.03787732
94	0xbc6023a0	-0.013680369
95	0x3bcd6d3e	0.006269126
96	0x3c81157b	0.015757313
97	0xbdb2ce66	-0.08730774
98	0xbe56f912	-0.2099345
99	0x3d8da0e1	0.06915451
100	0x3d59d4cc	0.053181455
101	0x3d1b3f22	0.037902005
102	0xbdc06744	-0.09394696
103	0x3dbb414f	0.09143316
104	0xbd9a21e9	-0.07525999
105	0x3ca373c6	0.019952666
106	0x3d8276d8	0.06370324
107	0x3d44038a	0.047854938
108	0xbb2666ef	-0.0025390943
109	0x3dd64e6f	0.10464179
110	0xbd9d816c	-0.07690701
111	0x3d807f38	0.06274265
112	0x3dd6debc	0.10491702
113	0xbe752a5d	-0.23941942
114	0xbdad5f6e	-0.084654674
115	0xbc4fee74	-0.012691129
116	0xbd696eff	-0.05699062
117	0x3dc01fe9	0.093810864
118	0xbe37d99a	-0.17954102
119	0xbd148324	-0.036257878
120	0xbcdc10a1	-0.026863398
121	0xbd600d25	-0.054700036
122	0xbd9d9cb0	-0.076959014
123	0x3d27bdc4	0.04095246
124	0x3bd592bc	0.0065177362
125	0xbe1e55af	-0.15462373
126	0x3d12d3c5	0.03584649
127	0x3dac5607	0.08414846
128	0x3e229c55	0.15879948
129	0x3dcc42ba	0.099736646
130	0x3d927a95	0.07152287
131	0xbd29beed	-0.041441847
132	0x3cb216b4	0.021739341
133	0x3d36dc54	0.044643715
134	0x3d86e2ad	0.06586204
135	0xbdb78477	-0.089608125
136	0xbd45d4e6	-0.04829874
137	0x3d5921ca	0.05301074
138	0xbd478a0c	-0.048715636
139	0x3dcee0c8	0.10101467
140	0x3ae517c0	0.0017478392
141	0x3d9ea741	0.07746745
142	0x3da72538	0.08161396
143	0xbc6a6a9e	-0.014307646
144	0x3e1d5b65	0.15366895
145	0xbc6b32d6	-0.014355382
146	0x3e3c206e	0.18371746
147	0x3cd550d8	0.026039526
148	0xbc345730	-0.011007115
149	0xbbc25052	-0.005929985
150	0xbd5593ff	-0.052143093
151	0xbe00beb3	-0.12572746
152	0x3951a0ea	0.00019991738
153	0x3d543ea7	0.051817562
154	0x3e063baa	0.13108698
155	0xbd7be928	-0.061501652
156	0x3dda6705	0.10664181
157	0x3da37a88	0.07982355
158	0xbd9caed5	-0.07650534
159	0x3df019e3	0.117236875
160	0x3e632de5	0.22185476
161	0x3d261907	0.04055121
162	0x3d297d3b	0.041379195
163	0x3d43adec	0.047773287
164	0xbc10457b	-0.008805628
165	0x3e0bc42d	0.13649054
166	0x3e146acb	0.14493863
167	0x3d8c1ddf	0.06841635
168	0xbd50e504	-0.050999656
169	0x3d6b0dc9	0.057386193
170	0x3be9e24a	0.0071375715
171	0x3ddd5de2	0.10808922
172	0xbd7ccb6b	-0.061717432
173	0x3ea79a1c	0.32734764
174	0x3e12e6bc	0.1434583
175	0xbc4b948f	-0.012425556
176	0x3d655733	0.055991363
177	0xbe43b547	-0.1911212
178	0xbd196f08	-0.037459403
179	0x3eac6db1	0.33677438
180	0x3e22861f	0.15871476
181	0x3eab5a94	0.33467543
182	0xbdfe8414	-0.12427536
183	0x3e50aaa9	0.20377602
184	0xbdb585dc	-0.08863422
185	0xbdf5f4c0	-0.12009573
186	0xbde762c7	-0.11298137
187	0xbd97501a	-0.07388325
188	0xbc651434	-0.013981868
189	0x3d802b3f	0.062582485
190	0x3d247f93	0.040160727
191	0xbd7370fb	-0.05943392
192	0x3c7ec181	0.015549065
193	0x3bf0f046	0.0073528616
194	0x3c2b35ad	0.010449809
195	0x3da1c866	0.07899551
196	0x3d8563b2	0.06513156
197	0xbdbce4f1	-0.092233546
198	0x3d6d8be8	0.057994753
199	0x3c78814b	0.015167545
