Multimodel/Codes/Model_Path/TFT.pth (torch, 501187 bytes, 22 tensors)

encoder_lstm.weight_ih_l0 f4 [256, 8]
00000000: 1c6b dbbc d3f9 23be a769 75be 16ea 88be
00000010: b23c 8b3e d16e 18bf 1cbe 653e 895a c6be
00000020: 9ac0 073e 8cf2 8a3e 4418 e9bc 2a71 3ebf
00000030: 6670 1e3e 79f5 b83f ce5d 21bf 73fb f6bd
00000040: 2110 493e 27d8 973c 583f 7d3d 06f8 46bf
00000050: fe6c 1cbe ac2b b33d 5721 8abe 825c 0b3e
00000060: f02c 153f 8763 c9be 265f dc3b 10d8 91be
00000070: 1164 42bc ea9d 87be f222 203e 09cc 38bf
00000080: 911c f9be ac3f 1d3f 64e7 b4bd a4b9 bfbe
00000090: 6281 95bd 9c26 cdbe f71e 173e 508d 0cbe
000000a0: e65a 10be 2e5a e73c 3159 d4bd d0f3 803e
000000b0: a53a 94bc 1467 003e e1a8 57bd aa76 bebd
000000c0: af7b debe 3152 c53e adef 2fbd 8854 a83d
000000d0: 01d1 0c3e eed8 4fbe 5081 5dbd 8bae e1be
000000e0: bece eabc e1cf da3d ed59 d53d c443 1ebd
000000f0: 8914 003e a61c cbbd 2397 99be 4b4f 6dbe
00000100: b5b8 3bbe 72c9 873d 6a2b 00be 7ae5 f0bd
00000110: 4010 b83c d9de 63bc 2e1d 0dbe 1386 e5bd
00000120: 7c4d 36bd 0978 1bbd bcc5 953c ec6c 603d
00000130: db2d 36be 5c7f 8d3d 42b0 113e 2e91 a5bb
00000140: 99f7 c9be fd8a 493e 2d21 223e 3897 e43d
00000150: f01b 2c3e 6337 d7bd 6d6c 6abb afaf babe
00000160: b184 103f 1d6e 7fbe 7a0b 78bd 68fe e63e
00000170: 0571 2cbd 97e3 ed3e a8ad a73e 0034 ac3e
00000180: d7ca 56bd 78b1 bb3c 5aeb ca3d 6415 58be
00000190: 6ba9 97bd d384 4dbd 9d7e bb3d d036 b83d
000001a0: 2ca2 253f 5083 98bd 95bf 21bc 17cb 3b3f
000001b0: de0b 183e fe95 b0be 8e2e e53c c063 e73e
000001c0: 45df 213e 032e a9be b173 373d 7f6c 41bf
000001d0: e5eb c9bd cdde 8ebe b9b6 9c3e 1ffb 003f
000001e0: 3dc7 82be 2b9e 9d3e 009b a13d b68c f43c
000001f0: 5cd2 a63e aff3 d0bb 1cd4 f0bd f6d9 6a3e
00000200: cd45 5dbd f443 263d 0aff a9bd 9735 92be
00000210: bd1c 383e 5256 1e3e 4abb 22bd 292b a13d
00000220: 65a7 e93e c662 eebe 0cbe cbbc 9910 8dbd
00000230: aa0c a33e 7eaa 07bf 5258 72bd 674a afbc
00000240: 046c 24bd c88c b5bd 0f05 c63d 8721 e23e
00000250: b0d0 adbc 481c 4dbe b989 b63d f646 4cbe
00000260: 382e d1bc 0b72 3d3d f78c 23be ff52 3abf
00000270: ba67 17be b5af 583e 4a08 6dbd 44dd 173e
00000280: df19 d0bd e1a6 0f3d 3958 183e de2d a23e
00000290: 771b 8cbd 0827 b6be 3139 f2bb 2758 0ebe
000002a0: 599f 573e 8073 7cbe 95cc 453d cd06 b13e
000002b0: 44fb 83bd 9367 d93e 25a2 2f3e a604 cd3e
000002c0: 6abd ad3c 488a 173e e576 1c3d a74c b33c
000002d0: cbaf 57bd 33a4 e3be 9ffd d03d 0615 75be
000002e0: e0e4 14be c0f9 7abe d8e0 d7bd 7822 8a3e
000002f0: 5d02 1abe 1d3d 093d e325 1cbe cc87 5cbe
00000300: 4a08 a1bd 6301 b7bd 00d9 4dbc 310c ffbe
00000310: 7039 763e 9429 06be 4bd6 393e 87dc 253e
00000320: 8ea3 1f3e 0c72 bc3e 4694 af3d b5b1 393d
00000330: 47b6 1f3e eb48 753e 83ff 303e 9d12 053e
00000340: e3d1 643e a801 10be 10b4 15bd 0e55 0d3e
00000350: 8318 c53e 6cad 9cbe d07b 503e c26b 8ebe
00000360: 42aa 063f b2a1 ae3e 312b 963d 88b4 47bd
00000370: a62c bdbe 168b 6d3e 8c21 903e 351b 393e
00000380: 77ff 203e e0d1 803c d04b 59bd 5d5b 263f
00000390: 5e46 093e 5baa 8bbe 0f89 97bd ec33 063e
000003a0: 00e0 ce3d cff1 8bbc 984d 37be baf1 cebe
000003b0: 219a 80be 7b5c 2e3d fca7 b73d 4c4c 813d
000003c0: 9816 0ebd 7554 fbbc 216c 6b3d 07df c8be
000003d0: d2f3 943c bf98 89bc d9e5 56be d1a4 d8bc
000003e0: 800e 33bd 978d 88be ef29 d63d f728 67be
000003f0: a80e 02bd 61ce 713d 1d13 273e 902c 093d
-0.026784472 -0.16013269 -0.23966084 -0.26741093 0.27194744 -0.5954409 0.22435802 -0.38740948
0.13257065 0.27138174 -0.028453954 -0.74391425 0.15472564 1.4449912 -0.6303376 -0.12059679
0.19635059 0.018535687 0.061827987 -0.77722204 -0.15275952 0.08748564 -0.2697856 0.13609508
0.58271694 -0.39333746 0.0067252098 -0.28485155 -0.011864678 -0.26487666 0.1563833 -0.7218633
-0.48654607 0.6142528 -0.08833197 -0.3744632 -0.073000684 -0.4006852 0.14757906 -0.13725781
-0.14097175 0.028241243 -0.103685744 0.25186014 -0.01809437 0.12539321 -0.05265129 -0.09299977
-0.43453738 0.3853927 -0.042953182 0.08219248 0.13751604 -0.20297596 -0.0540784 -0.44078478
-0.028663035 0.10684181 0.104175426 -0.038638845 0.12507834 -0.09917574 -0.2999812 -0.23174779
-0.18332179 0.066302195 -0.12516561 -0.11762519 0.022468686 -0.0139081115 -0.13780662 -0.11207213
-0.04450749 -0.03795627 0.018282764 0.054791376 -0.1779093 0.069090575 0.14227393 -0.005052707
-0.39446715 0.19681926 0.15832968 0.11161655 0.16807532 -0.10508611 -0.0035770193 -0.3646216
0.5645247 -0.24944349 -0.06055782 0.45115972 -0.04209997 0.464627 0.32749677 0.33633423
-0.052439537 0.022911772 0.09908171 -0.2110191 -0.07405361 -0.0501755 0.09155009 0.0899483
0.6470058 -0.07446921 -0.009872337 0.73356766 0.14848277 -0.34489435 0.0279763 0.4519329
0.15807827 -0.33042917 0.044788066 -0.75556177 -0.098594464 -0.27904359 0.30608156 0.5038318
-0.25542632 0.30784735 0.07890892 0.029852252 0.32582366 -0.0063767056 -0.11759207 0.22934708
-0.054021645 0.04059215 -0.08300598 -0.2855651 0.17979713 0.15462616 -0.039729394 0.0786956
0.45635524 -0.46559733 -0.024870895 -0.068879314 0.318456 -0.52994525 -0.05916626 -0.021397782
-0.040142074 -0.088647425 0.096689336 0.44166204 -0.021217674 -0.2003032 0.08912987 -0.19948944
-0.025534734 0.046251338 -0.15971743 -0.7278289 -0.14785662 0.21160777 -0.057869233 0.148305
-0.101611845 0.035071258 0.14877404 0.3167562 -0.06841176 -0.35576653 -0.0073920717 -0.13900815
0.2105688 -0.24653435 0.048290808 0.345755 -0.064444095 0.42461833 0.17151697 0.4004261
0.021208484 0.14798844 0.038199324 0.021887137 -0.052657884 -0.44461212 0.102046244 -0.23933801
-0.14540434 -0.24509335 -0.105409324 0.26979423 -0.15039964 0.033505548 -0.15248828 -0.21536177
-0.07862909 -0.08935811 -0.012563944 -0.4981399 0.24045348 -0.13101798 0.18148153 0.16197406
0.15589735 0.3680576 0.08573203 0.04533549 0.15596877 0.23953597 0.1728497 0.12995382
0.2234569 -0.14063132 -0.036548674 0.13801977 0.38495263 -0.3060106 0.2035973 -0.27816588
0.5260354 0.3410774 0.07332457 -0.048756152 -0.36948127 0.23197588 0.28150594 0.18076785
0.15722452 0.015725076 -0.053050816 0.6498316 0.13405749 -0.27278408 -0.07399189 0.13105744
0.10101318 -0.017083077 -0.17900693 -0.40418798 -0.2511759 0.042568665 0.08967587 0.063133806
-0.034689516 -0.03067992 0.057476167 -0.39232656 0.018182669 -0.016796468 -0.20986117 -0.026445778
-0.043715 -0.26670524 0.10457217 -0.2257422 -0.03175226 0.05903471 0.16315885 0.033489764

encoder_lstm.weight_hh_l0 f4 [256, 64]
00000000: fb53 013e 6110 adbe 9e0e 3bbe 0289 eabd
00000010: 61a7 a83b b94b 1a3e bca9 3bbe a4a1 19be
00000020: 4c18 2f3d 2015 9b3e 29a5 a23d d313 973d
00000030: 5d84 843e 8bae 5cbe 5544 ee3c 4440 88bd
00000040: b9bd c53d 681e 353d 3568 1f3c 699c b03b
00000050: 5f11 143d cdf3 7cbc a452 a83e 6c55 0fbe
00000060: 460f 2bbe 1331 ef3d ca64 c1bc a701 273e
00000070: 765d cf3d eee9 d53e 333f 6dbe d306 84bc
00000080: 0d62 df3d 88db 8cbe e671 00bf 8e50 c8bb
00000090: 75be 693e 3193 65be 4224 96be 0ef1 9e3d
000000a0: 809b 95be 325f 073d f160 37be 45a2 923e
000000b0: f3ab 193e ea43 ffbc 5603 e43d a1ef 413d
000000c0: ca3e 19be dede 713e b03b 1ebc f10d 17be
000000d0: 0c20 9a3e 0e7c b73d e6fa dd3d 266c ae3c
000000e0: de96 313e 2bb6 c2bd d961 3fbe 8293 8cbd
000000f0: 13c0 e73c 0a05 a4bd cb41 8a3d 2922 ce3d
00000100: a65b 503e ddc4 82be 8ab2 58be df12 02bf
00000110: 5ddc e23c 5e43 afb9 e069 d93c 3960 45be
00000120: f59b 70bb d598 0c3e 8469 34be 9b63 06be
00000130: 7c17 fd3d 7c98 b8be 21fb 31be 68ba 50be
00000140: d9c9 9ebd c1d0 7cbe cf53 0f3e 3896 ae3d
00000150: c4c3 163e 7ccf c3bd 8968 ee3e 122f 083d
00000160: 8514 31be 66be 53bb d778 c43d b642 703e
00000170: 9570 8a3e 3ad6 113e 2e03 00be 02dc 70be
00000180: 9887 fabd 37c6 4cbe 1723 a9be 766b bb3d
00000190: aa5a 623d 9262 a1bd 001f 07bd 55af 26be
000001a0: 1367 babe c9ad 4bbe 5e52 69be 646c 16be
000001b0: 902d 513e 0bfd 7e3e 6788 ad3e 8aa9 b1be
000001c0: 11e5 1a3d b3b7 593e 7075 3e3e 4dea 64bd
000001d0: 282b 58be 33d9 793d dcd3 a63e 95fd b3bc
000001e0: 5364 1d3f ca30 32be dc0f 3e3d dbaa 833d
000001f0: e6be f4be 0f99 3abe 586c 5dbe a601 433e
00000200: f143 12be ab9e 9e3e a7e8 053e 05aa bf3c
00000210: 6228 40be 4323 aabd 5352 43bd c27e 9abd
00000220: 783b c43d 8894 3cbd dab1 dabd b84b 9ebc
00000230: 374a 99be cdb5 473e 13c7 bebe 1e73 96bd
00000240: 05e8 593e 5458 b43d 8312 2d3d c973 5ebe
00000250: 42ba 6d3e 056c d23d e4b9 f6bd 457b 7d3d
00000260: 1e72 bd3c 1192 bb3e 883f e3bd effa f4bd
00000270: 5578 c2be 31b1 5cbe 09a4 f93d 1d45 d0bd
00000280: d03b 41be 48d3 7bbe e2e9 d23e 5d13 b43e
00000290: a4d8 0a3e 116f eebe 0da6 303e e90a c13e
000002a0: 5d50 223e 09e6 20be 0d92 83bc 248f 53bd
000002b0: 0dcd 93be 057c c4bd cc4f 803d dada 19be
000002c0: edcb 0ebd 7b00 dbbd ea02 ac3c ca2f 843e
000002d0: 3dd0 61be 3ec1 733e 68ff 453d d77f 0b3e
000002e0: 99da a3bd 6123 46be 377e abbd 2783 eabc
000002f0: 942f ca3d 48a6 133e cd65 4b3d 4804 a0be
00000300: ffcb c33d cebe 883d af22 05be 99fd 243e
00000310: c5e6 14be 3290 353d 6410 823e 80b3 75be
00000320: b748 8a3d 238b 8a3e 59af f0bc 1540 57be
00000330: 1fbe 5c3d 4fda 9b3d 1ac4 613e 8efe 033e
00000340: bf95 643d 9644 33bd 6f5f 4b3e 46c7 7a3e
00000350: 6e0a 05bd a1d6 a23d 2cb0 163e 62f4 9bbc
00000360: c801 183e 5055 8ebc f9fd a13d 83ab c53d
00000370: 55be 823e 241b f53d 0a2a cabd 7a4f d33a
00000380: 3682 d1bd 9d40 873d 21fa 22be 7407 ea3d
00000390: d025 b6bc ae77 a53b c2e8 0ebe 3a91 cb3c
000003a0: 0cab 5dbd 4d6e b63e e654 2dbe cdd0 b93d
000003b0: 9461 563c 27d4 11be 1c3e f23a 5da2 34bd
000003c0: b198 0ebe 934d 9fbd d56d 483e e398 353d
000003d0: 739f 893e 7243 6fbc 8ea1 21be 5476 5ebb
000003e0: e70e d73d 32dc 27be bb19 33be 6699 70bd
000003f0: 267a 883d d9ab 29bd 76b0 043d a28f 3f3e
0.12629692 -0.3380156 -0.18267295 -0.114519134 0.0051469062 0.15067948 -0.18326467 -0.15003067
0.04274778 0.30289555 0.07941658 0.07376828 0.25882235 -0.21550958 0.029085318 -0.06652883
0.09655327 0.04421845 0.009729435 0.0053897393 0.03614938 -0.015438986 0.3287555 -0.1399743
-0.16705045 0.11679282 -0.02360763 0.16309224 0.10125248 0.41780037 -0.2316864 -0.016116535
0.109073736 -0.2751124 -0.50173795 -0.0061131185 0.2282656 -0.2241943 -0.29324538 0.07760821
-0.292202 0.03304977 -0.17908074 0.28639427 0.15007 -0.031160314 0.11133449 0.04734767
-0.14965358 0.23620173 -0.009657785 -0.14751412 0.30102575 0.089592084 0.10838871 0.021291804
0.17342708 -0.09507402 -0.1868967 -0.068640724 0.02828983 -0.080087736 0.0675083 0.10065109
0.20347461 -0.2554082 -0.21161857 -0.50810045 0.027692968 -0.00033428794 0.026539743 -0.19274987
-0.0036714051 0.13730176 -0.17618376 -0.13123934 0.12357995 -0.36053836 -0.17380954 -0.20383608
-0.07753343 -0.24689008 0.13996814 0.08524746 0.14723116 -0.09561059 0.4656413 0.033248015
-0.17292984 -0.0032309531 0.09593361 0.23462948 0.27039018 0.14241877 -0.12501213 -0.23521426
-0.12232894 -0.19997488 -0.33034584 0.09151356 0.055262245 -0.07880129 -0.03298855 -0.16277821
-0.36406764 -0.19890513 -0.22785327 -0.14689785 0.20427537 0.24901216 0.3389313 -0.3469966
0.03781611 0.21261482 0.18599486 -0.05588751 -0.21110213 0.060998153 0.3258351 -0.021971503
0.6148121 -0.17401424 0.046401843 0.064290725 -0.47801894 -0.1822245 -0.21623361 0.19043598
-0.1428373 0.3098043 0.13077031 0.023396501 -0.18765405 -0.08307507 -0.047685932 -0.075437084
0.09581655 -0.046040088 -0.10678454 -0.019323215 -0.29939434 0.19502945 -0.37261257 -0.073461756
0.21279915 0.0880591 0.042253982 -0.21723856 0.23215583 0.10274509 -0.120471746 0.061885137
0.023125704 0.36634877 -0.11096102 -0.11961924 -0.3798243 -0.21551968 0.1218949 -0.10169432
-0.18870473 -0.24592316 0.41194063 0.35171023 0.13559204 -0.46569112 0.17250843 0.37703636
0.15850969 -0.15712751 -0.016060853 -0.05165018 -0.2886738 -0.09593967 0.0626522 -0.15024891
-0.034862448 -0.10693451 0.020997483 0.2581771 -0.22052093 0.23804185 0.048339278 0.13622986
-0.080006786 -0.19349433 -0.08373683 -0.028626991 0.09872356 0.144189 0.04965763 -0.31253266
0.095603935 0.06677018 -0.13001512 0.16112365 -0.14541157 0.04432697 0.2540313 -0.23994255
0.067521505 0.27059278 -0.029380487 -0.21020539 0.05389225 0.076099984 0.22047463 0.12890074
0.05580687 -0.04376658 0.19860624 0.2449008 -0.03248065 0.079510935 0.14715642 -0.01903743
0.1484443 -0.017374665 0.079097696 0.09651854 0.25535837 0.11968067 -0.098712996 0.0016121708
-0.10229914 0.06604121 -0.15915729 0.11427203 -0.022234827 0.0050496673 -0.13955978 0.024849523
-0.0541182 0.35631028 -0.16926917 0.09073029 0.013084788 -0.14241086 0.0018481645 -0.044100154
-0.13925435 -0.07778468 0.19573148 0.044335257 0.26879463 -0.014603483 -0.15784284 -0.003394504
0.10500889 -0.16392592 -0.17490284 -0.058740042 0.06663923 -0.041423652 0.03239485 0.18707135

encoder_lstm.bias_ih_l0 f4 [256]
00000000: e88b ebbc 0f85 523d 7019 ccbd 99ed 983d
00000010: 5485 e8bc 72ff 11bd bb4a 983d 72c3 253d
00000020: fa98 393e 5bc5 853e 619f 65bb bd83 5e3e
00000030: 04bc e03d c2fc 413e 834f f23c c1a0 e23d
00000040: c7ad 093e bb6d dc3d 46ab 9f3d 4058 083e
00000050: b04f 1f3d 9149 9d3d 0e16 593e 495a d0bb
00000060: d08a b0bc 0089 0d3d 985e 1f3e de2f c43d
00000070: 8733 c13e 8058 ad3c 9fcf 663e 2e02 bfbc
00000080: 7265 403e 5690 dd3d 313f a03e a84b e93d
00000090: da14 143e 0663 4a3e 2846 a43e 667e e53d
000000a0: f1df e63d 0d21 2b3d 12d1 6c3e 4ea6 cb3e
000000b0: ce32 893e ee95 b2bc 2bf6 283e c973 313e
000000c0: 09c8 093d 2916 273e 3852 b33e b078 d33d
000000d0: df99 843d 9407 733d e912 8c3b 441c 0e3e
000000e0: 802e e23e 3f55 06bd 86d9 9d3e 9014 9b3d
000000f0: 3550 0a3e 40d6 39bc ede5 4c3e e5c3 033e
00000100: f9d7 5bbe 9b30 003e 3837 823e 72aa 33be
00000110: b188 093c 6b81 ad3d 7df3 bd3d ecdf 023d
00000120: db56 acbd 3d11 303d b8e1 d9bd c08e de3d
00000130: 12b5 78bd c184 4d3c f1fe cebd aa85 8d3d
00000140: 70ec 223d dc52 b43d 8bc9 cb3d 9db5 4e3d
00000150: 0335 7fbe cde6 f73d ddd6 e1bd 0304 47bd
00000160: a79e de3d 4b2c 373e adb0 813c 862c 9fbe
00000170: bacc c1be 5b9b 3cbe 193b d5bc ca01 003e
00000180: 639a 863d 7667 ba3d 1d01 f3bd 6584 f03d
00000190: ef7c a43d cfb6 2e3e cd8e 38be ac7d 1abc
000001a0: fb02 ffbd a09d a4bd 919f a5bd d907 323e
000001b0: e979 c73d 3f94 b9bc 79b3 f83d beba 9cbd
000001c0: 2af6 0b3d 2592 86bd 0092 0fbe 1a2a a2bd
000001d0: c9ea 73be 3c20 a6bc 69aa b6bd 4732 8abe
000001e0: d83f 2abc 35d2 0f3e 3ed7 613d 8994 5bbd
000001f0: 56e7 3d3e 98b4 143d 4955 5a39 8ced c5bc
00000200: 77a9 e33d 5c16 94bd 8148 953b 9ca0 6ebd
00000210: 34e8 03bc 3a67 b33d 6265 4ebd 80a1 d7bb
00000220: 02f0 15bd 3ba6 c93d be1a 813c 9c26 f7bb
00000230: 0e3e 1abd 36b4 cabd 5f2c 00bd f154 9abb
00000240: ec56 643d 62ff 0dbd a8cf 983d 3173 5fbc
00000250: 317d 4abd fec9 e83c 471a febc c418 fa3c
00000260: 3d55 20bd c4b0 d43c 2050 883b b6fa 0e3d
00000270: 705a 80bd 3cf0 a6bc 7b9d e53c 9409 733d
00000280: e2ea 82bd 2d3f 9bba d677 86bd 28f6 093d
00000290: 7a39 8a3d ede7 983c 37a5 d03d 8e1f 7fbd
000002a0: 1747 acbc 5ac1 823d 3174 a8bd 52f0 ef3c
000002b0: 54c6 8dbd d2cf 203c 8b5f 8abd 2a62 8c3a
000002c0: 547a a23d e144 b93c 9646 fdbc 2302 c13d
000002d0: 03be cebd d185 af3d 51d1 a53d 328c d2bd
000002e0: 0d07 943c 6564 933d eaa1 3dbd f85c 223d
000002f0: 591c 1bbe 99f4 363a 0e95 a23d adbc 0abd
00000300: 7600 b73d a32d 873e 54f9 743d d7d2 733d
00000310: f80d dbbd 81e2 233d 718c ae3c 44c3 333d
00000320: 0c1e d03c 5704 753e ed40 ce3c 7db0 843e
00000330: 9bf6 c4bb 7965 143e 92a2 173d 5260 8cbd
00000340: 2e0f 4e3e d7a3 9038 cd35 fc3d 4750 323e
00000350: 1ca2 4b3d 17f7 5ebd c60b 143e 43ff 5e3e
00000360: adfe 883d 3bc7 a73d 6590 dd3c 2254 9b3e
00000370: 24de dd3e 968c b1bd 6862 243d a340 303e
00000380: 5667 303e ba1b 673e 8ef0 153e 5469 503d
00000390: 4947 913d f1a5 213e f9b2 8fbc 33a2 2f3d
000003a0: 78ad 813e 0014 d33c ee91 173e 7687 173e
000003b0: f98b 1a3e bccb b33d d3c2 a939 e180 d73d
000003c0: bca3 92bd 2a9e d03d e1f1 543e 84b6 4b3e
000003d0: fa91 51be 9799 4f3e 13d5 9e3d 76c5 843c
000003e0: 4e15 553e 0389 05be 9270 403e b143 cdbd
000003f0: 2cd7 e33c 9858 df3d 1368 9a3a 4dce 383e
-0.028753236 0.051396426 -0.09965789 0.07467193 -0.028383888 -0.035644002 0.07436129 0.040469594
0.18124762 0.26127133 -0.0035037624 0.21729942 0.10973361 0.18944076 0.02957893 0.110658176
0.13445197 0.10763117 0.0779634 0.13314915 0.038894355 0.07680047 0.2119982 -0.006358419
-0.021550566 0.03455448 0.15563428 0.095794424 0.37734625 0.021160364 0.22540139 -0.023316469
0.18788698 0.108185455 0.3129821 0.113913834 0.14461079 0.19764337 0.32084775 0.11205749
0.11273182 0.041779567 0.23126629 0.39775318 0.26796573 -0.021800008 0.16500156 0.17329325
0.033638034 0.16317047 0.35023665 0.10325754 0.06474661 0.0593334 0.004274715 0.1387797
0.44176102 -0.03279614 0.3083002 0.07572281 0.13507159 -0.011342585 0.20009585 0.12867697
-0.21469106 0.12518542 0.25432754 -0.17545488 0.008394406 0.0847195 0.09274957 0.03195183
-0.08415004 0.04298519 -0.106387556 0.10867071 -0.060719557 0.012543858 -0.1010722 0.0691026
0.039776266 0.08804867 0.09950551 0.05046617 -0.24922566 0.12104569 -0.1102731 -0.04858781
0.10870104 0.1788799 0.015831316 -0.31088656 -0.37851506 -0.18418638 -0.026029157 0.12500682
0.06572416 0.09101765 -0.11865447 0.11744002 0.08031642 0.17061923 -0.18023224 -0.009429377
-0.1245174 -0.08037877 -0.080870755 0.17385806 0.097400494 -0.022653697 0.12143607 -0.07652806
0.034170307 -0.065708436 -0.14020538 -0.079181865 -0.23820032 -0.020279042 -0.08919222 -0.26991484
-0.010391198 0.14045031 0.05513691 -0.05360845 0.18545279 0.03630504 0.00020821871 -0.024161123
0.11116307 -0.07230827 0.0045557623 -0.058258638 -0.008050967 0.08759923 -0.050389655 -0.0065805316
-0.036605842 0.09846159 0.015759822 -0.0075424444 -0.037656836 -0.09897654 -0.031292316 -0.004709833
0.055746958 -0.03466738 0.07461482 -0.013638304 -0.049435798 0.02841663 -0.03101839 0.030529387
-0.03914379 0.025963195 0.0041599423 0.034907065 -0.062672496 -0.020378225 0.028029194 0.059335306
-0.063924566 -0.0011844389 -0.06565826 0.03368202 0.06749244 0.018665278 0.10187762 -0.062285952
-0.021029992 0.06384535 -0.08225287 0.029289398 -0.06922594 0.009815173 -0.067565046 0.0010710408
0.079334885 0.022615852 -0.030917447 0.09424236 -0.100948356 0.08570445 0.080965646 -0.102806464
0.018069768 0.07196883 -0.04629699 0.039639443 -0.15147533 0.0006979197 0.07938586 -0.03387134
0.08935635 0.26402006 0.05980809 0.059527244 -0.10696024 0.040010933 0.021307202 0.04388739
0.025404952 0.23927437 0.025177443 0.259159 -0.006010843 0.14491834 0.037020274 -0.06854309
0.20122978 6.8969726e-05 0.12314949 0.17413436 0.049715146 -0.054434862 0.14457616 0.21777062
0.066892006 0.08192297 0.027046392 0.30337626 0.43333542 -0.08669393 0.04013291 0.17212157
0.1722692 0.2256917 0.14642546 0.0508817 0.07093675 0.15785958 -0.017541396 0.042879295
0.2532766 0.025766373 0.14801762 0.14797768 0.15092458 0.087790936 0.00032379347 0.105226286
-0.07160136 0.101864174 0.20795394 0.19893843 -0.20465842 0.20273434 0.077554844 0.016207438
0.20808908 -0.13040547 0.18792942 -0.10022677 0.027812563 0.1090557 0.0011780284 0.18047448

encoder_lstm.bias_hh_l0 f4 [256]
00000000: 208c b0b8 703c 7b3d 1799 1c3c d897 93bd
00000010: d85e 04bd 4a88 a63c 9ef3 083e b299 673d
00000020: fe45 1b3e ed05 983e f811 e83d bfca 9f3e
00000030: 6dec 6f3d ba56 553e 2234 ebbd e327 413e
00000040: 399a 6b3e f9ed 4b3b 8404 65bd e988 b43d
00000050: 9a42 963d 8e09 1d3d 1767 623e 0eee 383d
00000060: 36cf 25bd ff53 823d de78 2a3e 1aa7 f33d
00000070: 8b87 cc3e 91ed f43c adde cb3d e44b 533c
00000080: d4f7 853e 3f6c dd3d 5994 1c3e b3a0 5b3d
00000090: 8ffd 87bc 79eb 6d3e 9acc 823e fe25 383e
000000a0: e38e c13d 6b2b 063d f4ff 9b3e 8966 583e
000000b0: 76ea b23e b395 17bd ddf1 ce3c 22b5 103e
000000c0: 07ed 9c3d b5df 983d d326 9b3e eccd 523e
000000d0: b10a 323e 6e3e be3d 1bcd 823d 8f2f 0e3e
000000e0: 8a65 dc3e eb1f a43d 5f06 913e b3f8 a4bd
000000f0: f9cc d73d 8d50 df3d 9252 913e d792 703e
00000100: 3a59 52bd a745 db3d 7f0d 2b3e 16b9 03be
00000110: 8e6b ea3c 1d69 cabd 756c 1cbd 7e62 173c
00000120: 381d 6fbc fd15 603c 2455 2dbe a3e6 ebbc
00000130: 2a2b 1fbc b65b eebb 12a6 a3bd b9bd 8e3e
00000140: db31 013e dc32 133e bb36 abbd 2e4d 7c3d
00000150: d177 65be 42bd 85bd c4b6 d6bd a57f d2bd
00000160: bff1 8f3c 7e0b 593e 08e1 3d3e a889 72be
00000170: 0e86 aebe 3e2c c0bd 1b06 193e d15a 433d
00000180: 2d48 19bd 5b5c 823c ac76 4ebe fdd9 003e
00000190: d2d9 b9bc 1a2b 773e f108 64be f627 473d
000001a0: f02d 33be 881b 9ebd eba5 1fbe b6d2 453e
000001b0: 815b d03c 5b04 b23d 1be0 f23d acd7 2ebd
000001c0: cb0d e03d ebb4 94bd 930c 34be 5743 21bd
000001d0: c9ed 11be 6911 323d dcb8 fd3c 4b70 a5be
000001e0: aa63 2cbe 991c ae3d 73c7 a33d 63ed 93bd
000001f0: f745 da3d a3b9 bc3d 0000 96bd a26a b03c
00000200: a85f f43c 4bd8 b5bd 545a ad3c 20b5 a03d
00000210: 3a88 94bd 6874 70bd 1f5a abba d3d8 ccbd
00000220: 171a de3d 1c03 d2bb bbd5 7c3d a1f3 67bd
00000230: 3874 82bd 41d8 4d3c b161 a53d 6faf 903a
00000240: 9473 e43c af20 3d3d e17f 7bbd 7dfc b53c
00000250: 66d2 a53d 9299 103d 423c cbbc a2b7 1dbd
00000260: 1945 6439 3e35 27bc 31c4 693c 25b9 373d
00000270: ce38 123d 536f 1abd bec4 c43c 74f7 d4bd
00000280: ab95 753d b924 ac3d 7ff4 ebbd 3a08 873d
00000290: 1c60 2e3d 5185 0a3d fd20 92bd f9db 9c3d
000002a0: 99d9 313c 4e4d 643d 89b8 42bd a636 983d
000002b0: bd26 a43d 03bb 143d 9ff1 843d 404e aa3d
000002c0: 7d00 bebd ea42 623d 3dc4 dd3d a8c9 9c3a
000002d0: c1bc e9ba 5519 7cbd eda9 cebb 9cfc ff3c
000002e0: fdf7 90bc 3f6d 90bc 19f2 283c 9acb da3d
000002f0: b4c6 803b 1fc6 d6bd 595c 603d b183 873d
00000300: 0ccb d03d 1697 7d3e 65c8 a23c 28be 2f3d
00000310: 58d9 72bd 79d3 933d dba4 1d3e 9234 fd3d
00000320: b30e bc3d 53b2 d33d c2dd 05bc a2dc 1d3e
00000330: 0c62 c4ba 571c 4d3e dd88 333e e827 a43b
00000340: 39d0 0b3e 05fe 84bc d3b3 28bd 7da7 393e
00000350: da16 d83d 404f c2bd b865 b13c 30ce 863e
00000360: 630f 10be 35ae a63d d60b a43d dc72 a73e
00000370: e2e9 bc3e 0ac3 ca3d 0934 053d 0ce8 a23d
00000380: a48f 233e 00fd 183e 1ec6 913c 0960 80bd
00000390: d7e0 dd3d a2a2 0f3e c856 4dbc 8da2 893d
000003a0: e6fd 3d3e 3f5a 46bd abbb 093e 8ebf 793d
000003b0: 35e4 263e 482e 833e f063 de3d 461c d63d
000003c0: 9a86 083d eda3 be3d d664 8e3e 4480 c43e
000003d0: 6788 45be 5385 c33d 68c5 823b f921 11bd
000003e0: d992 9b3e 8d3e a0bd cb3d eb3d 376e 243d
000003f0: 0b60 c43d 15c6 2e3e a030 e23d b0e1 233e
-8.418434e-05 0.061336935 0.009557984 -0.07206696 -0.032317013 0.02032866 0.13374183 0.05654306
0.15163419 0.2969202 0.11331552 0.3120937 0.058575083 0.20833865 -0.11484553 0.18862872
0.2300805 0.0031117185 -0.05591251 0.08815176 0.07336922 0.03833919 0.22109638 0.0451489
-0.040480815 0.06363677 0.1664767 0.118971065 0.3994716 0.029898437 0.099545814 0.012896512
0.2616564 0.10811662 0.15290965 0.05362005 -0.016600398 0.23234357 0.25546724 0.17983243
0.094510816 0.03275625 0.30468714 0.21132864 0.34944504 -0.037008 0.025261814 0.14131597
0.07662397 0.07464544 0.30303058 0.20586365 0.17386891 0.09289251 0.06386777 0.1388533
0.43046218 0.080139 0.28325173 -0.08055248 0.10537142 0.10904036 0.2838331 0.23493515
-0.051354624 0.107066445 0.16704367 -0.12863573 0.02861574 -0.0988333 -0.03818937 0.009239791
-0.014594369 0.013677117 -0.1692701 -0.0287965 -0.009714881 -0.0072741164 -0.0799066 0.27879122
0.12616675 0.1437487 -0.083600484 0.06159704 -0.22408988 -0.06530239 -0.104840785 -0.102782525
0.017571328 0.2119579 0.18542874 -0.23685324 -0.3408665 -0.093834385 0.14943735 0.04769403
-0.037422348 0.01591318 -0.20162457 0.12583156 -0.022686873 0.24137536 -0.22269036 0.048622094
-0.17497993 -0.07720095 -0.15590636 0.19318661 0.025434257 0.08692237 0.11859151 -0.04268615
0.10940131 -0.0726107 -0.17582922 -0.03937086 -0.14250864 0.043473635 0.030971937 -0.32312235
-0.16834894 0.08501548 0.07997026 -0.07223012 0.10657876 0.09215095 -0.07324219 0.021535221
0.029830769 -0.08879145 0.021161236 0.07847047 -0.07252546 -0.058704764 -0.0013073123 -0.100022934
0.1084482 -0.006409062 0.061727267 -0.056628827 -0.06369823 0.012563766 0.08075274 0.0011038611
0.027887143 0.046173748 -0.06140125 0.022215122 0.08096771 0.035302706 -0.024809007 -0.038505204
0.00021769515 -0.010205565 0.014267967 0.044854302 0.035698704 -0.037703823 0.024019595 -0.103987604
0.059957188 0.08405442 -0.11521243 0.06593366 0.042572126 0.033818547 -0.07135198 0.07659144
0.010855102 0.055737786 -0.047539268 0.07432298 0.08015201 0.03631116 0.06491398 0.08315706
-0.09277437 0.055239595 0.10828445 0.0011961954 -0.0017832742 -0.061547596 -0.006306878 0.031248383
-0.017696375 -0.017630218 0.010311627 0.10683365 0.0039299373 -0.10487007 0.05477557 0.06616915
0.10194978 0.24764666 0.019870946 0.042905957 -0.059289306 0.072180696 0.15394919 0.123635426
0.09182491 0.10336747 -0.008170547 0.15416196 -0.0014982834 0.20030342 0.17532678 0.00500964
0.1365365 -0.016234407 -0.04118712 0.18130298 0.105512336 -0.09487772 0.021654949 0.26329184
-0.1406837 0.08138696 0.0801007 0.32704818 0.36897188 0.09900482 0.032520328 0.07954416
0.15972763 0.14940262 0.017794665 -0.06268317 0.108339004 0.14026883 -0.012532897 0.06720457
0.18553886 -0.04842591 0.13450496 0.060973696 0.16297992 0.25621247 0.10858905 0.104546115
0.03333149 0.0930861 0.27811307 0.3837911 -0.19290315 0.09546914 0.003990818 -0.03543279
0.30385473 -0.078244306 0.114863954 0.04014417 0.09588631 0.1706775 0.11044431 0.16004062

encoder_lstm.weight_ih_l1 f4 [256, 64]
00000000: 9a8e afbe d2e0 c33c f49f b6be 454b e1bd
00000010: c6cb 8cbd 2a14 22bd 63cc 0fbd e20e 983d
00000020: aa57 a5bd 97c6 0cbc 3ec6 aa3d 4139 cabd
00000030: 63f3 09bd e8d0 173e 8cc8 b2be 26a4 37be
00000040: 4c98 c3bd 8f34 23be deed 42bd 35fd 77bd
00000050: b280 ebbd 44ff 783e efe0 013e be23 b73e
00000060: fb23 5bbc 605e ecbc bd20 193e e611 02be
00000070: 1170 d93d 5064 ee3c 1674 9ebd d730 163d
00000080: 6312 bfbe 3d6d c53d fa82 7d3e 6f86 b3bd
00000090: 0a41 92bd 7389 893c 1769 e9bd 922e 8a3d
000000a0: a23c 5eb9 e124 60be 9150 86bd 02ea 62be
000000b0: f81d ee3b 7275 a93e e764 313d b5ac 923d
000000c0: d19e 0e3e 97be 143d ee13 963e de5a 2fbd
000000d0: 2743 a03d 47ed 2cbc 24cf 093d 055e 45be
000000e0: 1140 4dbc 9f88 28bc e397 503c 3eee d3bd
000000f0: cba7 c9bd d598 e43d 8351 bcbc 3ed1 623d
00000100: 5426 84be 8901 a13e 056f b53c da3b 803d
00000110: d35f 8ebd f1bf a43e d43e 743e 6633 b93c
00000120: f9fb c6bc f530 aebd 418f 423e 669f 13bc
00000130: 37be cb3d b209 153e a953 643c b119 62bc
00000140: b319 c33d 4b27 93ba e1fd 37be a6a4 383e
00000150: a3ce 113e bbf9 343c d1ca 173e 2dfc ffbc
00000160: ed57 333e 4c79 253e 13c2 333e 1ac2 ca3c
00000170: 82ed 6a3d 2286 c23d 7391 a8be 72ca 203e
00000180: f879 e43d 8291 adbe 5e8d b6be c0bb c1bb
00000190: 9a1b a83d cdb1 9cbe 0989 dbbd 3ba6 ba3e
000001a0: ab47 a53d 8e04 733e 98fb 003e 7412 7a3e
000001b0: 4f70 27be ef56 88bc 554f 563d 446f 1dbe
000001c0: f2f9 efbd e3ce 6dbd 168f 05be 7406 913d
000001d0: e705 9b3d 11e9 e13c 57d8 aabe ed1b 8f3d
000001e0: 1c43 aebe f50c 683b f5b0 b43d fadb e5bd
000001f0: 36a5 59bd 138c 023e 4add 983e 1eac 813d
00000200: 50c1 d3bd 8519 e63d 9b90 113e b2ca 36be
00000210: 405e 263e 9909 5fbd fd37 c13d b673 d3bd
00000220: 6db9 dabd 6d22 3a3e 1e88 2dbe d3e9 6f3d
00000230: 9479 30bd 042a 1c3d 4c54 433e b7d6 51be
00000240: fea8 1abe a735 a93c 5fd1 2cba db94 dbbd
00000250: 1492 9f3d 0807 0a3c 5784 bbbc a8fb ab3d
00000260: 3b51 0e3e d615 413e f91d be3d 5415 713e
00000270: 5978 da3d 0189 7ebe 80a2 a2bd ca4d 3c3c
00000280: 2aa5 b4bc 22ae 943b de40 84bc 36c4 943d
00000290: 5226 29be f838 493e 5202 96bd 32cf 2d3e
000002a0: dba6 cdbc 012c 073e dcef 5d3d 48f6 91bc
000002b0: 8436 073e 8635 96bd 9795 dabd 5ab9 103e
000002c0: 5011 eb3d 92b5 3cbd c1af 2ebd b8a9 a6be
000002d0: 8b5a 07be cf97 953d 336d a93e 3cea 9e3b
000002e0: 3b85 fcbd e797 03bd 99d4 33be 55bb a0bd
000002f0: 3df3 93bd fde7 473e 9fdf 233d 3301 0dbe
00000300: 3236 9cbd bca4 eabc ee58 8abe c581 50bd
00000310: 9bf4 703e 17dc 573d 31dc 913d 9682 63ba
00000320: ac88 05be 367e b63d e24e 803d 1e50 30bd
00000330: e4b9 84be fe8c 433e 4e4f 95bd 3ae3 39be
00000340: 7a51 87be 9e8a 56bd 97cf 9cbb 84b5 b0bd
00000350: d3b4 1ebc 292c 0e3e f09a e93c 8b62 05be
00000360: d7ba 6d3e 5b84 33bc ab88 52bd 4697 323e
00000370: 2f9f 8d3e 29bc 053d efec 9fbd 34a4 863d
00000380: b588 b23d 5175 41bd 6be7 e13b e9e8 2b3d
00000390: 09d3 25be 89f5 f7bd a8bf c6bd 2bc5 8d3e
000003a0: 201e 7b3e 5297 b63d 76e8 b43c 91f4 88be
000003b0: 6fb3 a03c 45ce 103e b8df 993d 098f a03c
000003c0: 7cbb 423e f6b3 07be 6de4 dfbd 5ed3 e3bd
000003d0: 031d 7ebd 0072 e33c cf6d 833d 6df5 003e
000003e0: d773 b9bd 70b3 2fbd 92a7 10be e492 48be
000003f0: 8182 2abd c144 4a3d 8ad5 1d3e 7380 fc3c
-0.34288484 0.023910914 -0.3566891 -0.11000685 -0.06874804 -0.03957001 -0.035107028 0.07424714
-0.08073361 -0.008592269 0.08338593 -0.098742016 -0.033679377 0.14825785 -0.3491863 -0.17933711
-0.09550533 -0.15938018 -0.04759013 -0.06054421 -0.11499156 0.24316126 0.12683462 0.35769457
-0.013375278 -0.028853595 0.14953895 -0.1270214 0.10617078 0.029100567 -0.077369854 0.03666767
-0.37318715 0.09639976 0.24756995 -0.087658755 -0.071413115 0.016789174 -0.113969974 0.06747164
-0.00021194157 -0.21889068 -0.065583356 -0.2215958 0.007266756 0.33097416 0.04330912 0.071618475
0.13927771 0.036314573 0.2931208 -0.042811267 0.07825308 -0.010554618 0.03364481 -0.19274147
-0.012527482 -0.010286479 0.012731525 -0.103481755 -0.09846457 0.11161963 -0.022988087 0.05537533
-0.25810492 0.31446484 0.022147665 0.06261416 -0.06951871 0.3217769 0.23852092 0.022607516
-0.024290072 -0.085054316 0.1899996 -0.0090101715 0.0994839 0.1455448 0.013935962 -0.013800071
0.09526386 -0.001122692 -0.17967941 0.18031558 0.14238982 0.0110458685 0.14823462 -0.031248176
0.1751401 0.16159552 0.17554502 0.024750758 0.05735541 0.0949824 -0.3292347 0.15702227
0.11156076 -0.33900076 -0.3565473 -0.005912274 0.082083896 -0.306044 -0.10719497 0.3645495
0.0807031 0.23732206 0.12595975 0.24421102 -0.16351436 -0.016643016 0.05232175 -0.15374476
-0.11717595 -0.05805863 -0.13042864 0.07081309 0.07569485 0.027576955 -0.3336818 0.06987748
-0.34035575 0.0035408114 0.088228144 -0.11223598 -0.053136073 0.12748747 0.2985633 0.06331657
-0.10339606 0.11235336 0.14215319 -0.1785076 0.16246891 -0.054452512 0.09434507 -0.103248045
-0.106798984 0.18177195 -0.16946456 0.0585726 -0.043084696 0.038126007 0.19075125 -0.20492063
-0.15103528 0.020655466 -0.0006592478 -0.10721751 0.07791534 0.008424528 -0.022890253 0.08397609
0.13898174 0.18855986 0.092830606 0.23543292 0.10667486 -0.2485695 -0.07941151 0.011493156
-0.022051413 0.00453736 -0.016144212 0.07263987 -0.16518524 0.19650638 -0.07324661 0.1697357
-0.025103977 0.1320038 0.054183826 -0.017817631 0.1320439 -0.073344275 -0.10673063 0.14133206
0.114779115 -0.046071596 -0.04264808 -0.3255136 -0.13218133 0.07304346 0.33091125 0.0048497003
-0.12330099 -0.032127287 -0.17561568 -0.07848231 -0.072241284 0.1952209 0.040008184 -0.13769989
-0.076275244 -0.028643005 -0.27020973 -0.050905008 0.2353081 0.05270013 0.07122076 -0.00086788216
-0.13040417 0.089107916 0.06265046 -0.043045156 -0.25923073 0.19096753 -0.07290517 -0.18153086
-0.2642935 -0.05237829 -0.004785489 -0.08628371 -0.009686667 0.13884033 0.028516263 -0.13025872
0.23215805 -0.010956849 -0.051399868 0.17440519 0.2766051 0.032650147 -0.07808863 0.06574288
0.08717481 -0.047231022 0.0068940422 0.041970167 -0.16193785 -0.12107379 -0.09704524 0.2768949
0.2452321 0.08915581 0.022083502 -0.2674909 0.01961681 0.14141186 0.07513374 0.019599454
0.19016832 -0.13252243 -0.10932241 -0.111242995 -0.062039386 0.02776432 0.06417429 0.12593623
-0.09055298 -0.042895734 -0.14126423 -0.19587284 -0.041628364 0.049381975 0.1541349 0.030822968

encoder_lstm.weight_hh_l1 f4 [256, 64]
00000000: 90e7 f93d a4c5 23be 3eff 07bd 3ed9 9cbd
00000010: 3cd9 c53d e1c5 e9bc 79da 09be 8437 52bd
00000020: d201 3d3d 49e0 70bc e726 8cbd 593e dd3d
00000030: 3e2d c7bd d2c4 113c 57b6 c7bd a55b c33b
00000040: 5e0c b73d aeea 75bd e4cb 7a3d 0d07 53bc
00000050: b202 6bbd 35ba 393d 04f6 46bd a595 833d
00000060: 305e bd3d 030d 8cbd db88 913d 229a f4bc
00000070: 48a3 f63d 9132 9bbc 4800 1c3d 369c 603c
00000080: 6108 c5bd 0157 2e3d b24a 19bc c858 b03d
00000090: a859 c23d 36cd 403d 0617 efbd ec16 113e
000000a0: 4a60 803d 1aa1 69bd 4cc6 a03d 359f 94bd
000000b0: 8726 aa3d b028 243d 16d5 34bd af32 5fbd
000000c0: 5349 96bd 5a96 ddbd e648 253e e2fd 88bd
000000d0: 5bc2 e2bd 6d21 a33d 4b03 29bd 0d1f 35be
000000e0: 4dca 9d3c ae2e cf3d a746 8e3d e9f8 b9bd
000000f0: 7b19 63bc 586c 01be 153e 60bd b913 a1bd
00000100: 27a1 4dbd d502 8a3c bd23 72be a4da bb3b
00000110: 266d 243b 59b5 f43d e96f 10be 9670 a43d
00000120: 330f 04bd 7d71 2ebe cfcf 893e 7161 c5bc
00000130: 3df4 143e d45e 8abd 2362 0c3d 4999 f7ba
00000140: 1dac f33d 1a03 37be f489 81bd 4c19 ab3d
00000150: e9f6 23be 1c17 3dbe 9225 40bd e3fc fbbc
00000160: 3d71 cebc 688f c0bd e3e6 bebe 4b23 e13b
00000170: 7445 1d3e 849b 2abe fbf4 7abe 1c6f 51be
00000180: 124e 8bbc 2f6f 46be 8d5b 3dbd a6d3 323d
00000190: 94ea 83be af2a 033c 416c 843e fa03 21be
000001a0: cb96 883d 2d4f 46bd eb13 b5be da99 8d3e
000001b0: e210 c0bb 0969 19be afdd 4c3e ca22 113d
000001c0: 746f 9dbc 8882 9b3d 6353 03be 5b7f 613d
000001d0: 7a54 673d 3569 4bbd a2fc 243e eb59 8abd
000001e0: e82b 78bc b404 8c3e ea5d c2bd cd72 b0be
000001f0: c3de cb3d 7ff9 48bd 6f99 f23c 9f57 06bc
00000200: aa09 9dbb 9e9b 213d ac8a 34bd 9012 063e
00000210: b5f8 45be cc8f 113e 8378 963d 0f09 f3bb
00000220: 9504 06be 767a 7d3e ed61 503e abb0 59bd
00000230: b270 753d e3f5 283d 9c19 3e3c 1111 17be
00000240: e2bc 42be 6dc3 0fbe 7edb c4bc 1403 e8bd
00000250: 2168 9a3d 8aaa 5dbd 4a3c 09bd 385c 103d
00000260: bc81 40be 5766 c3bd 5d3e a1bd 9dce cfbd
00000270: fd8e 233e 6e12 6d3e ef61 78be a6e7 443e
00000280: 830e 77bd 1e21 0b3d a947 8b3c 02e1 203e
00000290: fe42 dc3d 629c c13d 1a04 cebc 66c3 583e
000002a0: c3eb eb3d 219f 4bbe d040 8ebe b247 dfbd
000002b0: c2ae 48bd 2b0e 23be f6bb 5ebd 1502 f2bd
000002c0: cda8 963d d0b3 a939 ca37 adbb c6cd 0abe
000002d0: bbe3 09be e8dd 8e3e 60ac e93d cec0 f33d
000002e0: 2737 22be 5296 11be 49ed 01be 633a 0c3e
000002f0: c0df ef3d 9efe bebd 1a4c ee3d bb00 dcbd
00000300: 83a8 1b3e 0a71 063e cb04 ba3d 1d5b 41be
00000310: 651c cd3d 1fe0 b3bd 9dc2 e33e 1b73 e5bd
00000320: 29c3 56bd 0f9c aebd 9801 013d cdf2 b93c
00000330: 56fa 823d 20c9 953c 239a c23d b529 433d
00000340: 6ddc 37bc 4507 af3d af48 d93d 7e18 00be
00000350: b225 053e 2bb7 043e 2196 003e 03de 023e
00000360: 2c3c 843d f9d0 51bd 6ef1 783c 15ae 053d
00000370: b0cb 373d d37f cd3d df6b 3fbe c264 543d
00000380: efed a93c 54db f63d d861 65bd 4dac 303e
00000390: 5cbb 43bd 0b4b 963d 568f 0dbe b992 c83e
000003a0: 7d8d 06bc baae a0bd 9ec1 11be d321 a4bd
000003b0: 9827 393d 02d4 a13c 6f63 76bd 46af a53d
000003c0: 0441 9b3c 6c7f 86bd 5ccf ebbd edd2 5f3e
000003d0: b427 8bbd 87ed c83e 3668 fa3d bdcf eb3d
000003e0: 51fa 7d3d c86d 293e a7fc 0b3e 6f15 2f3e
000003f0: 7e98 eabd ebc8 01bc aa13 d3bb ac0d d1bc
0.1220237 -0.15993363 -0.033202402 -0.07658623 0.09660575 -0.028536739 -0.13462247 -0.051322475
0.046144314 -0.014701911 -0.068433575 0.108029075 -0.09725426 0.008897023 -0.097515754 0.0059618526
0.08937906 -0.06003826 0.0612296 -0.012880099 -0.057375617 0.045343596 -0.048574463 0.06425027
0.092464805 -0.06838419 0.07106181 -0.029858653 0.12042862 -0.01894501 0.038086206 0.013709119
-0.09620739 0.042563442 -0.009356188 0.08610684 0.09489757 0.047070704 -0.11674313 0.141689
0.06268366 -0.057038404 0.07850322 -0.07256929 0.0830813 0.040077865 -0.044148527 -0.054491695
-0.07338204 -0.10819693 0.1614109 -0.06689049 -0.110722266 0.0796536 -0.041262906 -0.17687626
0.019261504 0.10116325 0.069470696 -0.09080679 -0.0138610555 -0.12638986 -0.054746706 -0.0786509
-0.050202515 0.016847054 -0.23646446 0.005732851 0.0025089472 0.11948652 -0.1410519 0.080292866
-0.032241058 -0.1703548 0.26916358 -0.024094315 0.14546295 -0.06756368 0.034273278 -0.0018890287
0.118980624 -0.17872277 -0.063251406 0.08354434 -0.16012157 -0.18465847 -0.04691083 -0.030760234
-0.02520048 -0.094023526 -0.37285528 0.0068706623 0.15358526 -0.16660887 -0.24507515 -0.20452541
-0.017005 -0.1937835 -0.046229888 0.043658875 -0.25764906 0.008005782 0.2586384 -0.15724173
0.066693865 -0.04841535 -0.3536676 0.27656442 -0.0058613876 -0.14981474 0.2000644 0.035433568
-0.019218184 0.07593256 -0.12824778 0.055053096 0.056477048 -0.04966088 0.16111997 -0.06755432
-0.015147187 0.27347338 -0.09490569 -0.34462586 0.09954598 -0.049066063 0.029614178 -0.008199601
-0.004792412 0.03945505 -0.04407756 0.13093019 -0.19333155 0.1421501 0.073472045 -0.0074168514
-0.13087685 0.24753746 0.20349856 -0.053147 0.059921928 0.04125012 0.011602785 -0.14752604
-0.19017366 -0.14039393 -0.024030443 -0.11328712 0.07539392 -0.054117717 -0.03350476 0.035244197
-0.1879949 -0.09541004 -0.07873223 -0.1014683 0.15972514 0.23151562 -0.24256109 0.19228992
-0.060316574 0.03396713 0.017001944 0.15710834 0.10754965 0.09453656 -0.02514844 0.21168289
0.11519577 -0.19884922 -0.27783823 -0.10902347 -0.048994787 -0.15923373 -0.054378472 -0.11816803
0.07356415 0.00032368163 -0.0052861916 -0.13555059 -0.13465779 0.27903676 0.11409831 0.11902009
-0.15841351 -0.14217499 -0.12688173 0.13694148 0.11712599 -0.09325908 0.11635609 -0.10742327
0.15201001 0.13129058 0.090829454 -0.18882413 0.100151815 -0.08782982 0.44484416 -0.11203595
-0.052432213 -0.085258596 0.03149566 0.022698784 0.06395404 0.01828438 0.095020555 0.047647197
-0.011221987 0.085463084 0.106095664 -0.12509343 0.13002661 0.12960498 0.1255727 0.12780003
0.064567894 -0.051224682 0.01519428 0.03263672 0.044871986 0.10034146 -0.18693493 0.051853903
0.020743338 0.12053552 -0.056001514 0.17253228 -0.0477861 0.07338532 -0.1382421 0.3917444
-0.008212444 -0.078458264 -0.14234015 -0.08014264 0.045203775 0.019754414 -0.06015342 0.080900714
0.0189519 -0.065672725 -0.1151416 0.21857806 -0.06794682 0.3924372 0.12226908 0.11514232
0.0620063 0.16545784 0.13670598 0.1709802 -0.11454867 -0.007921438 -0.006441553 -0.025519215

encoder_lstm.bias_ih_l1 f4 [256]
00000000: 6cfa c0bd 1440 1c3e 9d78 ac3d 4b32 d2bd
00000010: 27ce a13d 63a1 113e 8ad8 183d db10 793d
00000020: 8bc6 1c3e f2c5 963e 44ab 993d e0ae 11bd
00000030: 3c99 a33b 12b8 703e 40c4 eb3d 7351 7cbc
00000040: 081f b73d 8ab4 8d3d 8414 d13d 25b9 ac3d
00000050: 2614 2b3e e47b 6ebd feae aebd c7a3 193e
00000060: e5a6 0c3e d393 053d db26 0e3c e5f3 fa3d
00000070: 02e5 713e c8a0 023e bbbe 753e bb26 983e
00000080: 9e77 fe3d 3b42 ad3d b92a fcbd 63ae 173e
00000090: 0c3b 373e 6eda 233d 779b 04bc ac30 583d
000000a0: 527a 3c3e 728c 933d 4b0e b13e 1804 5b3e
000000b0: 4ae1 243e fbd9 333e 774d ba3d cd89 f83d
000000c0: 4b9c fb3d 2185 b33d 2a1d 5d3e 21f1 fe3d
000000d0: d65b 663e 5286 8bbd 2325 5b3d 970f 863e
000000e0: fea2 933d 1a32 c43c 96fe a43c f367 b63e
000000f0: 6719 c83d f4a4 513d 7f31 fe3d 9258 443e
00000100: 8103 883d c19a 89bd 1fec cc3c 15b1 91bd
00000110: d3e0 e33c 10e3 a5bd 1677 99bd 9b15 ccbc
00000120: bc38 5b3d 4f3b b7be edd1 82be b166 bc3d
00000130: ccff e9bc 0a9e a43c 5a31 3bbc 9ce6 503b
00000140: 4642 80bd 240b ddbd c725 51be e1f3 b7ba
00000150: 6393 00be f798 943c 1453 05bd 10e2 44be
00000160: 5b0f 56be 8aac 87bd ee3b 04be e740 24bc
00000170: cc9f d43d 375e 02be 8427 fbbd e34c 75be
00000180: 9c40 e7bd 1074 bbba 5e9a b2bd b4c8 97bd
00000190: 4fc7 31bd 2d24 bb3d f1a9 30be 91db 3ebe
000001a0: 3161 493d e0eb a73d ac9f c0be 2a9e bbbe
000001b0: 0674 bdbd 6ce1 83be 3357 c1bd 076b cebd
000001c0: 0f99 56be 4886 8d3d f6c6 e5bd 53d1 4e3d
000001d0: 5ab5 a4be c0ab 903c e056 03be 1ea6 bdbd
000001e0: e9fd 813c 6a7d 09bd d819 5e3e 3ada 01be
000001f0: d394 b6bd 7c3e f0bd 7706 c13d a7e0 86be
00000200: 8852 0ebe 9723 93bd e219 efbd da90 0e3e
00000210: fbfd 9bbc 8031 8a3b 806b 7c3d 0edd 1b3c
00000220: 8e1d 36be 79d2 d7bc d3fa b73d 1fed f7bd
00000230: 6548 783d 4e24 92bd 157d f63d 34c5 bdbd
00000240: e313 d8bc cb2b c5bd ead5 d8bb 7846 88bd
00000250: 7c2b dcbd 2954 93bd 0ac6 c7bd ec9c 663d
00000260: 8d87 5f3d 2cf0 babd 0d65 20bd 3725 2ebd
00000270: b6c5 e93d dbdd cbbd cb3a a23c 4a5b ce3c
00000280: ea86 e4bd 323f cfbd 4163 9ebd b897 a7bd
00000290: cfb2 c03b a3ec 303e 7603 9ebc d5ab 9b3d
000002a0: 87ed b13d 4bf8 8abd f3c2 a23d 14d3 553c
000002b0: fcb5 963d b0c7 763d f653 013d deab 36bd
000002c0: 66e8 423d c9f6 833c 9e26 f6bc 36c2 26bd
000002d0: eb3d 093d 28aa 1c3d 7e33 80bd 5ac8 013e
000002e0: 6c6f e33d 71b9 e4bd 9f5f 51be c2f0 1e3d
000002f0: 1bab 553d cdf9 35bd be14 093d d257 1dbd
00000300: c631 03be 6d14 23bc 343b e2bd 0f70 413c
00000310: 13d5 b3bd 4fe4 bf3c 38b2 333e 4c14 1dbe
00000320: fa22 2abd b2db 6f3e 439b 34bc 813a 0bbe
00000330: 3ffd bcbd 70b6 613e 0ef2 edbd 17b2 29bc
00000340: 989b 973d a61a d13c c2bd 2c3a 58eb d1bd
00000350: 81e8 afbb d0c8 1cbe d755 83bb 793c b0ba
00000360: ba6c 043e 3ee9 8ebd 0cf2 c2bc 2b86 ad3b
00000370: 648a 243d 2360 cd3d 51c8 693e 8989 ef3e
00000380: 971b 883d a3c3 20be 3720 66bd a094 1c3e
00000390: 9535 123e 7a6b c9bd 8e22 e93c 7f04 6b3e
000003a0: d905 b7bd 67fe 103d 34dd 283e b736 463e
000003b0: 0bfa 993c 8e25 0c3e 0ef9 9e3d 6492 70bd
000003c0: c245 85bd 1ad1 12be 4146 193e 371d 1abe
000003d0: e7f2 943e 4ae7 843d f192 013e c33a 263e
000003e0: 0a14 db3d 4208 493e 828b b5bd cdec f23d
000003f0: 41c5 ecbd 2a64 bebb f3ec 27bd d40d 693c
-0.09422764 0.15258819 0.08421443 -0.10263499 0.079006486 0.1422172 0.037315883 0.06080709
0.15310113 0.29447895 0.075033695 -0.035567164 0.004992632 0.23507717 0.11512041 -0.015400278
0.089414656 0.06919201 0.10208991 0.08433751 0.16706905 -0.05822362 -0.08529471 0.15003882
0.1373554 0.03261168 0.008676256 0.122535504 0.23622516 0.12756646 0.23998539 0.2971705
0.12425159 0.08459898 -0.12312836 0.14812617 0.17893618 0.040003233 -0.008093706 0.052780792
0.18406036 0.07204522 0.34581217 0.2138828 0.16101566 0.17563622 0.090968065 0.121356584
0.1228567 0.08765627 0.21593156 0.124483354 0.2249597 -0.06812729 0.053502213 0.2618377
0.07208823 0.023949672 0.020140927 0.35626182 0.0977047 0.051182702 0.124117844 0.19174412
0.06641293 -0.0671897 0.025014935 -0.07113854 0.027817165 -0.08099949 -0.07493417 -0.024912646
0.053520903 -0.35787436 -0.25550786 0.09199274 -0.028564356 0.02009489 -0.011425341 0.0031875735
-0.06262641 -0.107931405 -0.20424567 -0.0014034474 -0.12556224 0.018139346 -0.032549933 -0.19226861
-0.20904295 -0.06624706 -0.12913486 -0.01002524 0.10382041 -0.12731253 -0.122633964 -0.23955111
-0.1129162 -0.0014301557 -0.087208495 -0.07411328 -0.043402966 0.09137759 -0.17252328 -0.18638445
0.049164955 0.081992865 -0.3762182 -0.36644107 -0.09250645 -0.2575792 -0.0944046 -0.100790076
-0.20956825 0.06910378 -0.112195894 0.050492596 -0.3216961 0.017660022 -0.12826109 -0.092602
0.015868144 -0.03356687 0.21689546 -0.12680903 -0.08915105 -0.11730668 0.09425061 -0.2634327
-0.1389867 -0.071845226 -0.11674859 0.13922444 -0.019042006 0.0042173266 0.061625957 0.009513153
-0.17784712 -0.026345478 0.08983388 -0.12105774 0.060615916 -0.07135831 0.12035576 -0.09266129
-0.02637667 -0.096274935 -0.0066172974 -0.06654066 -0.107504815 -0.07193787 -0.0975457 0.056301996
0.05457263 -0.091278404 -0.03915887 -0.04251596 0.114146635 -0.09954425 0.019803425 0.025190014
-0.11158545 -0.101194754 -0.07733775 -0.08183235 0.0058806906 0.1727777 -0.01928876 0.07601134
0.08687883 -0.067856394 0.0794734 0.013050813 0.073589295 0.06024903 0.031574212 -0.0445975
0.047584914 0.016108887 -0.030047711 -0.040712558 0.033506315 0.03824821 -0.06259821 0.12674084
0.111052364 -0.11168183 -0.20446633 0.038803823 0.052165132 -0.04442768 0.033467047 -0.03841383
-0.12811956 -0.0099536 -0.11046448 0.011806502 -0.08780875 0.023424296 0.17548454 -0.15339774
-0.041537262 0.23423651 -0.011023345 -0.13596536 -0.0922799 0.2204225 -0.11618434 -0.010357401
0.07402724 0.025525402 0.00065895554 -0.102499664 -0.005368293 -0.15310979 -0.0040080356 -0.0013445757
0.12932101 -0.06978081 -0.023797058 0.005295535 0.040171042 0.10028102 0.22830321 0.46784618
0.06645887 -0.1569963 -0.056183066 0.15291071 0.14278252 -0.09834953 0.02845886 0.22950934
-0.08936662 0.035398867 0.16490632 0.1935681 0.018795988 0.13686201 0.07762347 -0.05873336
-0.06507446 -0.14337578 0.14968206 -0.15050207 0.2909157 0.064894274 0.1265371 0.16233353
0.106971815 0.19632056 -0.088645 0.118615724 -0.11561061 -0.0058102803 -0.040997457 0.014224488

encoder_lstm.bias_hh_l1 f4 [256]
00000000: 2829 d63d 016c bb3c 283b ad3d 2b2b 453a
00000010: 37d3 b43d 85f5 1f3e 6866 ae3d e4c0 d4bb
00000020: 3d66 6f3d 925f 743e f90a 633d af34 a8bc
00000030: 46d9 e63d 4355 613e 69b1 bdbc 519f 113d
00000040: 8fe3 bebd 50ef 6e3d eda8 143e adb7 193d
00000050: 8af4 0e3e 14eb d2bd 3a50 cbbc 8670 a13d
00000060: a84b 3a3e 1ca8 283e ead5 853d 380d d93c
00000070: 4c1e a73d c008 da3d 509b 8e3e 1a08 923e
00000080: b579 633e 856d 723d 09ce f63c fccb d33d
00000090: af8b 583d 4883 493e 923f bb3d 0f42 003e
000000a0: efcb 533e 7a40 153d bc95 a33e b357 813e
000000b0: 8946 223e ec1b ca3d 02ee d43b bc31 31bd
000000c0: 0799 263c b0fa e73b 8ba8 2a3e 7990 00bc
000000d0: 3cf4 1c3e a93c ea3d 3afb c6bd 62fc b23d
000000e0: 4196 8ebd a4ea c33d 98c6 1d3e 1316 923e
000000f0: 4449 cd3d 7755 4abd a0d4 363d c4dd 383e
00000100: e0f9 b83c 7d1e fb3d c23a c1bc bd69 6bbd
00000110: b20b a9bc 48a1 833d 3d76 32be 600e 52bd
00000120: 7431 633e 0496 cebe 1efe 85be 31fe 07bc
00000130: 5dba 03bd 3890 9fbd e611 103d 8194 81ba
00000140: a071 58be 483b c23c 6ec5 55be 32f3 fa3c
00000150: 3958 c9bd 9c3b a73d e6ed b7bc 6f54 0fbe
00000160: 71cb c4bd abe7 f23d ebd0 aabe 53c2 d8bd
00000170: 3792 363e 9343 4bbe 5a69 68be 18e8 01be
00000180: 3895 86bd 5195 7f3d 794f 59be bf98 53be
00000190: 9bdf 34be e8be 9cbd 5cbf f2bd 5d17 2cbe
000001a0: e727 5a3e 1598 073e 2cff aabe f487 b8be
000001b0: 80f8 0fbd e6ab 73be 9a2b 61be 7519 953d
000001c0: 8394 dbbd 76f5 e4bc dc06 67be 2226 8b3d
000001d0: a109 2fbe c3da 38bd 49b6 98bd 6e11 3fbd
000001e0: 0a62 a83d 27d9 0cbe 8df8 fa3d e59a d1bd
000001f0: 2da9 3abd 6e41 c1bd ab35 e03b 2922 1abe
00000200: 28d6 24be 00b2 b93d 04f8 3ebd 3049 083e
00000210: 1769 7cbd 8d0d df3d 22e2 70bd 813d df3d
00000220: 95e4 fdbd 902f 983d eda9 b7bc f477 05be
00000230: 9b47 143e 4a9f b1bd dd8c fd3d feb1 90bd
00000240: ce9f 043d 2949 003d 3df0 7fbd 1ef2 873c
00000250: f2ae 28bd 6313 17bd 0bda 263c d6ef 0fbd
00000260: 5c70 343d 52eb 91bd 30d7 99bd 45a6 a3bd
00000270: d3ea 723e 1bdc 4e3d 089c e2bd 58dd b33d
00000280: 1cfc 72bd 7d07 9cbc ae64 9a3d b77e 99bd
00000290: 5f7c b8bd e62f 443e 1248 2c3d 340e 7cbd
000002a0: 9bd2 4d3e 2cf5 ebbd b386 cabb c5e4 753d
000002b0: 8897 babd 7a60 c33d c3d9 943d cd85 88bc
000002c0: cf91 ab3a fa06 c3bd 2081 6a3d 6269 e33c
000002d0: 6afb 243c 6b07 68bc 94b2 153d 6556 55bd
000002e0: 92eb 3f3c 4b37 4e3d e954 51bd ff96 87bd
000002f0: c699 f6bc 3fbc 9cbc eb0e 2c3e fc5e 74bd
00000300: d0ac 13be c0bc 093c 56e2 683d 1155 98bd
00000310: e379 93bd bcfc 8fbc 33b4 2d3e cc58 19be
00000320: e726 503c 9796 9c3e d871 a03d 25f5 a6bd
00000330: 93c7 9abc 6df6 1b3e 813e e9bb a998 08bd
00000340: ee9f 0dbd 6e3a b6bc eedc 2b3e e9b4 e3bc
00000350: 26d0 c9bc cec6 86bd 0357 34bd c0c7 8dbd
00000360: 6636 0ebd a55e 1ebc 67ca 8f3c a6e3 493c
00000370: b4b1 4e3d 36bf af3c 7115 a43d 3d98 ec3e
00000380: 1788 e1bd 034b 3ebe fc42 163d d7dc e53d
00000390: d425 473e 53f3 e2bd b5c3 5bbd 8372 853d
000003a0: 359f 043d e13d c7bd 494e 8b3e 27b7 973e
000003b0: 7633 6ebd a43f b13d ecef 233e a11f fdbd
000003c0: 55bf 213b 6ba4 25be 48c9 293e 1f56 5cbe
000003d0: 3327 5d3e 418e 143e 4cf0 7bbd 315f e9bc
000003e0: cf79 b23d 1b30 2a3e a6e6 e9bd 824a 8a3e
000003f0: a23f 1bbe 07ca 903c d2ee 213d 5952 933d
0.10457069 0.022878649 0.08458549 0.0007521386 0.088293485 0.15621002 0.08515626 -0.006492721
0.05844711 0.23864582 0.055430386 -0.020532934 0.1127191 0.22005181 -0.023155885 0.035552327
-0.09320747 0.058333695 0.14517565 0.037528683 0.13960472 -0.10298744 -0.024818528 0.0788279
0.18192923 0.16470379 0.065349415 0.026495561 0.081600755 0.106462 0.2785287 0.28521806
0.22214396 0.059186477 0.030127542 0.10341641 0.052867588 0.19678986 0.091429844 0.125252
0.20683263 0.036438443 0.31950176 0.25262222 0.1584722 0.09868607 0.0064980993 -0.04326032
0.0101683205 0.007079445 0.16665857 -0.007846945 0.15327543 0.11437351 -0.097158864 0.087395445
-0.069622524 0.095662385 0.15407789 0.28532466 0.1002374 -0.049397912 0.04463637 0.18053347
0.022580087 0.122616746 -0.023587588 -0.057473887 -0.02063546 0.06427246 -0.17427917 -0.05128324
0.22186834 -0.40348828 -0.2617044 -0.00830035 -0.03216015 -0.077911794 0.03517332 -0.0009886177
-0.21137094 0.023709908 -0.20876095 0.030633543 -0.0983128 0.081656665 -0.022452306 -0.13997053
-0.09609116 0.118605934 -0.33362517 -0.105839394 0.17829214 -0.19849996 -0.22696438 -0.12686193
-0.0657143 0.06239826 -0.21221723 -0.20663737 -0.17663424 -0.076536 -0.11852905 -0.16805787
0.21304284 0.13241608 -0.33397806 -0.36041224 -0.035149097 -0.23796043 -0.21989289 0.07280246
-0.10721686 -0.027949076 -0.2256121 0.06794383 -0.17093517 -0.045130502 -0.07456643 -0.04664748
0.082218245 -0.13754712 0.122544385 -0.10234622 -0.045571495 -0.09436308 0.006842335 -0.15052094
-0.16097319 0.09067154 -0.046623245 0.13309169 -0.06162366 0.108912565 -0.058809407 0.10900403
-0.12397114 0.07430947 -0.022419894 -0.1303404 0.1448044 -0.0867296 0.12380383 -0.07065199
0.032378964 0.03131977 -0.06248497 0.016594943 -0.041182466 -0.036883723 0.010183821 -0.035140835
0.044052467 -0.07124962 -0.07511747 -0.07990698 0.23722391 0.050502878 -0.11064917 0.08782452
-0.05932246 -0.01904654 0.075387344 -0.07494872 -0.09008097 0.19158897 0.04206092 -0.061536983
0.20099871 -0.11521372 -0.006180608 0.060032625 -0.091109335 0.09539886 0.07268097 -0.016665364
0.0013089719 -0.09522815 0.05725205 0.027760211 0.010069707 -0.014161925 0.03654726 -0.052084345
0.011713879 0.0503457 -0.051106367 -0.06620597 -0.030102622 -0.019132731 0.16802566 -0.059660897
-0.14421391 0.008406818 0.056856476 -0.074381 -0.072009824 -0.017576568 0.16963272 -0.1497528
0.012704588 0.3058364 0.07834214 -0.08152226 -0.018893993 0.15230723 -0.0071180467 -0.033348713
-0.03457635 -0.022244658 0.16783497 -0.027796226 -0.024635386 -0.06580888 -0.044028293 -0.06922865
-0.034719847 -0.00966612 0.017552568 0.012322342 0.05046244 0.021453481 0.08011902 0.462099
-0.11012285 -0.18583302 0.036684975 0.112237625 0.19448024 -0.11081567 -0.053653438 0.06515982
0.032378394 -0.09728599 0.27208164 0.29631922 -0.058154546 0.086547166 0.16009492 -0.12359548
0.0024680693 -0.16176002 0.16580689 -0.21517228 0.21596985 0.1450739 -0.06150846 -0.028487774
0.087146394 0.16619913 -0.11420946 0.2700997 -0.15160993 0.01767446 0.039534397 0.07193441
