Codes/Model_Path/GWNet.pth (torch, 51985 bytes, 14 tensors)

layer1.gcn.gcn.att_src f4 [1, 1, 512]
000000 d4 d4 c8 bc da c3 40 bd ce 46 1c bd b1 fb 84 3c
       -0.024515547 -0.04706178 -0.038153462 0.016233297
000010 12 99 6d 3d 33 9b 0f bd 39 e4 f2 3c 86 0e cc 3c
       0.058007307 -0.03506012 0.02964984 0.024909269
000020 f2 53 95 3d 93 d1 0f bd 91 44 42 bd 99 eb 2e bd
       0.07291402 -0.035111975 -0.04742867 -0.042705152
000030 89 4d ac bd 57 a7 ed bd 83 dc 02 3d 37 c7 22 3c
       -0.08413226 -0.11604183 0.031948578 0.009935192
000040 86 55 35 bb 6f 53 b9 3d a1 c9 d3 3c bb e6 a5 3d
       -0.0027669384 0.09049117 0.02585298 0.08100649
000050 fc ed f9 bc d1 cc 10 3e 6f 5c 2b 3d 93 6b b1 3d
       -0.030508988 0.14140631 0.0418362 0.08663096
000060 57 af 6e 3d e1 fc 94 3d e7 f2 52 bd 8d 14 67 3a
       0.058272686 0.07274795 -0.05150118 0.0008815013
000070 23 21 ae bc 9e 39 ac bd af 1f 24 bd f2 e6 57 bd
       -0.021256035 -0.08409427 -0.04006928 -0.05271048
000080 c3 f0 8c bd ff 54 2f bc 28 58 29 bd 04 65 6d bc
       -0.06881859 -0.010701417 -0.041343838 -0.014489416
000090 d2 1f 42 bd 30 29 07 be 8e 06 b1 3c a3 7b 35 bd
       -0.047393627 -0.13199306 0.02160957 -0.044307362
0000a0 0f a9 26 3d 1d ed 9a bb 43 8f 2f bd b0 aa ef 3d
       0.04068857 -0.004727973 -0.042861234 0.11702478
0000b0 0c de 01 be 67 77 b7 bd 4a f2 98 bb 38 a9 72 bd
       -0.1268236 -0.08958321 -0.004667555 -0.05924341
0000c0 c0 fc 54 bb 3f 8b 5f 3d 56 70 b5 bd 43 2b 5c 3c
       -0.0032499284 0.054576155 -0.08859317 0.013438049
0000d0 51 82 30 bd 5d 36 9c bd 00 c1 38 bc 7b c5 9b bd
       -0.04309303 -0.076275565 -0.011276484 -0.07606026
0000e0 7a d0 eb bc be 61 b9 3d 81 b1 0b 3c 44 d4 b5 bd
       -0.028785933 0.09051846 0.008526207 -0.08878377
0000f0 f4 04 49 3d 5a 72 a9 3d be 5d 5d 3d fb 97 18 bd
       0.04907699 0.08273764 0.054044478 -0.037254315
000100 00 b7 02 3d 32 75 be bd 8a c0 d5 bb ee cc 7a bd
       0.031912804 -0.09299697 -0.0065231966 -0.061230592
000110 87 25 bb bd da 0e 87 3d 25 b8 a0 3d c5 94 8a 3d
       -0.09138017 0.065946296 0.07847623 0.06766657
000120 4a f7 c1 3c 84 f6 b8 3d 66 dc f8 3d db b5 80 3d
       0.023677487 0.09031394 0.12151413 0.06284686
000130 da 62 d2 bb 58 70 2b be 19 e1 6f 3d cf 0b d4 3d
       -0.0064204754 -0.16742074 0.05856428 0.10353815
000140 1f ce 84 3c ee d5 a1 3d 0f c1 ac 3d 3d 9b 29 3d
       0.016211567 0.07902132 0.084352605 0.041407812
000150 2e 7a 3b bd e4 f8 5a bd 1f 38 2c bd ed c4 45 3d
       -0.045770817 -0.053460017 -0.04204571 0.048283506
000160 62 56 0f bd 08 a2 32 3d 75 a1 5c 3d 2f ca c4 3d
       -0.03499449 0.043611556 0.053864915 0.09608876
000170 0e d1 d0 3c d0 e6 e1 bc 88 74 bc 3c c6 68 8d 3c
       0.02549031 -0.02757588 0.023004785 0.017261874
000180 ec 02 4a bc 5c f2 08 3c ba e0 d1 bd 3d 3e b9 bd
       -0.012329798 0.008358564 -0.10247941 -0.09045074
000190 50 da 15 bc f1 7a bf 3b 03 b4 87 3d bb 50 1b bd
       -0.009146288 0.005843513 0.066261314 -0.037918787
0001a0 b9 37 f1 3d 70 b0 bd bc d7 38 92 3d 6b 84 31 bd
       0.117782064 -0.023155421 0.071397476 -0.043339174
0001b0 83 6d a9 bc 00 b7 c8 3c 53 5d 10 be 3f 41 a8 bd
       -0.020682102 0.024501324 -0.140981 -0.0821557
0001c0 03 ff 28 bd cb 0c 54 bd 7e d8 02 bd f7 13 ee bc
       -0.041258823 -0.051770013 -0.031944744 -0.029062254
0001d0 ee 7b 46 bd 19 bc 54 bc 0d 20 9b 3d e5 89 b5 3b
       -0.048458032 -0.012984299 0.075744726 0.00554012
0001e0 76 e4 51 3d 62 f8 27 bd 08 9a be 3d c1 a7 07 3d
       0.051243268 -0.04100836 0.09306723 0.033118967
0001f0 ea 9a 8a 3d e4 0d b2 3d 70 91 0d 3e 59 d9 09 be
       0.06767829 0.08694056 0.13825011 -0.13461818
000200 d1 ff 86 3d cb dd a6 bd 77 a9 a7 bc 85 10 5e 3c
       0.06591762 -0.081477724 -0.02046655 0.013553743
000210 af f8 b9 bc e6 94 a3 bc 5c d0 7f bc 81 d6 04 bd
       -0.02270159 -0.019968461 -0.015613642 -0.03243113
000220 6f 79 43 3c b9 0b ca bd 97 60 38 3d 10 dc 0c 3d
       0.0119308075 -0.09865517 0.04501399 0.034389555
000230 f8 fe e4 3c 8d 58 a2 bd 42 77 f0 bd bf bd f7 bc
       0.02795361 -0.07927046 -0.117414966 -0.030241845
000240 6c c1 40 bd 73 a3 80 3c 9b 6b 7e bd 4d dd c0 3d
       -0.04705946 0.015702939 -0.06211434 0.0941721
000250 b0 07 19 bd 43 9e 6d bc 14 17 9b bd bb 82 d1 3c
       -0.037360847 -0.014503065 -0.07572761 0.025575032
000260 e1 6f e3 bc dc 0d 50 3c 64 e3 80 bc 6b 46 7a bd
       -0.027763309 0.012698617 -0.015733428 -0.061102312
000270 75 02 78 bd 41 47 2c bd 90 b2 98 bc 84 d5 29 3d
       -0.06054922 -0.04206014 -0.018639833 0.04146339
000280 51 b7 25 bd 42 81 a2 3c 61 ed b0 3d 08 d3 3b bd
       -0.040458027 0.019837026 0.086390264 -0.045855552
000290 e5 73 b3 bc 87 57 c9 3d ce 9a 7e bd 47 05 7e bc
       -0.021905849 0.09831148 -0.062159352 -0.015504188
0002a0 90 ac 0f bd 94 34 94 bc 36 1a 7f 3d 0b de 73 3d
       -0.035076678 -0.018091477 0.062280856 0.05953793
0002b0 e7 fc fe bc 60 51 bc 3c cc 3e 89 bd 07 d9 54 bd
       -0.031126453 0.022988021 -0.06701431 -0.051964786
0002c0 50 f8 c3 3d 8d 14 ae 3b da ed af 3c 84 c6 52 3c
       0.09568846 0.0053125084 0.021475721 0.012864713
0002d0 44 70 6c 3d 95 dc 9f 3c 5a 9b d9 3c c5 5a 8f 3d
       0.057724252 0.019514361 0.026563335 0.06999735
0002e0 2d 26 1c bd 1c 7f 4a bd 18 93 12 be 07 61 5e bd
       -0.038122345 -0.049437627 -0.14313924 -0.05429175
0002f0 8c 1f ed bd 0b 48 85 bd f6 13 6e bc fe 29 f5 bc
       -0.11578283 -0.06507882 -0.014531126 -0.02992725
000300 8f 78 0e 3e 53 0e 94 3c 05 24 14 bd 5d a7 ef bd
       0.13913177 0.018073237 -0.036167163 -0.11701844
000310 7b 7b ac 3d 8f 12 79 bc 9b 9c 1a bd f8 73 e7 bb
       0.084219895 -0.015202179 -0.037747007 -0.007063385
000320 49 7c 68 3c 79 6b a7 bd 59 1d 1f 3e 56 52 c5 b8
       0.014189788 -0.08174796 0.15538539 -9.409028e-05
000330 7d 55 ea 3c af d7 0c bd 35 37 0f bd 9a 62 10 3e
       0.028605217 -0.03438538 -0.03496476 0.14100114
000340 34 e3 34 bd cf 24 5f bc 65 50 8a 3c 73 96 72 3d
       -0.04416199 -0.013619616 0.016884038 0.05922551
000350 e3 41 af bd 02 3e 0d bc 47 9c 28 bd 0b a1 0e be
       -0.08557489 -0.008620741 -0.041164663 -0.1392862
000360 1d b2 4b bc 30 f5 5a 3d a1 68 8e bd 0a 69 21 3c
       -0.012432602 0.053456485 -0.0695355 0.009851703
000370 4c e5 8d bd e7 51 85 3c b8 08 ff 3c 14 b7 25 3d
       -0.069285005 0.016274406 0.031132087 0.0404578
000380 77 3e 55 3d a9 7a 77 bc 14 d3 9e 3d 41 de 52 bd
       0.052061524 -0.015104928 0.07755104 -0.05148149
000390 90 c9 d8 3d bf fe a3 3d 4f 65 ee 3d 60 64 4b 3d
       0.1058532 0.08007573 0.11640417 0.049656272
0003a0 21 02 84 bd 27 bc 51 3d 35 c0 e1 3d 97 62 a0 3c
       -0.064457186 0.051204827 0.11022989 0.019578261
0003b0 0a b0 0a bd 9c e8 dd 3c d0 0c c6 bc 54 3d 85 3c
       -0.03385929 0.027088456 -0.024176031 0.016264595
0003c0 70 49 8b bd 71 f0 fd 3c fc 8f ad 3d 8d c2 b4 bc
       -0.068011165 0.03099844 0.084747285 -0.022065425
0003d0 2e d3 ae bd d8 9e 90 3d 51 ce 14 3d 21 e5 91 bd
       -0.08536373 0.07061547 0.03632957 -0.07123781
0003e0 dd e7 96 bd e2 64 e3 bb 13 57 56 bd 60 c8 9e bb
       -0.07368443 -0.0069395164 -0.052329134 -0.004845664
0003f0 fd 9d 0b 3d 2f f4 85 3d a4 b8 00 3d c2 62 9a 3d
       0.034086216 0.06540715 0.031426087 0.07538368

layer1.gcn.gcn.att_dst f4 [1, 1, 512]
000000 c4 8e 1f 3e 76 6b 12 be 39 0e 53 be 01 84 9a 3d
       0.15581805 -0.14298806 -0.20610894 0.07544709
000010 ba 6d 9a 3d 4a 01 98 3d 09 da 8d 3d 8f 97 c4 3d
       0.0754046 0.07422121 0.069263525 0.0959922
000020 b6 fe 49 3e 34 07 2d be 1e 9b d7 bd 91 15 10 be
       0.19726071 -0.16897279 -0.10527633 -0.14070727
000030 98 9e f6 3d e9 f0 10 be 93 5d 33 3e 0d 08 94 3e
       0.12041968 -0.141544 0.17516164 0.28912392
000040 13 19 34 3d b0 35 45 3d cd a6 9c 3d e2 41 21 be
       0.043969225 0.048146904 0.07649002 -0.15747789
000050 6e 0e f6 bd e2 36 59 3e 9f ee 0c ba 7f 35 18 bd
       -0.12014471 0.21212342 -0.00053761335 -0.037160393
000060 0b 8a 30 bd 28 13 c9 3c 2d fe f8 3d 78 76 b5 3d
       -0.043100398 0.024545267 0.12157855 0.08860487
000070 7d 51 04 be 96 b9 de 3c e1 45 b8 3d 57 94 3c 3e
       -0.1292171 0.027188104 0.08997703 0.18415962
000080 d8 34 1e bd 3d 91 8d bd 0e 2c 15 3d 13 64 17 3e
       -0.038624614 -0.06912468 0.036418967 0.14784269
000090 1a 79 bb 3c c0 f4 32 be cf cf 1a 3e 2b a8 57 3c
       0.022884894 -0.17476177 0.15118335 0.013162653
0000a0 fe ad ca 3d ca 48 a9 bc be cc ae bd 61 88 4c 3e
       0.098964676 -0.020664591 -0.08535145 0.199739
0000b0 59 5a 67 be 1d e2 37 3c 99 02 4f 3d d3 04 88 bd
       -0.22593059 0.011223343 0.050539587 -0.06641545
0000c0 a1 7b 54 3d ad 9f f1 3d 7f df 8d bd 8c 14 5f bc
       0.051875714 0.11798034 -0.06927394 -0.013615739
0000d0 ff 82 0c 3d 75 be 2f 3d cb 96 86 be e1 fc 99 be
       0.034304615 0.042906243 -0.2628692 -0.30075744
0000e0 ef 9b 94 3c dd 82 ca 3d f1 7e 56 3e 91 5c 52 bd
       0.018140761 0.098882414 0.20946862 -0.05135781
0000f0 05 e1 17 be 0f 9b 3c 3d 26 d9 70 3e 9c de ad bc
       -0.14831932 0.046046313 0.23520336 -0.021224312
000100 38 87 4d 3d 29 4d 13 bd 2a d9 eb 3c f0 84 53 be
       0.050177783 -0.035962258 0.028790075 -0.2065618
000110 d6 92 4b be 8d da 9f 3c 00 84 80 3d 6f 16 68 3e
       -0.19880232 0.019513393 0.06275177 0.22664808
000120 75 94 72 bd fa b6 b6 3d 64 0e 24 3d fd a0 ec 3c
       -0.05922361 0.08921619 0.040052786 0.028885359
000130 63 5d 00 be 2b 23 4a be c8 2b 3f 3e c0 84 4b 3e
       -0.12535624 -0.19739978 0.18669045 0.19874859
000140 c2 5e 66 3c 6e f1 a4 3d 71 f3 f5 bb 64 09 22 3e
       0.014060678 0.080538616 -0.007505827 0.15823895
000150 e1 2e f0 bd 31 59 49 be ce c4 b5 3d cf 3e ed bc
       -0.117276914 -0.1966293 0.08875428 -0.028960614
000160 55 6d 8d bd 1d 2c 97 3d 31 b6 a4 3c eb 25 1d bc
       -0.06905619 0.07381461 0.020106407 -0.00959156
000170 71 16 d5 3d 95 93 d6 bd ff ae aa 3c 4a 5f 3b bd
       0.10404671 -0.10477368 0.020835398 -0.04574517
000180 bd 73 68 be 13 ec 84 3d 8d 0c 9b bd 10 b0 9b bd
       -0.227004 0.0649034 -0.07570753 -0.07601941
000190 16 06 30 bd 4d e0 f7 bd c8 b3 87 3d 3f 9e 57 38
       -0.042974554 -0.12103329 0.066260874 5.1407373e-05
0001a0 cb fc 82 3c d6 18 73 3d 46 fc c8 bd cc 62 a3 3c
       0.015989682 0.059349857 -0.09813742 0.019944571
0001b0 dc 1f d7 3d 86 45 c1 3d 37 6b 0b bd 56 e7 02 be
       0.105041236 0.09437089 -0.034037795 -0.1278356
0001c0 94 27 1e bc 82 90 57 3d 08 43 0b be b4 ea 88 3c
       -0.009652991 0.052628048 -0.13599789 0.016713478
0001d0 03 a3 be bc 26 c2 79 bd 99 98 bb 3e 91 fc 59 3e
       -0.02327109 -0.06097617 0.3663986 0.21287753
0001e0 81 f3 bf bc 96 cc b3 bb 63 cb 23 bc e7 e9 4a 3e
       -0.023431541 -0.005487035 -0.009997222 0.19815789
0001f0 ee a7 8d 3d 8a b2 be bd b3 a2 94 3d 76 0a d3 bd
       0.06916796 -0.093113974 0.07257595 -0.1030473
000200 b2 1a 0a 3c 0c 2d 93 bd d9 51 0f bd 65 d8 25 3e
       0.008429216 -0.071863264 -0.034990165 0.16195829
000210 fd b4 11 3e 3c af 58 bd 8e e5 00 be c2 22 12 bd
       0.14229198 -0.05290149 -0.12587568 -0.03567768
000220 d4 2c 31 bd 48 c1 95 be 34 37 2e 3d f4 4d 3e bd
       -0.043255642 -0.29249024 0.042533115 -0.04646106
000230 04 33 b0 3c a3 9e 46 3c 10 d6 8a be 00 bd bb 3d
       0.021508701 0.012122783 -0.27116442 0.09166908
000240 35 19 69 3d 19 0c 09 3c d7 df 9b 3d fa 22 91 3d
       0.056908805 0.008364701 0.076110534 0.070867494
000250 5a ec 47 bd 0b f7 fd 3c b9 b6 6c be f0 bd 47 3d
       -0.048809387 0.031001588 -0.23116578 0.048765123
000260 50 e0 9a be 3e 10 0f be 4f ca 5c bd 54 9c ce bd
       -0.30249262 -0.1397104 -0.053903874 -0.10088411
000270 ed 09 04 3c 31 7e 0f 3e d8 f1 23 3d af ab 05 3e
       0.008059007 0.14012982 0.040025562 0.13053773
000280 9a cd 4e bd b3 2f 1a be 94 ad 74 bd 99 65 60 3d
       -0.050489046 -0.15057258 -0.05973585 0.05478439
000290 8f 1a ca 3d b2 99 48 3d 77 92 d4 3d 11 f9 59 bd
       0.09868347 0.0489747 0.103794985 -0.053216044
0002a0 ef 6f 6e bd d9 1c 86 bd 0a 87 45 3e c6 98 69 3e
       -0.058212217 -0.06548471 0.19289795 0.22812185
0002b0 7f 39 06 be 22 6d 95 3e 35 9c da bc f7 02 8a be
       -0.1310787 0.29184824 -0.026685813 -0.26955387
0002c0 70 82 08 3e 5c 43 b7 3d 3a 13 4d 3e 65 e0 46 3e
       0.13331008 0.08948395 0.20026866 0.19421537
0002d0 a2 15 7d bd 43 14 07 3e 5e 21 a1 bc 20 52 72 3c
       -0.06178821 0.13191323 -0.019669231 0.014790088
0002e0 94 bc 39 bd 0e 47 66 bd ec bb a0 3d 49 94 96 bd
       -0.045345858 -0.056220107 0.07848343 -0.07352502
0002f0 a8 3f 14 be c8 e1 b8 3d b5 91 ae bd 43 90 d6 3c
       -0.14477408 0.09027439 -0.08523885 0.026191836
000300 22 4f a3 3d 98 0b 86 bb 35 e1 5c bb 61 b3 17 be
       0.07974078 -0.0040907376 -0.003370357 -0.14814521
000310 0a d0 f6 3d 98 92 b6 bd 6e d3 33 3e 13 01 4a bd
       0.12051399 -0.08914679 0.17561123 -0.04931743
000320 26 08 bb bd 76 17 6d be 28 29 36 3e 42 1c 64 3e
       -0.091324136 -0.23153481 0.17789137 0.22276405
000330 fd bb bd 3d 71 90 22 3e 74 e6 2d 3b da 8b e4 3d
       0.092643715 0.15875413 0.0026535066 0.11159487
000340 8e d2 8a bd c4 99 58 be 6a c0 44 3e e8 d8 23 3e
       -0.06778441 -0.21152407 0.19214025 0.16000712
000350 31 f7 56 be f4 6c e8 bd ae 89 0f 3d 36 1b 6f be
       -0.20992734 -0.11348906 0.03504341 -0.23350224
000360 9e 89 c8 bb b5 69 d3 3d a8 d2 e7 bd a6 8f e6 bd
       -0.006119921 0.103228964 -0.11319476 -0.112578675
000370 4f 9a a9 bd 6f 49 e1 3d af 59 69 3d b5 e6 b1 3b
       -0.08281385 0.110003345 0.056970295 0.0054291137
000380 cc 7e 93 bd db 81 01 be 84 0e 4a 3e b3 16 bc ba
       -0.07201919 -0.12647192 0.197321 -0.0014350027
000390 fc 88 96 3c 9f 02 fc bd 4e 01 4e 3e 32 81 03 3e
       0.018375866 -0.123051874 0.20117685 0.12842253
0003a0 b3 3c 23 3d 95 56 94 bd d4 25 fa 3a ca 10 1f 3e
       0.03985281 -0.07243077 0.001908476 0.15533748
0003b0 f4 62 5c be d4 6d c9 3d 17 e4 3f 3c d4 64 18 bd
       -0.21522123 0.09835401 0.011712096 -0.037205532
0003c0 35 dd 81 be 10 eb f7 3d 2b c9 61 3e fc 65 54 be
       -0.2536408 0.121053815 0.22049396 -0.20742029
0003d0 dd 03 95 bd 32 70 a8 3b f1 e9 31 bd 14 75 c7 bd
       -0.072761275 0.005140328 -0.043435995 -0.09739128
0003e0 43 e7 ad bd ca 09 21 3d ea bd 15 3d 91 b2 6b bc
       -0.08491375 0.039315976 0.03655807 -0.014385835
0003f0 8a 9f c8 bd c9 ab 56 3d 10 70 33 3e 8d 22 ae 3c
       -0.09796055 0.05240992 0.17523217 0.02125671

layer1.gcn.gcn.bias f4 [512]
000000 5c 4b 41 3a e0 8d 9e 3a 6e 96 58 3b 2e 28 8b ba
       0.0007373595 0.0012096725 0.0033048647 -0.0010616833
000010 c5 15 05 b9 a2 6e 8b 3a 6c be 8c ba e6 63 27 bb
       -0.00012691978 0.001063783 -0.0010737902 -0.0025541722
000020 79 15 ed ba a5 76 8f bb f6 09 ce bb 15 17 6c ba
       -0.0018088064 -0.004378157 -0.0062878085 -0.0009006125
000030 5b 77 e0 ba 36 f5 a2 3a f4 5a f7 3b b4 ff 01 3b
       -0.0017125414 0.0012432698 0.0075486843 0.0019836249
000040 9a db 03 3c 75 2a 81 b9 01 cd 4d ba 17 c3 b8 bb
       0.008047963 -0.0002463643 -0.00078506774 -0.005638491
000050 ae 4e 8f 3b 36 ef e6 39 d9 23 05 bb b7 c6 fe 3a
       0.004373393 0.00044047245 -0.0020315556 0.0019437884
000060 9a 2f 26 3b cd 92 54 bb 27 a5 15 bb 46 ca 6c 3a
       0.0025357963 -0.0032436133 -0.0022834034 0.00090328266
000070 8a 69 33 3b 82 d9 b6 3a c1 f4 9a 3b 83 d3 98 ba
       0.0027376139 0.001395032 0.004728884 -0.0011659715
000080 e2 3a 36 3a 7d 83 4a bb 4b 8c 07 3c 93 e3 0d bb
       0.0006951523 -0.0030901127 0.008273195 -0.0021650537
000090 e4 98 31 3b 2a 4f 47 3a 07 51 0b bb 4d 22 56 3b
       0.0027099187 0.0007603044 -0.0021258013 0.0032674253
0000a0 e5 f8 c2 ba 6d 20 71 ba 98 0c 09 3b e1 8e bf ba
       -0.0014875202 -0.0009198252 0.0020912047 -0.0014614725
0000b0 f9 92 1b 3a 68 06 e6 b9 05 b8 44 b9 be af 23 ba
       0.00059346814 -0.00043873792 -0.00018760569 -0.0006244144
0000c0 cc 81 14 bb 3e de 82 3b 2c 01 85 ba 8a b5 96 3a
       -0.0022660373 0.0039937785 -0.0010147444 0.0011498195
0000d0 ad 51 59 3b 92 54 58 b9 a5 b0 a4 ba 83 90 cb 3b
       0.0033160255 -0.0002063087 -0.0012564851 0.0062122955
0000e0 fa 9b 6f 3a c1 21 dd ba 70 43 d4 3a 61 e6 3f b8
       0.0009140369 -0.0016871021 0.0016194414 -4.5752506e-05
0000f0 b1 48 73 ba 63 14 6d 3a 3a f6 0d 3a 31 a7 d8 ba
       -0.0009280546 0.00090438704 0.0005415414 -0.0016529319
000100 59 d9 6e 3a 77 20 2a 3b 23 f3 94 ba 86 4d 3f bc
       0.0009111367 0.0025959292 -0.0011363964 -0.011676198
000110 42 6f d8 b8 52 09 8c 3a 1b 96 fb 39 c0 a0 37 3a
       -0.00010320406 0.001068393 0.00047986288 0.00070048496
000120 c1 49 bd 39 97 b4 bf ba eb 20 91 3b ca 12 ea 3b
       0.0003610384 -0.0014625964 0.004428973 0.007143353
000130 12 74 27 bb 43 1f 0f 3b bc 6d 93 b8 14 6e 75 ba
       -0.002555136 0.0021838702 -7.029946e-05 -0.0009362411
000140 58 7d 15 3b 76 00 84 3b f1 82 8d 38 59 5b c4 ba
       0.0022810306 0.0040283753 6.747794e-05 -0.0014980837
000150 e8 65 23 bb ca 91 34 3a 69 02 0e 3b 32 a9 61 ba
       -0.0024932567 0.00068881793 0.0021668917 -0.0008608281
000160 89 3f e6 3b f1 d0 18 bb 3f cb 28 b9 8a cf 72 39
       0.007026617 -0.0023317898 -0.00016097444 0.00023156233
000170 69 2d d7 ba 10 d9 5e bb 06 34 2c 3b 78 47 c1 ba
       -0.0016416732 -0.003400389 0.0026276126 -0.0014746031
000180 b3 8f c1 39 7d 1c 8d b9 2c 00 81 3a 8b 84 53 ba
       0.00036918893 -0.0002691484 0.000984197 -0.00080687617
000190 0a c2 c8 ba c6 b8 8b 3b 64 e4 e2 3a 49 00 b3 3a
       -0.0015316617 0.00426397 0.0017310497 0.0013656701
0001a0 a6 56 ff 39 c6 67 2f 3b f7 7b f0 ba 48 40 a1 b9
       0.00048701948 0.0026764735 -0.0018347491 -0.00030756206
0001b0 fb 72 f9 ba 00 74 41 bb c9 22 bc 3b 39 06 55 ba
       -0.0019031459 -0.0029518604 0.0057414514 -0.00081262324
0001c0 0e ac cb ba 6b 9b d6 ba c4 ef 39 3a 77 b4 15 ba
       -0.0015538947 -0.0016373222 0.0007092918 -0.000571079
0001d0 6e 6e 2a ba 12 73 4c ba e0 40 61 bb 72 ed 0e ba
       -0.00065014407 -0.0007799129 -0.0034370944 -0.0005452252
0001e0 7c 15 0b 3a 97 35 0a 3a b7 08 e8 39 07 91 2c ba
       0.00053056306 0.0005272268 0.0004425698 -0.000658289
0001f0 55 bb 05 bb 10 f1 7b ba 31 2c 68 b9 6a 05 fb ba
       -0.0020405848 -0.0009610811 -0.00022141707 -0.0019151394
000200 a7 96 73 ba b0 a1 fb ba 2d 36 d7 3a 57 7c a3 ba
       -0.00092921633 -0.0019197967 0.0016419344 -0.0012472969
000210 01 5c d2 39 cc e7 53 3a 33 0b 00 ba 0b ed e8 ba
       0.0004012287 0.00080835517 -0.00048844813 -0.001777084
000220 5c e3 6e 39 69 dd 0c 3a 72 2c ab 39 45 57 cc b9
       0.00022782147 0.0005373569 0.00032648776 -0.00038974933
000230 cc e9 bb 3a 58 0e ca 3b c3 3c 0b b8 40 93 2c 3a
       0.0014336645 0.0061662607 -3.319677e-05 0.0006583221
000240 08 63 3a ba 38 24 2d b9 22 f3 bd 3a 42 3c 79 3b
       -0.0007110094 -0.00016512058 0.0014492015 0.0038030301
000250 9f b3 10 b8 0f 12 81 ba f9 ac 37 ba 4f 38 9b 3b
       -3.449956e-05 -0.0009847301 -0.0007006671 0.004736937
000260 40 44 8e 3a 15 28 05 3b 58 cb 69 3c 5e d7 12 3b
       0.001085408 0.002031808 0.014269672 0.00224062
000270 1c 06 21 3b d3 09 43 3a 06 d5 ac ba 74 c4 3a 3b
       0.0024570292 0.00074401236 -0.0013186045 0.0028498443
000280 ef df 10 38 bf 27 4f b8 e8 6b 87 3b e5 79 24 ba
       3.454083e-05 -4.9389662e-05 0.0041327365 -0.0006274267
000290 22 47 74 bb 25 46 f2 ba 6d 38 cb ba df 47 ba 3a
       -0.0037273844 -0.001848404 -0.0015504487 0.0014212093
0002a0 a9 19 c6 3a e2 a2 1d 3b cc 91 27 bb 4b 13 2e 39
       0.0015113848 0.0024053385 -0.002556908 0.0001660112
0002b0 11 13 48 bb 0c c1 0f bb ee 0e 0b bb 14 7e 44 b9
       -0.0030528943 -0.0021935133 -0.0021218616 -0.00018738984
0002c0 28 c6 8d 3b e3 97 f7 ba 31 4f 2f 3b 9a f2 92 ba
       0.0043266006 -0.001888987 0.0026750083 -0.0011211217
0002d0 42 e1 0c bb e3 34 93 ba 54 ed 88 3a 47 2c c5 bb
       -0.0021496569 -0.0011230971 0.0010446706 -0.006017241
0002e0 4c a5 14 3c 96 34 16 bb 26 88 33 bb b4 b7 da ba
       0.009072613 -0.0022919527 -0.0027394383 -0.0016686828
0002f0 79 38 7d ba 83 08 a1 ba 75 dd f8 b9 c1 a4 10 bc
       -0.0009659599 -0.0012285862 -0.00047467244 -0.008828343
000300 ce a2 4f ba d0 20 75 3b a0 33 ca 3a 66 e2 ef ba
       -0.0007920683 0.003740359 0.0015426762 -0.0018301725
000310 51 18 14 bb d8 1a bb b9 3b 0d d7 bb 86 dd 2a 3b
       -0.0022597502 -0.0003568742 -0.0065628565 0.002607198
000320 d6 4b a3 39 98 96 41 3b 18 aa 09 3b 14 8f f0 b9
       0.00031146285 0.0029539224 0.0021005925 -0.0004588297
000330 cb a7 da 39 66 a9 e5 bb 1a f4 07 3b c5 c6 4d 3b
       0.00041705216 -0.0070087193 0.002074486 0.0031398993
000340 5f fd 27 3b aa 7b 1e 3b 42 5e 8f 39 e3 57 79 bb
       0.0025633199 0.0024182596 0.00027345313 -0.003804677
000350 66 c0 2c 3a 51 27 78 3a 25 84 8e 3a fa 2d 33 ba
       0.0006589949 0.0009466308 0.0010873122 -0.0006835159
000360 1c 3c 30 3a 7d 44 94 ba f7 d0 d7 38 35 5d 88 bb
       0.0006722824 -0.0011311915 0.00010290922 -0.004161502
000370 b5 82 9a 3a f5 a8 4c 3a 93 f0 c1 b7 2f c7 6b 3a
       0.0011788221 0.0007807159 -2.3119419e-05 0.0008994219
000380 9a af 9f 3a ca 55 fd 3a b8 fe 61 3b 8d bf b1 ba
       0.0012183071 0.0019327935 0.00344841 -0.0013561115
000390 4f d8 42 ba 81 56 39 3b 5a 9e 5d 3a ad bb e9 ba
       -0.0007432745 0.002828032 0.0008454077 -0.0017832421
0003a0 47 1b a3 ba 59 ae 18 bb 2e 8a d7 3b 02 a5 22 bb
       -0.0012444042 -0.0023297279 0.0065777516 -0.002481759
0003b0 7d 38 3a ba b0 33 ee 37 af ca 64 ba 69 a3 45 ba
       -0.00071037543 2.839588e-05 -0.0008727712 -0.00075393036
0003c0 b9 bf 45 ba 8d f6 4a 3b ea ff a4 3a a2 e0 4e 39
       -0.00075435225 0.003096971 0.0012588475 0.00019729373
0003d0 23 4b 71 bc 7c bf 33 39 cf 11 ca ba 77 b4 83 b9
       -0.014727387 0.00017142104 -0.0015416684 -0.00025120724
0003e0 8f 52 bf 39 9c f7 b8 3a 58 25 05 bb bd 71 b3 b9
       0.0003649187 0.0014111879 -0.0020316448 -0.00034226282
0003f0 bb 6c 09 bb c8 2a f0 ba 65 6e 28 3a 4e 35 67 39
       -0.002096935 -0.0018323297 0.00064251415 0.00022049734

layer1.gcn.gcn.lin.weight f4 [512, 8]
000000 5b 14 b6 bd f7 81 88 3d 64 f3 bd bd b9 a2 84 3b
       -0.08890601 0.06665414 -0.09274939 0.0040477184
000010 96 40 8f bd 49 ff c6 bd f4 50 a5 bd 5d 71 15 be
       -0.06994741 -0.097166605 -0.08072081 -0.14594026
000020 e6 45 13 3d aa 05 8e 3d 51 ff 9e 3c b2 f2 78 be
       0.035955332 0.06934674 0.019408854 -0.24311331
000030 a5 2d ca 3d 78 8b e9 bc 3c c3 b6 3d 11 8b d5 bd
       0.09871987 -0.028508887 0.08923957 -0.104269154
000040 99 5f 90 bc 24 94 01 bd d3 a3 02 3c 1c 7c dc bd
       -0.01762371 -0.03163542 0.007973629 -0.107658595
000050 d9 cc b9 bd 58 a5 24 bd 2e 31 82 3d 67 dd c9 bd
       -0.09072275 -0.040196747 0.063570365 -0.09856682
000060 63 af 34 bc e1 02 3e 3e a8 39 68 bc 2d 29 04 be
       -0.011028144 0.18555786 -0.014173903 -0.12906332
000070 33 9c 0e bc b1 21 36 bd 5f 85 f1 bc 7a 3a d6 bd
       -0.008704233 -0.044465724 -0.029482542 -0.10460372
000080 20 49 a1 3d ac 5c 5b bd 10 ad ce bb dd c4 36 be
       0.078752756 -0.053555176 -0.0063072518 -0.17848535
000090 c2 eb 82 3d e9 62 9c bd 3b 85 e9 bc de 52 38 3e
       0.063926235 -0.07636053 -0.028505912 0.18000361
0000a0 a6 b7 a2 3d 47 9f b4 3d bb 7a 11 3d f7 95 e8 ba
       0.079451844 0.08819442 0.035517436 -0.0017744888
0000b0 3b 49 4e 3e 52 65 4e bd 5b e3 12 3d 6c 83 04 3c
       0.20145123 -0.050389595 0.035861354 0.008087974
0000c0 fe 50 0c be ef 4d b8 bb fb 78 d1 bc c2 30 5f be
       -0.13702771 -0.005624525 -0.025570383 -0.21795943
0000d0 22 0d 95 bd c9 c4 97 bd 5d c3 45 3c 5c db e8 3d
       -0.072778955 -0.07410581 0.012070504 0.113699645
0000e0 35 68 e7 3d e1 3f 3a bc 90 7a 50 bc 50 07 05 be
       0.11299173 -0.011367769 -0.012724534 -0.12991071
0000f0 79 b3 cd 3d 98 c1 1e be 69 a9 31 3b 17 af 00 bd
       0.10043997 -0.15503538 0.0027109033 -0.03141698
000100 08 dd c7 bd b5 14 cb bd 8c 1f bc bd c7 3e 25 3e
       -0.09758955 -0.09916059 -0.091857046 0.16137229
000110 d2 e0 e6 3c d1 9f a2 bd 6a 1f 2e bc f7 a6 96 3d
       0.028183375 -0.07940639 -0.010627607 0.07356065
000120 8f 01 44 3d 5a 49 33 bd 46 30 20 3d d4 77 13 be
       0.04785305 -0.043771125 0.039108537 -0.1440118
000130 37 5d 18 be 66 7a 37 3d 02 62 b8 bc 38 7d 02 3e
       -0.14879309 0.044794463 -0.022507671 0.1274308
000140 ce 73 62 bd dc 59 b9 3c c6 e4 2c 3c a6 fe 3f be
       -0.05528622 0.022625856 0.010552591 -0.18749484
000150 e5 92 eb 3d ef b0 63 3d c4 27 b6 3d 4c 83 d9 bd
       0.11502627 0.05558866 0.088943034 -0.10620746
000160 a7 ac e5 3c f2 6e d2 bc bd 74 76 3d 16 a8 58 bd
       0.028036429 -0.025687668 0.060169924 -0.052894674
000170 f6 be bb ba 63 fc 06 3e b7 50 50 bd 76 76 2e 3e
       -0.0014323879 0.13182215 -0.050858226 0.17037377
000180 bf df a8 bc 84 d4 b9 bd c1 4d 88 bd 7a 9e 26 bd
       -0.020614503 -0.09073737 -0.066554554 -0.04067848
000190 85 e3 09 be 3d cf ae 3b 10 bd be bd 25 9f ea bd
       -0.13465698 0.0053347633 -0.093134046 -0.11456136
0001a0 f1 e2 bc bd e8 88 d0 3d ce 38 fa bb aa ee 4c be
       -0.09222973 0.10182363 -0.007636166 -0.20012918
0001b0 e5 d2 9b bd 9d 44 7b 3d d1 af 53 3d 1e cf 22 be
       -0.07608584 0.06134473 0.051681343 -0.15899321
0001c0 de 5d 3b bd 2e bb 7c bb f1 c7 00 bd 2f 55 9f bd
       -0.045743816 -0.0038563716 -0.03144068 -0.07779919
0001d0 dd ee 84 3c 40 7d 05 3d fc 10 09 be b9 b4 af 3d
       0.01622718 0.03259015 -0.13385385 0.08579392
0001e0 0e c4 d7 bc 00 4f 70 bc 59 ce 3c bd df 72 bb 3d
       -0.026338603 -0.014667273 -0.046095226 0.09152769
0001f0 2b c0 39 3d f9 c3 b9 bd a1 43 31 bd 76 9e d1 bd
       0.04534928 -0.09070582 -0.043277387 -0.10235302
000200 da c8 b2 3c 5b a1 35 3a 1d 28 5a bb 0f 38 ce be
       0.02182429 0.0006928646 -0.003328807 -0.40277144
000210 9d c3 82 3d 04 96 1f 3b d6 38 ed bb c8 a7 95 bd
       0.063849665 0.002435089 -0.0072394414 -0.07307392
000220 88 01 5a 3d 00 04 8d 3d 09 df d8 3c 44 52 d5 3b
       0.053224117 0.068855286 0.026473539 0.006510051
000230 3f 74 e5 3d a6 1d 22 3d 11 69 fb 3c a6 2b 5e bd
       0.11203813 0.039579056 0.030689748 -0.054240845
000240 0d 72 2c 3d 0b df 8e bd 55 fc 26 3c e6 2b 37 3e
       0.042100955 -0.06976136 0.010191997 0.1788784
000250 44 b4 e2 3d 87 99 d1 3d 30 6f 5f bd ca 3c 07 3e
       0.11069539 0.10234361 -0.054549396 0.13206783
000260 09 fb 5b 3e e4 be 46 3d 78 34 21 bd b2 6c 39 be
       0.21482481 0.04852189 -0.03935668 -0.1810787
000270 07 2a b0 3d d2 ba 5f bc 59 23 98 3d cd d7 3d 3e
       0.08601766 -0.013655381 0.07428617 0.18539353
000280 a5 25 50 3b 81 d0 81 bc f4 e8 89 3c b7 2c e2 be
       0.003176072 -0.015846493 0.016834714 -0.4417474
000290 87 6c a5 3d da f5 6e 3d 62 45 06 3c ef 1f 6b 3d
       0.080773406 0.05833993 0.008195253 0.0574035
0002a0 89 8f 13 be 59 ee d9 bd 3d e1 90 bd ea e7 60 3e
       -0.14410223 -0.10641164 -0.07074211 0.21963468
0002b0 1d 18 51 3d fb e3 25 bd 96 c0 0f be 1f 79 55 3c
       0.051048387 -0.040500622 -0.1403831 0.013029366
0002c0 84 be d3 3d 45 6e 4c 3c 07 1e a9 bc 57 1f cd 3d
       0.10339072 0.012477462 -0.020644201 0.10015743
0002d0 38 a3 7b be d7 32 ae bd 5f 8a 63 bb 43 0a 94 bd
       -0.24573982 -0.08505791 -0.0034719927 -0.0722852
0002e0 38 ff 09 be f0 f5 ed 3d 96 53 63 3a d1 55 68 be
       -0.13476264 0.116191745 0.0008671818 -0.22688986
0002f0 3d 99 a6 3d 88 76 c6 3c 37 24 53 3d 4b b6 c4 bd
       0.08134697 0.024226442 0.05154821 -0.09605082
000300 64 9f 6d 3d 2b 1e 22 3d 3b 0e 6f 3c 5f 3b c6 3e
       0.058013335 0.03957955 0.014590795 0.38717172
000310 86 41 ba bc 13 73 c6 bc 0d 74 d2 3d 01 96 cd bd
       -0.022736322 -0.024224794 0.10276041 -0.100383766
000320 09 df 86 3b 45 e9 68 3d cf 40 4e bd a9 26 e4 3b
       0.0041159433 0.05686309 -0.050354775 0.0069626165
000330 59 ac 2b 3e 31 eb 1b bd b4 ef 39 3d 09 5d 9b 3d
       0.16764964 -0.038066093 0.045394614 0.075861044
000340 1b 30 db 3c f3 43 d4 bc b8 ef 95 3c 8b 3c a5 bd
       0.026756337 -0.025911307 0.018302783 -0.08068188
000350 1c 15 85 3d 86 8c ef 3c 57 ff 10 be 52 68 b1 bd
       0.06498167 0.029241811 -0.14159904 -0.08662476
000360 2b 24 cc bc 98 64 8a 3d 8f 97 8c 3d f1 1a 56 be
       -0.02491959 0.06757468 0.06864845 -0.20908715
000370 9e 60 8b 3d a5 a8 6d 3c 5b d5 d3 bd f1 88 09 bc
       0.06805538 0.01450554 -0.10343429 -0.008394466
000380 af db 23 bd a5 2b 25 3c 44 6f 04 3c 21 8c a2 be
       -0.04000443 0.010081206 0.008083168 -0.31747535
000390 92 95 1d 3e 59 df 1c 3d 73 4e 97 3d c6 f2 b3 bd
       0.15389088 0.03829894 0.0738801 -0.0878654
0003a0 b2 75 c6 bc 0d c0 b7 bc d7 bd da bb 25 be 33 3e
       -0.024226043 -0.022430444 -0.0066754627 0.17553003
0003b0 67 f0 ce bd a7 0a 86 bc fc 89 c9 3a 35 47 48 be
       -0.10104447 -0.016362501 0.0015376206 -0.19558413
0003c0 98 93 a0 3c 49 14 8d 3b f3 d4 60 3b 44 93 3b be
       0.019601628 0.0043053967 0.0034306615 -0.18317896
0003d0 25 5b 40 3e 41 4c 06 3d 2a c9 1b 3c a2 1d 29 3c
       0.18784769 0.032787565 0.0095084105 0.010322006
0003e0 12 39 1c bd a7 bf 52 3b 60 01 a1 bc c4 e6 6c 3e
       -0.038140364 0.003215769 -0.019653976 0.23134905
0003f0 c3 d1 2b be 4e 1e 10 bd 63 98 8b bd c6 ba 52 3d
       -0.16779236 -0.03518515 -0.06816175 0.051447652

layer1.gcn.bn.weight f4 [512]
000000 67 d0 50 3f 21 5b 6e 3f 85 e8 42 3f 8b 58 59 3f
       0.81567997 0.931078 0.76136047 0.8490073
000010 2b fd 55 3f 20 d8 5a 3f 57 4c 48 3f 5a 00 4e 3f
       0.8358943 0.8548603 0.78241485 0.80469286
000020 2b 40 4c 3f 99 27 57 3f 07 6d 5c 3f 01 a5 48 3f
       0.7978541 0.84044796 0.8610386 0.78376776
000030 87 54 4e 3f c1 5f 46 3f 63 5e 48 3f ae 52 44 3f
       0.8059773 0.7748986 0.7826902 0.7668866
000040 b9 22 5a 3f 13 36 4b 3f 75 77 58 3f 06 27 5b 3f
       0.8520923 0.79379386 0.84557277 0.8560642
000050 ea a6 4b 3f 81 ee 50 3f f4 58 6f 3f 98 25 4d 3f
       0.79551566 0.8161393 0.93495107 0.8013549
000060 f2 91 53 3f f7 b7 51 3f c7 c2 49 3f 40 11 57 3f
       0.8264457 0.81921333 0.7881283 0.84010696
000070 87 a8 61 3f 22 8a 5b 3f ad 0b 4b 3f 5b d4 67 3f
       0.8814778 0.8575765 0.7931469 0.90558404
000080 c0 df 40 3f 96 f6 61 3f 52 59 4e 3f 65 eb 60 3f
       0.75341415 0.88266885 0.8060504 0.87859184
000090 fc 99 5f 3f 0c b4 4c 3f db 80 4e 3f ab e6 5a 3f
       0.87344337 0.7996223 0.8066537 0.8550822
0000a0 d2 df 53 3f ea 86 64 3f d0 50 51 3f 11 6d 5f 3f
       0.827634 0.8926836 0.81763935 0.872758
0000b0 0e 8d 4a 3f 62 44 4a 3f 76 b0 46 3f ab 38 5f 3f
       0.7912148 0.79010594 0.7761301 0.87195843
0000c0 b8 f2 57 3f ff 0c 4b 3f d3 12 52 3f 48 c1 41 3f
       0.84354734 0.79316705 0.82059973 0.7568555
0000d0 8e cc 4b 3f d3 29 6a 3f 7f 6d 52 3f d1 11 50 3f
       0.79609 0.9147007 0.8219833 0.81277186
0000e0 2a bd 49 3f a7 e4 59 3f 98 b4 58 3f 77 8c 47 3f
       0.78804266 0.8511452 0.84650564 0.7794871
0000f0 27 f9 4a 3f 74 92 3e 3f b5 69 49 3f eb 96 47 3f
       0.79286426 0.7444222 0.7867692 0.7796466
000100 c4 5d 3f 3f 4e 7c 70 3f 1e 89 53 3f e4 e3 6a 3f
       0.7475245 0.93939674 0.826311 0.91753983
000110 6e fe 49 3f 3b 94 3a 3f 2b 06 40 3f ed ea 7f 3f
       0.78903854 0.7288243 0.7500941 0.99967843
000120 ac 34 4e 3f 27 8e 59 3f 3f fd 44 3f b3 fe 4c 3f
       0.8054912 0.8498253 0.7694892 0.8007614
000130 4f 5a 59 3f 24 43 59 3f 82 00 4f 3f 22 3f 46 3f
       0.84903425 0.84868073 0.8086015 0.77440083
000140 6b 0c 47 3f 39 5f 4f 3f 0a 20 44 3f 18 a4 4c 3f
       0.77753323 0.81004673 0.7661139 0.7993789
000150 58 f8 4c 3f 42 e5 4b 3f 04 9a 46 3f b1 3c 43 3f
       0.8006644 0.79646695 0.7757876 0.7626448
000160 fa d7 41 3f 90 d3 54 3f b7 12 4a 3f 68 1d 5c 3f
       0.7572018 0.8313532 0.78934807 0.8598237
000170 7a c7 49 3f 82 38 49 3f 7f 6e 4b 3f 8b 46 46 3f
       0.7882 0.7860185 0.7946548 0.7745139
000180 d5 17 4f 3f 28 3e 67 3f 8d 64 5e 3f b2 9b 54 3f
       0.8089574 0.9032922 0.8687218 0.8305007
000190 3b 83 65 3f 3e f1 5a 3f 9f 0a 58 3f 6e d4 5f 3f
       0.89653367 0.85524356 0.84391207 0.87433517
0001a0 31 4f 67 3f 9e f0 57 3f 61 e0 48 3f 11 e6 51 3f
       0.9035521 0.8435153 0.78467375 0.8199168
0001b0 48 81 42 3f 9e ac 40 3f 93 16 5d 3f 1a fe 4e 3f
       0.7597852 0.7526339 0.8636257 0.8085648
0001c0 a9 41 56 3f 79 81 5f 3f e5 b5 45 3f cb 08 3b 3f
       0.8369394 0.87306935 0.77230674 0.7306029
0001d0 67 9c 4e 3f 62 39 3c 3f cd 36 51 3f a0 eb 46 3f
       0.807074 0.7352506 0.81724244 0.77703285
0001e0 ff e2 46 3f 1a ed 59 3f 2b d2 4e 3f 88 1d 58 3f
       0.7769012 0.85127413 0.8078944 0.8442006
0001f0 48 d7 4f 3f ed 11 57 3f c0 06 5d 3f b8 d8 54 3f
       0.8118787 0.8401173 0.86338425 0.83143187
000200 6d c9 5d 3f 2c 87 59 3f e7 45 3c 3f bc e0 3f 3f
       0.86635476 0.8497188 0.7354416 0.7495229
000210 98 24 4c 3f a2 92 53 3f f4 f7 46 3f 15 ac 49 3f
       0.7974334 0.8264562 0.77722096 0.787782
000220 8b 21 4e 3f 2a ab 46 3f 14 53 47 3f b0 ac 5b 3f
       0.8051993 0.77604926 0.7786114 0.85810375
000230 3c 6e 50 3f 63 65 64 3f b4 d2 49 3f 82 bb 55 3f
       0.81418204 0.89217204 0.7883713 0.8348924
000240 17 8f 63 3f 47 73 52 3f bc 4c 49 3f cf 54 4d 3f
       0.8889021 0.8220715 0.7863271 0.8020753
000250 8d af 51 3f 95 8b 4f 3f 5d 48 50 3f 91 b3 5c 3f
       0.81908494 0.8107236 0.8136042 0.86211497
000260 e8 75 51 3f 90 21 59 3f 4a 1e 73 3f 9d b4 58 3f
       0.81820536 0.8481684 0.9496809 0.84650594
000270 95 80 5d 3f dd 49 49 3f fa 63 5d 3f 9c 4e 46 3f
       0.86524326 0.7862833 0.8648068 0.774637
000280 c4 99 5e 3f 58 fa 4b 3f 5c 89 36 3f 7c 6c 4f 3f
       0.8695338 0.7967887 0.71303344 0.8102491
000290 8b 51 65 3f a8 00 64 3f 68 5e 43 3f 62 5c 4f 3f
       0.8957755 0.890635 0.7631593 0.8100034
0002a0 84 ce 52 3f 07 a8 4c 3f 1e 28 52 3f 73 44 6b 3f
       0.8234637 0.7994389 0.82092464 0.9190132
0002b0 21 67 48 3f 26 2e 3f 3f 52 6f 63 3f b5 5b 54 3f
       0.7828236 0.7467979 0.88841736 0.82952434
0002c0 bc 99 4e 3f 29 f9 4e 3f 4f c5 53 3f 5e 99 4d 3f
       0.8070333 0.8084894 0.82722944 0.80312145
0002d0 e3 84 57 3f c6 77 48 3f 9f bc 56 3f f5 9b 67 3f
       0.84187144 0.7830776 0.8388156 0.90472347
0002e0 fa 9d 6b 3f b1 fd 51 3f 61 4f 50 3f 1f b3 46 3f
       0.9203793 0.8202773 0.8137112 0.7761707
0002f0 11 6c 43 3f 91 0f 5b 3f 84 b9 53 3f f6 58 5e 3f
       0.7633677 0.8557063 0.8270495 0.86854494
000300 32 84 50 3f 4e 92 57 3f 11 72 4f 3f 93 48 4d 3f
       0.81451714 0.8420762 0.81033427 0.80188864
000310 d2 c4 75 3f 6d 26 41 3f e5 29 55 3f ec 0b 58 3f
       0.9600345 0.7544926 0.8326705 0.8439319
000320 68 a0 4c 3f a3 86 52 3f a9 fb 65 3f 96 82 4b 3f
       0.7993226 0.8223669 0.8983713 0.79496133
000330 12 e1 3f 3f 55 e5 54 3f ca 71 3c 3f f1 92 56 3f
       0.74952805 0.8316243 0.7361113 0.83817965
000340 14 90 49 3f 28 08 5a 3f db 5a 49 3f 15 a6 47 3f
       0.7873547 0.85168695 0.7865426 0.77987796
000350 9b 2f 47 3f e6 01 48 3f c8 85 48 3f 3e 1c 4c 3f
       0.77807015 0.78127897 0.78329134 0.79730594
000360 7c ab 4f 3f 9c 85 4e 3f 2e 8f 3b 3f 67 c9 5e 3f
       0.8112104 0.8067262 0.7326535 0.87026066
000370 fa 2d 46 3f 1a 5f 59 3f 95 12 50 3f 04 d1 6c 3f
       0.77413905 0.8491074 0.81278354 0.9250643
000380 f1 1c 4e 3f 68 bf 46 3f e4 c0 4c 3f 18 83 5f 3f
       0.8051291 0.7763581 0.7998183 0.8730941
000390 c3 e9 46 3f 0f 8a 47 3f bc 6f 44 3f 18 eb 54 3f
       0.7770044 0.77945036 0.76732993 0.83171225
0003a0 d0 93 47 3f ae e6 4d 3f 84 01 51 3f e3 80 56 3f
       0.7795992 0.80430114 0.8164294 0.83790416
0003b0 60 cd 50 3f 55 de 55 3f c3 97 59 3f 0a 68 6e 3f
       0.8156338 0.83542377 0.84997195 0.931275
0003c0 85 93 58 3f 96 8b 55 3f 93 a4 51 3f 11 23 56 3f
       0.84600097 0.83416116 0.81891745 0.8364726
0003d0 cb 77 60 3f e1 98 6e 3f 00 82 52 3f 5d 81 44 3f
       0.8768279 0.93202025 0.82229614 0.7675989
0003e0 91 08 4f 3f a6 1d 53 3f 3d e6 57 3f 56 95 57 3f
       0.80872446 0.82467115 0.8433569 0.84212244
0003f0 74 98 44 3f 82 88 45 3f ed d7 5f 3f c0 60 5d 3f
       0.76795125 0.7716142 0.8743885 0.86475754

layer1.gcn.bn.bias f4 [512]
000000 b0 2c 14 bd 67 2b cd 3c d0 5b 42 bd 40 a3 d3 3c
       -0.03617543 0.02504511 -0.04745084 0.02583468
000010 12 a7 c5 3c 53 5d 4e bd 24 6d 6f bc b7 69 3b bc
       0.024127517 -0.05038197 -0.0146134235 -0.011438779
000020 90 6e 28 3d 59 a3 29 bd 76 c4 d0 3d 22 96 a9 3b
       0.041121066 -0.041415546 0.10193722 0.005175368
000030 61 58 13 3d bc a0 f9 3c 31 06 e1 3b ad 2b c8 bc
       0.035972957 0.030472152 0.006867193 -0.024434889
000040 63 09 91 bd 77 f7 0c bd 0c 2c 23 bc 82 c6 75 3d
       -0.070818685 -0.03441569 -0.009959232 0.060003765
000050 44 00 9d bd 49 6f 37 3d bd ff 69 3d 70 c6 20 bd
       -0.07666066 0.044783864 0.057128657 -0.039251745
000060 3b bd 0e 3d 4a d2 e5 bd 32 28 c3 bd f2 e3 89 3d
       0.034848433 -0.1122175 -0.09529151 0.0673293
000070 a3 d2 ec 3c b9 9f 8d bc f6 fa 9c 3c 9b 49 24 be
       0.028909033 -0.017288076 0.019162636 -0.16043703
000080 c1 9c 95 3c 50 b5 83 3c f2 f2 20 3d 71 36 1c 3d
       0.018263223 0.016077667 0.03929419 0.038137857
000090 bc c8 89 bc ef ba 1d 3c e5 81 91 bc ac fe e1 bc
       -0.01681935 0.009627088 -0.017762134 -0.027587257
0000a0 9f 32 e9 3d 48 79 4c bd 66 15 b0 bc 4f 3f 8a 3d
       0.11386608 -0.04992035 -0.021494579 0.067503564
0000b0 32 13 ee bc 54 c7 49 bd 00 a6 f0 3b bd d6 c8 bc
       -0.029061887 -0.04926236 0.0073440075 -0.024516458
0000c0 0f 96 1c bd e8 14 4e bd 40 e7 22 bd 5e 0d df bd
       -0.038229045 -0.050312907 -0.03977132 -0.108912215
0000d0 b2 fb b2 3c a3 cf 3a bc ab 8a 54 3d 15 eb 96 bd
       0.021848533 -0.0114020435 0.051890057 -0.07369057
0000e0 3e 75 b6 bc b0 f9 92 bd f1 6f 63 3c aa 65 68 bc
       -0.022272702 -0.0717653 0.013881669 -0.014184395
0000f0 c7 4f f7 3c 29 f7 32 bc 16 30 4d 3d 92 2a 0b 3c
       0.030189408 -0.010923185 0.050094686 0.008494036
000100 2a 83 c5 3c 1a 64 4f 3d 5e 4f 21 3d 8f 6c 18 bd
       0.024110395 0.050632574 0.03938233 -0.037212905
000110 07 f2 2b bc 04 2a a1 bc da ad 47 bc 32 3e 2e bd
       -0.0104947155 -0.019673355 -0.012187446 -0.042539783
000120 37 f2 ac bc 99 23 82 3d 85 b0 8e 3c 64 e9 38 3c
       -0.02111159 0.06354446 0.017418155 0.011286113
000130 3f 99 5a 3b cd 6d a7 bc c5 3e e1 bd fd 41 00 bd
       0.0033355502 -0.0204381 -0.109983005 -0.03131293
000140 92 81 f1 3a 87 2e 16 bd b1 7c 49 bc 9d ac ad 3c
       0.0018425456 -0.036665466 -0.012297795 0.021200472
000150 30 f5 d0 3c e7 4d 86 3d cd e7 19 3c fe 9d 69 bc
       0.02550754 0.065578274 0.0093936445 -0.01425886
000160 69 79 b2 3d bb 06 c7 bc c0 ba c4 3c e2 a4 16 bd
       0.087145634 -0.024295202 0.02401483 -0.03677834
000170 fc bb 8b bb 0a 97 b7 bc 00 17 1f bd 70 3f 35 bd
       -0.004264353 -0.022410888 -0.038840294 -0.04424995
000180 1e 63 fa 3a e4 6a c5 bd 34 c9 67 bb 9c 2b 9b 3d
       0.0019103026 -0.096395284 -0.003536773 0.07576677
000190 99 89 1e bd 60 94 b1 bc 3f cb c2 3c 6f c6 a8 3d
       -0.038705442 -0.021677196 0.023778556 0.08240973
0001a0 4f c4 bb bc 2a dd 0a 3d 33 96 88 bc 40 3d 46 3d
       -0.022920756 0.033902325 -0.016673183 0.048398256
0001b0 8d 61 87 3d 2f 77 f3 bc cf ac 86 3c 65 e4 b9 bc
       0.06610403 -0.029719917 0.016439823 -0.022691915
0001c0 70 03 67 bd e2 73 aa bd 60 00 d7 ba 45 07 15 bd
       -0.056399763 -0.08322884 -0.001640331 -0.036383886
0001d0 db a1 17 bd ee 4d 0d 3d 76 b8 63 3c 33 05 89 3c
       -0.03701959 0.034498148 0.013898959 0.016726112
0001e0 27 bf c7 bc a0 29 49 3d db 02 f2 3c 87 a8 6b bd
       -0.02438314 0.049111962 0.029542377 -0.057533767
0001f0 7c c0 c0 bc 82 ff 13 3d b7 74 53 3c 48 d7 64 bd
       -0.023529284 0.036132343 0.012906245 -0.05586937
000200 ff 87 28 bd 30 f5 3b bd 11 38 fa 3c a7 39 47 3d
       -0.04114532 -0.045888126 0.030544313 0.048638966
000210 d3 cc b3 3d 65 81 fe bc fe c1 8e 3b 3f 19 dc bb
       0.087793015 -0.03106756 0.0043566218 -0.0067168768
000220 0c 06 d7 bc 6a bb 45 3d a0 ac 4e 3d a5 c6 b7 3d
       -0.026248 0.048274435 0.050457597 0.08973435
000230 58 de cd 3d ac db 6b bd 9e e0 bb bb b6 40 d9 bb
       0.10052174 -0.057582542 -0.0057335636 -0.0066300286
000240 87 79 05 bd a1 2b 7e 3d c4 75 41 bd 52 b1 34 3d
       -0.0325866 0.062053327 -0.04723145 0.04411442
000250 2c 55 2e 3d f2 38 73 3d 84 fa a5 3c 52 51 8e 3c
       0.042561695 0.05938048 0.020261057 0.01737276
000260 73 64 81 3c 3e 36 34 3d 47 2f 8e bd 1e 76 67 3c
       0.015794968 0.043997042 -0.06942611 0.014127282
000270 3f 58 e0 bc c2 c4 95 bd ef f7 cd 3d 11 ec 4d 3a
       -0.027385829 -0.07312919 0.10057055 0.0007855306
000280 a0 56 a0 3d 5d 71 42 ba 53 50 03 bd 07 0f 91 bb
       0.078290224 -0.0007417405 -0.032059025 -0.00442684
000290 45 7b 1e 3c db 38 8b 3d 41 dc 46 3d ba 87 04 3d
       0.009672944 0.06797954 0.048549894 0.032356
0002a0 7d 2d 60 3c 24 fc a7 bc e1 39 57 bc ea 97 fa bc
       0.01368272 -0.020505972 -0.013136358 -0.030590016
0002b0 f2 a2 eb 3b 4f 1a 69 bc 32 c5 d6 bb f0 cd 4e ba
       0.0071910555 -0.014227464 -0.006554269 -0.00078889634
0002c0 a9 db 3c 3c 2d ac bc 3b 9a e7 f8 bc 34 42 86 bc
       0.01152698 0.0057578296 -0.030383874 -0.01638899
0002d0 fe 13 ad 3c f3 1f 92 3c f7 0a c3 bc 46 98 76 3c
       0.021127697 0.0178375 -0.02380894 0.015050953
0002e0 f9 54 1b 3c 03 78 bc bd 94 05 01 bd b5 03 55 3d
       0.009480708 -0.09202578 -0.03149946 0.05200549
0002f0 8b 51 30 bd 54 ea 91 bd 9c b2 83 3c 4e d2 80 3d
       -0.043046515 -0.07124773 0.016076379 0.062901124
000300 72 05 18 3d e1 27 e5 bd 9d 98 a5 3c ef ff 9b bd
       0.037114568 -0.11189247 0.020214373 -0.07617175
000310 6c 97 22 be 90 83 43 bb ac 0a c7 bd 4b 50 80 3d
       -0.15878075 -0.0029833056 -0.097188324 0.06265315
000320 cb c1 95 bc 64 16 b1 bd 3e fe 37 bc 19 7c 95 3d
       -0.018280884 -0.08646849 -0.01123005 0.072990604
000330 b3 10 3e 3d 26 c6 8f bd 61 c0 75 bc ab 97 6c bd
       0.046402644 -0.07020216 -0.01499948 -0.05776183
000340 9b 57 b6 bd 2c 5b db bb 54 81 01 bd 6d 66 77 3b
       -0.08903428 -0.006694218 -0.031617478 0.003775026
000350 a0 9d 78 3c 35 e5 1d 3d 65 52 4f bc 0a 14 0b 3d
       0.0151742995 0.038548667 -0.012653922 0.033954658
000360 40 d4 92 3c 6e ce b2 3c 20 15 da 3c b3 7d 1c bc
       0.017923474 0.021826949 0.026621401 -0.009551453
000370 a2 33 8f 3d 11 7e 89 bc f7 83 a6 bd 70 48 49 3d
       0.0699227 -0.016783746 -0.08130639 0.049141347
000380 6d 60 19 bd 4c 93 0c 3d a7 52 cc 3c be bd 68 bb
       -0.037445474 0.03432016 0.024941755 -0.0035513486
000390 3d f7 d6 bc ae 20 db bc 8e 0d 6c bc 34 bf ce 3d
       -0.02624094 -0.026748981 -0.014407529 0.10095063
0003a0 34 f4 76 3c 77 15 b1 bb 88 02 85 bc ab 99 a1 bb
       0.015072871 -0.00540417 -0.016236559 -0.0049316487
0003b0 b9 75 7b bd a4 4f 41 3d 48 a3 a9 3b 65 b1 b2 3c
       -0.061391566 0.04719509 0.0051769353 0.021813104
0003c0 94 3e bb bc 8d ad 67 bc d1 da 55 bd 26 c1 2a bd
       -0.022856988 -0.014140499 -0.052210633 -0.041688107
0003d0 88 27 92 3d c5 ff 89 bd f7 1b b2 bc d6 eb 16 3c
       0.07136446 -0.06738237 -0.02174185 0.009211501
0003e0 ed 60 b0 bd 27 9f bc bc bd 47 55 bd 1f 76 c6 bc
       -0.08612237 -0.023025109 -0.052070368 -0.024226246
0003f0 52 bf 66 3d 6c b3 69 bd 53 6b 44 bb 04 d7 17 bd
       0.0563348 -0.057055876 -0.0029971197 -0.03707029

layer1.gcn.bn.running_mean f4 [512]
000000 8f 91 07 3a df 6b ab 39 3b 81 74 3b b9 0f be ba
       0.0005171531 0.00032696032 0.0037308473 -0.0014500535
000010 32 bb 40 ba 6c d1 69 b8 ec 77 aa ba eb f1 5e bb
       -0.0007352113 -5.574657e-05 -0.001300571 -0.0034018706
000020 8f ce 11 bb c1 78 5c bb 42 cd ed bb 77 48 1d ba
       -0.0022248363 -0.003364131 -0.0072571347 -0.0005999873
000030 55 84 9c ba ef 7c a8 3a 8f 15 e8 3b fd ea c3 3a
       -0.0011941293 0.0012854616 0.007082648 0.0014947351
000040 e4 f1 e6 3b 6e fd 45 ba d7 21 83 ba fa d8 c8 bb
       0.0070478786 -0.00075527176 -0.0010004592 -0.0061293812
000050 ff f6 5a 3b 2b cd 14 b9 c7 19 9c b9 53 37 5d 3a
       0.0033411381 -0.00014190811 -0.00029773844 0.0008438725
000060 b3 47 61 3b 91 4a 92 bb 41 ee 38 bb 86 35 42 39
       0.0034375011 -0.0044644554 -0.0028218182 0.00018521221
000070 00 9f ac 3a 32 79 10 3b 4a bf 5a 3b ad f3 1a 38
       0.0013169944 0.0022044894 0.0033378177 3.6943402e-05
000080 1a 8a a3 3a b0 e5 11 bb 8d b5 13 3c 9c 49 09 bb
       0.001247707 -0.0022262149 0.009015453 -0.0020948416
000090 39 60 cd 3a 40 99 8a 3a 63 61 12 bb 5b d3 39 3b
       0.0015668935 0.0010574237 -0.002233588 0.0028354737
0000a0 64 3f 63 ba 7f bd f6 39 92 f4 03 3b 1c fc f4 ba
       -0.0008668809 0.00047061962 0.002013479 -0.0018690857
0000b0 1f ac 84 3a 09 03 0f ba cd 19 ef b9 2d 6d ee 39
       0.0010122097 -0.00054554694 -0.00045604855 0.0004547624
0000c0 67 90 25 bb 2c 34 7c 3b 9b f1 27 ba fb 82 64 3a
       -0.0025263072 0.0038483245 -0.00064065465 0.00087170274
0000d0 a7 fa 95 3b 62 ea 77 b9 12 4d 81 ba 42 7a ec 3b
       0.004576999 -0.0002364307 -0.0009864888 0.0072167227
0000e0 9d 3e d7 38 c5 c3 fc ba 9b a6 3d 3a 7d d1 2c b9
       0.000102636615 -0.0019284418 0.0007234604 -0.00016481239
0000f0 3c 2c 97 ba ab 60 6c 3a b4 ef cc b9 57 48 78 ba
       -0.0011533569 0.000901709 -0.00039088505 -0.00094712287
000100 f1 53 67 3a f2 a0 36 3b 02 e2 2a ba 20 22 50 bc
       0.0008824459 0.0027866927 -0.0006518663 -0.0127034485
000110 79 11 04 3a 99 3c c4 3a 52 ae ba 39 20 e4 3d ba
       0.0005038004 0.0014971673 0.00035606563 -0.0007243771
000120 f8 2a 2d 3a e4 36 23 ba ae 96 7e 3b 67 0b f3 3b
       0.0006605829 -0.0006226136 0.0038847136 0.0074171307
000130 88 9b 47 bb 4e fe d8 3a ae b6 38 ba 2b 2f 0b bb
       -0.0030457694 0.0016555281 -0.00070462644 -0.002123783
000140 a3 e4 3a 3b ee a2 81 3b 87 18 83 b7 dd 3a c4 ba
       0.0028517626 0.0039561903 -1.5627838e-05 -0.0014971156
000150 61 52 ed ba 2c 57 40 3a cd 8f ba 3a 94 2c 5b ba
       -0.0018106216 0.00073372084 0.001423353 -0.00083608297
000160 db 30 e8 3b 16 e1 93 ba 11 a9 16 3a a4 f7 11 3a
       0.007085902 -0.0011282291 0.0005747239 0.00055682124
000170 d1 b0 cc ba 05 03 5c bb 8a 12 33 3b 06 09 05 bb
       -0.001561666 -0.0033571136 0.0027324283 -0.0020299568
000180 b1 64 f5 39 c4 b0 10 ba f1 fa 9b 3a 68 7f d6 39
       0.00046805062 -0.0005519504 0.0011900348 0.00040912186
000190 40 6a 3f bb 58 6c 7b 3b b6 7b 1b 3b 2d 93 0a 3b
       -0.0029207617 0.0038364138 0.002372486 0.0021144853
0001a0 76 1a 6a 3a 09 a2 74 3b 98 48 01 bb 1c 5f c6 b9
       0.00089303346 0.0037328026 -0.0019727107 -0.00037836365
0001b0 61 df 1d bb 00 3f 6e bb 25 bd b5 3b f0 a5 a1 ba
       -0.0024089443 -0.003635347 0.0055462294 -0.0012332778
0001c0 1c d7 27 ba 62 82 14 ba 4a d1 86 3a 57 70 d1 b9
       -0.0006402598 -0.00056651805 0.0010285762 -0.00039947286
0001d0 f2 7b 82 ba b5 74 fd b9 bc 16 99 bb 4b 07 97 ba
       -0.0009955151 -0.00048342874 -0.0046718996 -0.0011522559
0001e0 6b 0b 8d 39 15 fc fa b8 a5 4d a2 b9 bb 93 08 b9
       0.00026902123 -0.00011967883 -0.00030956898 -0.00013025005
0001f0 2e 53 d6 ba b6 1b c3 ba 60 6d 28 39 7a b7 bc ba
       -0.0016351694 -0.0014885578 0.00016062474 -0.0014397942
000200 02 59 1a bb 90 ad 25 bb 38 a8 c2 3a 83 2d ae ba
       -0.0023551588 -0.0025280453 0.0014851158 -0.001328871
000210 fe f7 f6 39 b8 56 84 38 50 9b 83 ba fe 41 c0 ba
       0.00047105545 6.310403e-05 -0.0010040794 -0.0014668105
000220 9f 76 4a 3a d7 61 9c 3a 2c 0f 6e 3a f1 08 e4 ba
       0.00077233644 0.0011931014 0.000908124 -0.0017397684
000230 d9 fd 0b 3b c0 02 f7 3b a0 d7 22 3a 7f 0f 00 3a
       0.0021361022 0.0075381696 0.000621194 0.00048851216
000240 d1 93 09 b6 e4 9e 57 ba 4b ba e5 3a 77 ff 71 3b
       -2.0500631e-06 -0.00082252757 0.0017526833 0.003692595
000250 89 6c 06 ba 29 25 f8 ba 59 66 c5 39 38 8b b2 3b
       -0.00051278673 -0.0018931973 0.00037651023 0.005448725
000260 66 51 07 3b d6 91 f9 3a 0f d6 77 3c 3a fd dc 3a
       0.0020647882 0.0019040655 0.015126719 0.0016860135
000270 19 3b 99 3a 9d 88 5e b9 e1 6c 2b bb 54 8d 1d 3b
       0.0011690586 -0.00021222462 -0.0026157426 0.0024040537
000280 f1 53 50 ba eb dc 22 3a 2c 88 6d 3b 26 18 fe ba
       -0.00079470786 0.0006212729 0.0036244495 -0.0019385859
000290 b5 3a 47 bb 5c f3 3d bb 70 b8 0f bb 35 a5 10 3b
       -0.0030399982 -0.0028984165 -0.0021930002 0.0022071127
0002a0 5d f4 75 3a 1a be 3c 3b 2a 3c 54 bb ec 3b 33 ba
       0.0009382421 0.0028799833 -0.0032384493 -0.0006837237
0002b0 f8 11 6c bb f5 e2 48 bb 3d b3 15 bb 6a a9 bb 37
       -0.0036021452 -0.0030652855 -0.002284243 2.2371027e-05
0002c0 8a 6c 80 3b 11 ff 34 bb b4 c9 69 3b 58 2f c9 ba
       0.003919189 -0.0027617852 0.0035673203 -0.0015349193
0002d0 ac 2d 50 ba 5a 7d d3 ba df e1 ed 39 f5 72 c1 bb
       -0.0007941376 -0.001613538 0.0004537245 -0.0059035965
0002e0 77 e1 1e 3c e4 0b 46 bb 38 87 59 bb 0c 5f e8 ba
       0.00969731 -0.003021949 -0.003319217 -0.0017728521
0002f0 d4 d3 2b ba 3e a6 8f ba 5c 72 e9 b9 4b 9a 08 bc
       -0.0006554697 -0.0010959578 -0.00044526428 -0.008337568
000300 f2 c3 83 ba 05 23 32 3b 27 e0 10 3b 68 cf 92 ba
       -0.0010052903 0.0027181518 0.0022106261 -0.0011200728
000310 89 77 88 bb 59 d9 84 ba d0 99 d7 bb 05 89 3d 3b
       -0.0041646403 -0.0010135575 -0.006579615 0.0028920781
000320 63 09 51 39 79 22 38 3b cb e6 15 3b 18 87 22 b9
       0.0001993529 0.002809672 0.002287316 -0.0001549985
000330 ca 6a 55 39 c7 9b c9 bb a2 7e 27 3b 09 71 32 3b
       0.00020353045 -0.0061526033 0.0025557657 0.0027228019
000340 a3 56 3a 3b 5a c0 01 3b ad 48 f4 39 12 30 8d bb
       0.0028432987 0.0019798488 0.00046593454 -0.004308709
000350 3f 1d e0 3a 91 42 98 3a 63 3b 89 3a a9 2b cb b9
       0.001709856 0.0011616518 0.0010469969 -0.00038751707
000360 7c 2c ea 3a c2 6d 84 ba 0e 2f df 38 99 bb a2 bb
       0.001786604 -0.0010103511 0.00010642233 -0.004966211
000370 df a5 78 3a 0c 4a 82 b9 93 af 17 ba 4a 5e 14 3b
       0.0009485166 -0.000248507 -0.00057863555 0.0022639208
000380 92 28 99 38 65 01 00 3b 38 e2 6e 3b e9 56 03 bb
       7.303165e-05 0.0019532081 0.0036450755 -0.0020040816
000390 66 f9 e2 b9 67 b5 43 3b ba cc d9 39 e3 f4 8a ba
       -0.00043291895 0.0029862763 0.00041541999 -0.0010601546
0003a0 3a fc e0 ba 06 b5 e9 ba fb f7 d3 3b 1c 70 51 bb
       -0.0017165013 -0.0017830438 0.0064687706 -0.0031957692
0003b0 68 2d 14 b9 d5 e1 2a ba cf dd 42 39 19 4b e0 b8
       -0.00014131295 -0.0006518637 0.00018583912 -0.000106951404
0003c0 69 c2 0b ba ae 5b 48 3b c6 58 ad 39 66 a3 72 3a
       -0.00053313986 0.0030572223 0.00033063273 0.00092559156
0003d0 75 a9 74 bc 67 fc 95 ba 2d 27 8f ba 8d 19 3b 39
       -0.01493298 -0.001144302 -0.001092171 0.00017843228
0003e0 d1 4f ca b9 c9 e3 a1 3a 04 03 0d ba 32 a3 8f ba
       -0.0003858791 0.001235121 -0.00053791725 -0.001095867
0003f0 a2 59 30 bb 34 34 13 bb 5a ac b3 3a 51 0e 97 ba
       -0.0026908894 -0.0022461535 0.0013707981 -0.0011524652
