Multimodel/Codes/model_weights.pth (torch, 42617 bytes, 24 tensors)

encoder.attention.values.weight f4 [64, 8]
-0.7257488 -0.42866537 -0.5326832 0.45746753 0.376381 -0.7512149 -0.046685852 0.7261035
-0.21960446 0.65982664 0.5915976 -0.8070094 -0.8034458 0.71300673 -0.2421253 0.6193381
-0.14206377 0.4202716 0.4538107 0.059100814 0.48299357 -0.63432986 0.7451724 -0.43019202
0.6660696 -0.32372475 0.2520301 0.57327265 0.3442305 0.18061304 0.660969 -0.07825123
-0.24038583 -0.35341236 -0.80045396 0.41990352 0.67015773 0.025733322 -0.35119197 -0.21909013
0.67174006 0.46615604 -0.76299983 0.59938586 0.7762363 0.61155015 -0.20041531 0.3610023
-0.79819226 -0.5904532 0.34142 -0.25963342 0.6036653 0.6250352 -0.48698148 0.7226821
0.64308333 -0.22173901 0.21541265 -0.4772649 0.19890933 -0.7405086 -0.24438079 0.07042878
-0.6618878 0.658262 0.06037303 0.06600314 0.12013545 -0.529256 0.49464607 -0.4990185
0.6764391 0.7696638 0.09903344 0.41298792 0.048019014 0.2795939 0.5995699 -0.12532061
0.8010428 0.7270954 0.0036070754 0.7798159 0.35577044 0.48411825 0.036816597 -0.36927396
-0.4401712 0.7457283 0.102659725 0.59712595 -0.3364224 -0.6458211 -0.17236581 -0.18557172
0.5425943 -0.7041088 -0.802971 0.47953367 -0.05193601 -0.36890885 -0.6728654 0.7180751
0.66454166 0.4862083 0.67744523 0.17645378 -0.03834524 0.5427053 -0.784316 -0.18315594
0.5293602 0.25009602 -0.62591386 -0.77259904 -0.12821148 0.10888955 -0.56461287 0.3553802
0.2150855 -0.019732408 0.4024425 0.5332076 -0.13924009 0.21979056 -0.76014817 0.36542165
-0.15302004 0.042000987 0.23901112 0.08560807 0.5677611 -0.7177548 -0.7858608 -0.48716572
-0.53680676 0.5122924 0.4977863 -0.34718338 0.45738778 0.47452343 0.33322445 -0.4418448
0.24281442 0.17174555 0.45999402 0.6856616 0.623385 -0.120216176 -0.5719887 -0.3312703
0.3029836 0.20466964 -0.09550502 -0.59009475 -0.6158612 0.6769642 -0.10971113 -0.10675904
-0.57950234 0.29374704 -0.5801046 -0.2084227 -0.008996018 0.51176846 -0.15323801 0.49062198
-0.4229768 -0.38864312 -0.63503176 -0.02210883 -0.14561313 -0.737602 0.41114184 0.1103591
0.76242787 -0.6516825 -0.6395152 -0.14044891 0.45905983 -0.38514054 -0.2049034 0.30753735
0.25738662 -0.4403921 -0.7553615 -0.6372342 0.73995185 -0.669851 0.36112782 -0.12199294
0.7485748 -0.74614805 0.55130166 0.1825033 -0.44204724 0.00045217373 0.56565714 0.6191574
0.53856564 0.59310406 -0.00020728465 0.7443607 -0.21456276 -0.44647098 -0.4524759 0.15890197
0.49288607 0.42594308 -0.71752447 -0.71174383 -0.39695087 -0.21231274 -0.042479977 0.035587102
0.015355827 -0.5032923 0.028546168 -0.543398 -0.6633778 -0.67787945 -0.18164876 -0.28313577
0.6964526 -0.25166324 -0.6302564 -0.27919433 0.17149363 -0.6296021 0.22454771 -0.22581808
0.14093801 -0.66923535 0.49455327 -0.057588212 -0.211759 0.16001917 -0.11275087 -0.61540955
0.8091442 0.11838863 0.41491848 0.15067734 -0.47267222 -0.49963886 0.0136321895 -0.77362424
-0.20218523 -0.23241596 -0.5973893 0.71644515 -0.6229827 -0.6980882 0.7604911 -0.043714054
00000000: acca 39bf 077a dbbe ed5d 08bf 2f39 ea3e
00000010: 03b5 c03e 9f4f 40bf aa39 3fbd ebe1 393f
00000020: fedf 60be 66ea 283f f172 173f 2b98 4ebf
00000030: a0ae 4dbf 9c87 363f b2ef 77be f18c 1e3f
00000040: 2a79 11be d72d d73e e059 e83e b213 723d
00000050: ef4a f73e 7163 22bf 9ec3 3e3f 2142 dcbe
00000060: 8a83 2a3f 40bf a5be 170a 813e ffc1 123f
00000070: fb3e b03e a0f2 383e 4435 293f 2e42 a0bd
00000080: b427 76be 77f2 b4be 8dea 4cbf 98fd d63e
00000090: 758f 2b3f b0ce d23c 6fcf b3be 2a59 60be
000000a0: 28f7 2b3f 01ac ee3e f553 43bf 5a71 193f
000000b0: 6cb7 463f 8d8e 1c3f ac39 4dbe 4bd5 b83e
000000c0: 5456 4cbf f127 17bf 9ace ae3e acee 84be
000000d0: cf89 1a3f 4f02 203f a355 f9be b201 393f
000000e0: 1ca1 243f 8d0f 63be 2295 5c3e 115c f4be
000000f0: e3ae 4b3e f991 3dbf f53e 7abe f73c 903d
00000100: 7b71 29bf dc83 283f b649 773d a72c 873d
00000110: 9309 f63d 527d 07bf 4042 fd3e 5a7f ffbe
00000120: 1d2b 2d3f b008 453f 0bd2 ca3d 2773 d33e
00000130: 96af 443d ef26 8f3e 6a7d 193f 0c54 00be
00000140: 2411 4d3f ed22 3a3f af64 6c3b 04a2 473f
00000150: 8b27 b63e 59de f73e 00cd 163d 7a11 bdbe
00000160: 1f5e e1be 0de8 3e3f 433f d23d 3fdd 183f
00000170: 8f3f acbe 8854 25bf aa80 30be 8306 3ebe
00000180: 76e7 0a3f 7940 34bf 828f 4dbf 7085 f53e
00000190: dbba 54bd 9fe1 bcbe e840 2cbf c5d3 373f
000001a0: 671f 2a3f 4bf0 f83e 0d6d 2d3f 4db0 343e
000001b0: e60f 1dbd bcee 0a3f efc8 48bf 3b8d 3bbe
000001c0: 2684 073f 960c 803e e43b 20bf 0dc9 45bf
000001d0: df49 03be 7c01 df3d 788a 10bf 65f4 b53e
000001e0: 603f 5c3e dca5 a1bc f20c ce3e 4b80 083f
000001f0: f494 0ebe c710 613e 1299 42bf 8c18 bb3e
00000200: 49b1 1cbe 3a09 2c3d 55bf 743e 4953 af3d
00000210: cb58 113f c7be 37bf 2c2e 49bf c96d f9be
00000220: 2b6c 09bf 9825 033f d9dd fe3e 05c2 b1be
00000230: bb2e ea3e bcf4 f23e 659c aa3e 7b39 e2be
00000240: 58a4 783e 11de 2f3e 5684 eb3e 8587 2f3f
00000250: 2996 1f3f e633 f6bd da6d 12bf 439c a9be
00000260: ab20 9b3e eb94 513e 2398 c3bd 7310 17bf
00000270: 14a9 1dbf 874d 2d3f 3bb0 e0bd 7ca4 dabd
00000280: 445a 14bf 0366 963e bc81 14bf c36c 55be
00000290: 0964 13bc 4203 033f 6dea 1cbe ce32 fb3e
000002a0: 6a90 d8be 3bfc c6be 7191 22bf 941d b5bc
000002b0: 9c1b 15be 7cd3 3cbf 2f81 d23e f403 e23d
000002c0: 792e 433f aad4 26bf 45b7 23bf d7d1 0fbe
000002d0: e409 eb3e 2431 c5be 32d2 51be 8975 9d3e
000002e0: 2ec8 833e 137b e1be 5f5f 41bf c821 23bf
000002f0: 7c6d 3d3f 5b7b 2bbf bfe5 b83e 6fd7 f9bd
00000300: 99a2 3f3f 8f03 3fbf 1b22 0d3f 25e2 3a3e
00000310: 0454 e2be bb11 ed39 e8ce 103f 1981 1e3f
00000320: 70df 093f abd5 173f 8d5a 59b9 6c8e 3e3f
00000330: 57b6 5bbe d897 e4be ecaa e7be 33b7 223e
00000340: 905b fc3e 3615 da3e afaf 37bf d834 36bf
00000350: 253d cbbe 8368 59be 7cff 2dbd c8c3 113d
00000360: 0297 7b3c c4d7 00bf a7d9 e93c 221c 0bbf
00000370: 21d3 29bf 8289 2dbf 2202 3abe 2cf7 90be
00000380: b84a 323f 01da 80be 7c58 21bf 8ff2 8ebe
00000390: 079c 2f3e 9a2d 21bf d6ef 653e db3c 67be
000003a0: 0e52 103e 0253 2bbf 1636 fd3e 9ee1 6bbd
000003b0: 5ad7 58be 11dc 233e eee9 e6bd 7b8b 1dbf
000003c0: 1324 4f3f bd75 f23d 3270 d43e 294b 1a3e
000003d0: 1802 f2be aad0 ffbe 8c59 5f3c 3d0c 46bf
000003e0: a509 4fbe 73fe 6dbe 81ee 18bf f368 373f
000003f0: cb7b 1fbf e9b5 32bf 8baf 423f 820d 33bd

encoder.attention.keys.weight f4 [64, 8]
-0.66689724 0.17880808 0.22347245 -0.73037237 -0.13461038 -0.33563003 0.6442024 0.23808476
-0.2102288 -0.759575 0.60033476 0.53614426 -0.65534306 0.65692216 0.46368298 -0.50532466
-0.22216593 -0.7694058 -0.57803404 -0.52162904 0.7380458 -0.08235787 0.25482544 -0.690047
0.5234396 0.6417616 -0.62746006 -0.5809946 0.17922784 0.4712683 0.2964678 -0.5313809
0.5991429 -0.124956 0.7619506 0.08491643 0.060724005 -0.4358257 0.29574186 -0.46180132
-0.7729905 -0.6083897 -0.30176622 -0.78502196 -0.3431361 0.020632092 0.04377516 0.7074325
0.14704041 0.075168155 0.15088482 0.12563127 0.552756 0.020031046 -0.78402084 0.39317077
0.2897433 -0.68413997 0.104758054 -0.070019685 0.1426599 -0.0233526 0.70469844 0.8035331
0.22584157 0.1497385 0.048014134 -0.013009518 0.61950725 0.6155766 0.5889494 0.7866021
-0.62563777 0.62457633 -0.5082853 -0.07995735 -0.6126002 -0.71672785 0.3428898 -0.7775314
0.4654441 -0.6577357 -0.21382876 -0.08181339 -0.32894298 0.36787704 0.055386208 -0.2985589
0.6192278 0.79264325 -0.020166116 0.7899966 0.09240071 0.29877597 0.16809572 0.77168906
0.7244671 -0.40403754 0.36371782 0.3980929 0.21068044 -0.39893842 0.5453755 0.6229577
0.29462948 -0.6997134 0.13059726 -0.390825 -0.35075966 0.30794716 -0.5921091 0.1580956
-0.7374446 0.40811083 0.7918071 0.15714318 -0.7464504 -0.14814717 -0.32567155 0.5220637
0.098601714 0.40407765 0.17289759 -0.38580275 0.41458023 0.22366601 0.07642621 0.75697577
-0.4907478 0.12640743 -0.5504696 0.2887228 -0.49199137 -0.43757066 -0.41705284 0.21116653
-0.0036116668 -0.5622664 0.67140377 -0.349359 0.07034007 -0.22159937 0.78857154 0.29969013
-0.24400726 -0.27146578 0.48750615 -0.7909317 0.14859718 0.7389557 0.2312968 -0.6823193
-0.19735156 0.22391368 0.40320137 0.3436703 -0.252407 0.27431545 0.6044306 0.2991533
-0.700815 -0.7571341 0.31625387 -0.3849573 0.10288746 -0.60449433 0.05477409 -0.67141813
0.18941134 0.007039682 -0.113698736 0.6728183 -0.28902534 -0.3559665 -0.65733105 0.6175491
-0.27339458 0.60812217 0.4665256 -0.47286373 -0.0019484574 0.5308375 0.17920955 0.37179554
0.3613176 0.17305554 0.07930991 0.7619844 0.7902499 0.64887685 0.014331053 -0.7537591
-0.54700917 0.7801899 0.34572923 0.5416643 -0.17530258 0.16560245 -0.8040903 0.6490803
-0.6164971 -0.26512688 -0.22299011 -0.42789537 -0.1630317 -0.00040996645 0.058642823 -0.39984673
0.6066729 0.6355083 -0.11673935 0.71948797 -0.21731645 0.14018306 0.3548597 -0.25085565
-0.7372619 -0.10344976 -0.696501 -0.16967507 0.77028203 -0.6603443 -0.7415133 -0.38100004
0.017272979 -0.20728791 -0.06977982 -0.14466198 -0.0035717008 -0.68859756 -0.33009785 -0.008059334
0.77154195 0.0571181 0.30542797 -0.7021194 0.19585504 0.3027148 -0.7096075 -0.77292764
0.2635044 0.47565335 -0.24737579 0.78231615 0.2875666 0.2333354 0.44491392 0.50540733
0.40844464 0.5499751 0.28609034 0.02788714 -0.6972896 0.7652325 -0.65833205 0.7964417
00000000: c7b9 2abf 7719 373e f6d5 643e aff9 3abf
00000010: 4ed7 09be b3d7 abbe 73ea 243f 7ecc 733e
00000020: 3846 57be 8273 42bf 8aaf 193f c040 093f
00000030: 90c4 27bf 0d2c 283f db67 ed3e f55c 01bf
00000040: 777f 63be c7f7 44bf 0afa 13bf 7b89 05bf
00000050: 92f0 3c3f 3eab a8bd 7b78 823e eca6 30bf
00000060: 2300 063f 7d4a 243f 39a1 20bf 10bc 14bf
00000070: 8187 373e 144a f13e a1ca 973e 9408 08bf
00000080: 6e61 193f eee8 ffbd 320f 433f aae8 ad3d
00000090: bcb9 783d 8c24 dfbe 7a6b 973e 3971 ecbe
000000a0: b5e2 45bf 6dbf 1bbf 1a81 9abe 33f7 48bf
000000b0: 89af afbe a204 a93c 954d 333d 4c1a 353f
000000c0: c391 163e c3f1 993d 8d81 1a3e 7ca5 003e
000000d0: 6b81 0d3f 2618 a43c 97b5 48bf ae4d c93e
000000e0: 3c59 943e cc23 2fbf 648b d63d 7b66 8fbd
000000f0: 7015 123e f44d bfbc 1e67 343f 58b4 4d3f
00000100: 0343 673e 0d55 193e 78aa 443d e025 55bc
00000110: 0798 1e3f 6e96 1d3f 63c5 163f c15e 493f
00000120: cc29 20bf 3ce4 1f3f fc1e 02bf aec0 a3bd
00000130: 5ed3 1cbf 7a7b 37bf 408f af3e 4c0c 47bf
00000140: b04e ee3e 5e61 28bf edf5 5abe c78d a7bd
00000150: 376b a8be 615a bc3e a6dc 623d b6dc 98be
00000160: b785 1e3f abea 4a3f 6933 a5bc 383d 4a3f
00000170: 953c bd3d 2af9 983e 4921 2c3e 6a8d 453f
00000180: ad76 393f 02de cebe 3939 ba3e d5d2 cb3e
00000190: 9dbc 573e a841 ccbe bb9d 0b3f 287a 1f3f
000001a0: add9 963e 6b20 33bf 4abb 053e 371a c8be
000001b0: c596 b3be 40ab 9d3e 7694 17bf d0e3 213e
000001c0: 2bc9 3cbf e7f3 d03e dfb3 4a3f 24ea 203e
000001d0: 6017 3fbf e4b3 17be 6cbe a6be f7a5 053f
000001e0: b2ef c93d 44e3 ce3e 110c 313e f087 c5be
000001f0: dc43 d43e b408 653e 5885 9c3d 2ac9 413f
00000200: 4c43 fbbe f370 013e 93eb 0cbf 7ad3 933e
00000210: 4be6 fbbe 4309 e0be f387 d5be 0a3c 583e
00000220: b7b1 6cbb b1f0 0fbf 1ee1 2b3f 2fdf b2be
00000230: 740e 903d f2ea 62be d3df 493f fc70 993e
00000240: 0add 79be 90fd 8abe 689a f93e 807a 4abf
00000250: dc29 183e 332c 3d3f 11d9 6c3e 7aac 2ebf
00000260: 8716 4abe a149 653e 6970 ce3e 8ef5 af3e
00000270: 7e3b 81be 1373 8c3e f7bb 1a3f 9f2a 993e
00000280: 9d68 33bf 8ad3 41bf 07ec a13e 2019 c5be
00000290: a9b6 d23d 24c0 1abf cc5a 603d 0fe2 2bbf
000002a0: 0cf5 413e 22ad e63b e2da e8bd d23d 2c3f
000002b0: 21fb 93be 3e41 b6be d946 28bf b317 1e3f
000002c0: 60fa 8bbe e5ad 1b3f 72dc ee3e 321b f2be
000002d0: 6263 ffba f7e4 073f b582 373e fc5b be3e
000002e0: 9ffe b83e 7935 313e 3c6d a23d 6911 433f
000002f0: d14d 4a3f cb1c 263f cbcc 6a3c 5bf6 40bf
00000300: cb08 0cbf 86ba 473f 6c03 b13e 83aa 0a3f
00000310: 8582 33be b093 293e ddd8 4dbf 202a 263f
00000320: c1d2 1dbf b6be 87be 8557 64be 1a15 dbbe
00000330: c8f1 26be c4f0 d6b9 7533 703d b6b8 ccbe
00000340: ea4e 1b3f acb0 223f 0a15 efbd 5d30 383f
00000350: 3488 5ebe 268c 0f3e 2cb0 b53e 2770 80be
00000360: 32bd 3cbf 78dd d3bd e44d 32bf 4dbf 2dbe
00000370: 3431 453f 530c 29bf d1d3 3dbf 7012 c3be
00000380: 1080 8d3c 4843 54be b9e8 8ebd 4522 14be
00000390: 3213 6abb ee47 30bf 9602 a9be 4c0b 04bc
000003a0: c683 453f abf4 693d 0e61 9c3e 19be 33bf
000003b0: 398e 483e 6ffd 9a3e d6a8 35bf 96de 45bf
000003c0: 0cea 863e d688 f33e 1450 7dbe df45 483f
000003d0: ee3b 933e 7aef 6e3e c2cb e33e 6062 013f
000003e0: a81f d13e 2bcb 0c3f 6f7a 923e 9273 e43c
000003f0: 9281 32bf 47e6 433f 7388 28bf 9ae3 4b3f

encoder.attention.queries.weight f4 [64, 8]
-0.33730438 -0.08577404 0.34559727 -0.64648384 0.5343834 -0.07995367 0.478445 0.7198101
0.6044858 0.66572297 0.25971714 0.12974776 0.573145 0.504132 0.5874776 0.5942194
0.05268985 0.6949297 -0.02504635 -0.21323153 -0.36178222 -0.38513148 -0.21924467 -0.32367998
-0.77158177 0.33050323 0.49592125 -0.15776147 -0.64602923 0.7666756 -0.024586178 -0.24071333
-0.2846424 -0.21810691 0.13003322 -0.3925945 0.7451539 -0.5221052 0.7405525 0.24503219
0.37303638 -0.49223024 -0.014556201 -0.72451025 0.67853254 -0.70646495 -0.48302388 -0.6745243
0.13756426 0.30384365 0.38070592 -0.6468186 0.34854457 0.592878 0.09899869 0.18512534
-0.3975408 0.39640394 0.045130067 -0.7078539 -0.7594653 -0.5723651 0.68091714 0.0033341662
-0.086435 0.6020783 -0.65356344 0.40406486 -0.15628608 0.5787345 0.7090794 -0.15505369
0.46167594 -0.1595742 0.1707909 -0.1167552 -0.5121467 0.78856784 -0.53139704 -0.74809986
-0.059811305 -0.4857189 -0.5022914 0.10411457 -0.48581225 0.30459726 0.35620573 -0.5064986
-0.14931607 0.56513 -0.75382143 -0.8097419 0.70310646 -0.43095046 0.4287037 0.2754061
-0.45747 -0.060747117 -0.36643174 0.687467 -0.26009563 0.26272222 -0.6555238 0.17189544
0.5059451 0.53599995 -0.0063569886 0.15255994 0.69311523 0.2117793 -0.093975015 0.7286624
-0.6592113 0.32108897 0.61066085 -0.45309687 -0.29531989 -0.6066658 0.5393642 -0.29300076
-0.4286602 -0.22891912 0.5615473 -0.4103202 0.7494027 -0.36105853 0.14612135 0.31966782
-0.5326121 -0.5338485 0.2544693 -0.3325712 0.5464502 -0.63485134 -0.63168705 -0.43975216
-0.76493514 0.7586261 -0.59665716 0.7374504 0.10188645 -0.5319176 -0.2923959 0.435397
-0.49674892 -0.7797944 0.18042864 0.47364542 -0.026918065 -0.16915405 -0.30588463 0.017463317
0.10207512 -0.76862836 0.50480616 0.2730209 -0.64751494 -0.010045386 0.36281165 -0.2555127
0.14919558 0.65986216 0.23602071 -0.72923607 0.7737773 -0.760794 0.26093966 -0.24983972
-0.7912571 -0.5250091 0.6227325 -0.6940053 -0.06417331 -0.56352425 0.48043275 -0.7874463
-0.64288956 -0.5289378 0.3737468 -0.30260947 0.6577374 0.010172094 0.20883138 0.5274602
0.6993816 0.6684703 0.7657575 -0.42852375 -0.21851936 -0.27238682 0.015471978 0.20721476
-0.70933735 -0.6456471 -0.19047506 0.5061217 0.33837238 0.102688596 0.34997103 -0.54119635
-0.74914014 -0.122555114 0.62035763 -0.31552386 -0.105718546 0.38498557 0.4417634 -0.467898
-0.66579556 0.6654077 0.1043414 0.3141888 0.032294262 -0.7557382 0.6985533 0.7285208
0.78226286 0.7733785 -0.6067595 -0.30602247 0.0034353135 0.017856494 0.74421173 -0.7276821
-0.44888964 0.7628307 0.41972625 0.33561835 0.3236495 -0.5406504 0.0014202896 0.0030448851
-0.3334748 -0.422614 -0.24680185 0.50554764 -0.6779192 -0.509689 -0.3455943 -0.50004065
-0.4335814 0.46844834 0.5593699 0.22737074 0.60916734 0.185975 -0.66964483 -0.20171958
-0.28921723 -0.24299851 -0.6992288 0.6914247 -0.45530626 -0.62085897 -0.33834386 -0.8036126
00000000: 29b3 acbe 4daa afbd 20f2 b03e f77f 25bf
00000010: 5acd 083f c0be a3bd bef6 f43e 7a45 383f
00000020: 95bf 1a3f d26c 2a3f a5f9 843e 99dc 043e
00000030: a1b9 123f cb0e 013f ef64 163f c31e 183f
00000040: 50d1 573d eae6 313f 012e cdbc 5e59 5abe
00000050: 853b b9be f42f c5be ad81 60be 62b9 a5be
00000060: 6286 45bf b837 a93e 64e9 fd3e 398c 21be
00000070: 2c62 25bf da44 443f f468 c9bc 8e7d 76be
00000080: a6bc 91be 6b57 5fbe 6e27 053e 2502 c9be
00000090: 68c2 3e3f b0a8 05bf d994 3d3f b8e9 7a3e
000000a0: a0fe be3e 9a05 fcbe 227d 6ebc 8179 39bf
000000b0: 4fb4 2d3f e3da 34bf e84e f7be a0ad 2cbf
000000c0: a5dd 0c3e 6591 9b3e e3eb c23e e795 25bf
000000d0: 6f74 b23e dac6 173f d3bf ca3d 7f91 3d3e
000000e0: 788a cbbe 75f5 ca3e 4eda 383d ea35 35bf
000000f0: 516c 42bf 8586 12bf 9650 2e3f 0782 5a3b
00000100: d504 b1bd ce21 1a3f ef4f 27bf 97e1 ce3e
00000110: 7509 20be f227 143f 3a86 353f 65c6 1ebe
00000120: ca60 ec3e 6b67 23be cfe3 2e3e 5a1d efbd
00000130: 0c1c 03bf 95df 493f a309 08bf 7983 3fbf
00000140: b3fc 74bd 26b0 f8be 2b96 00bf 053a d53d
00000150: 62bc f8be 2cf4 9b3e 9960 b63e e4a9 01bf
00000160: 50e6 18be 5cac 103f 71fa 40bf 3f4b 4fbf
00000170: c9fe 333f 8aa5 dcbe 0d7f db3e 0702 8d3e
00000180: 8239 eabe f8d1 78bd f19c bbbe d6fd 2f3f
00000190: 412b 85be 8783 863e 68d0 27bf 5c05 303e
000001a0: 9e85 013f 4b37 093f 494e d0bb ac38 1c3e
000001b0: 0070 313f acdc 583e f975 c0bd 9e89 3a3f
000001c0: 12c2 28bf c665 a43e 4554 1c3f 50fc e7be
000001d0: 2b34 97be 734e 1bbf c613 0a3f 3204 96be
000001e0: 5a79 dbbe c669 6abe 90c1 0f3f 7d15 d2be
000001f0: dbd8 3f3f aadc b8be d6a0 153e 80ab a33e
00000200: 4459 08bf 4caa 08bf cd49 823e c646 aabe
00000210: 29e4 0b3f 9e85 22bf 3eb6 21bf 3227 e1be
00000220: cad2 43bf 5235 423f 86be 18bf 8dc9 3c3f
00000230: d8a9 d03d c02b 08bf eab4 95be 5bec de3e
00000240: e055 febe 9ba0 47bf 49c2 383e a781 f23e
00000250: 4683 dcbc b836 2dbe e99c 9cbe 3b0f 8f3c
00000260: c30c d13d d4c4 44bf fa3a 013f 65c9 8b3e
00000270: 8ac3 25bf 6795 24bc 73c2 b93e 90d2 82be
00000280: bac6 183e baec 283f 6aaf 713e 37af 3abf
00000290: 4516 463f 65c3 42bf e299 853e fcd5 7fbe
000002a0: d38f 4abf ff66 06bf 666b 1f3f 55aa 31bf
000002b0: 4c6d 83bd 2043 10bf 48fb f53e 1596 49bf
000002c0: 6994 24bf 7868 07bf be5b bf3e a1ef 9abe
000002d0: 7a61 283f dba8 263c e5d7 553e a207 073f
000002e0: ac0a 333f df20 2b3f af08 443f 7767 dbbe
000002f0: 8ac3 5fbe 4976 8bbe 2e7e 7d3c 1b30 543e
00000300: 2297 35bf 2149 25bf e50b 43be 3191 013f
00000310: 253f ad3e 664e d23d 672f b33e d88b 0abf
00000320: a6c7 3fbf 2dfe fabd c2cf 1e3f 588c a1be
00000330: f782 d8bd d41c c53e d02e e23e 5490 efbe
00000340: 9471 2abf 2958 2a3f f2b0 d53d 5bdd a03e
00000350: fd46 043d 0f78 41bf 64d4 323f 5780 3a3f
00000360: 6142 483f 22fc 453f 9754 1bbf faae 9cbe
00000370: ff22 613b c847 923c a984 3e3f 6049 3abf
00000380: ddd4 e5be df48 433f 5ce6 d63e 2bd6 ab3e
00000390: 63b5 a53e 1168 0abf 0329 ba3a b28c 473b
000003a0: 36bd aabe dd60 d8be a0b9 7cbe 926b 013f
000003b0: 1d8c 2dbf fa7a 02bf bcf1 b0be aa02 00bf
000003c0: 62fe ddbe 76d8 ef3e de32 0f3f e0d3 683e
000003d0: 64f2 1b3f 3b70 3e3e d86d 2bbf 948f 4ebe
000003e0: 4814 94be 9ad4 78be a900 33bf 3601 313f
000003f0: e71d e9be 9df0 1ebf 683b adbe 8eb9 4dbf

encoder.attention.fc_out.weight f4 [8, 64]
-0.022146039 0.2558398 0.012075302 -0.12836005 0.20955354 0.10875395 0.25009546 -0.07974473
-0.12585805 -0.25021514 -0.27334562 -0.048471488 -0.11949001 0.14198107 -0.23050113 0.04584134
0.25983968 0.12127428 0.043422833 -0.14362933 0.0494225 -0.17015645 -0.21804437 0.24970439
0.11786435 0.28265613 -0.2367863 0.17126225 0.09576613 -0.037349317 0.259986 0.053663414
-0.26232705 -0.2522352 -0.13219745 0.064987764 0.02419772 -0.06382621 0.1135242 -0.09094699
-0.022414584 -0.112359725 0.22455114 -0.050537173 0.21111518 0.13840288 -0.21648806 -0.2539109
-0.19840162 -0.28750065 0.0008382856 -0.120200224 -0.14364314 -0.1847542 0.28280634 0.1866089
0.015683645 -0.073836304 -0.222856 0.05502631 -0.10092969 0.23817734 -0.1403058 0.11577988
-0.25974983 -0.10979312 0.12876411 0.23770785 0.25946057 -0.14116526 -0.106057644 -0.07790128
0.007709398 -0.20651941 0.11450926 0.053315002 0.116985194 0.09072967 -0.12600236 0.15067317
0.03677706 0.040850345 0.23057489 -0.20933235 -0.1428012 0.030445116 0.056872673 -0.2651424
-0.15661445 0.20489283 -0.19053173 0.14458765 0.18749379 -0.09669657 -0.007327089 0.11664435
0.12882037 -0.28676462 0.20228153 0.068178855 -0.08755939 -0.18689594 0.27564442 0.22277257
0.14723895 -0.1995654 0.05794549 0.26625827 0.023330575 0.01763534 -0.24503812 0.072115384
0.10849857 0.04860548 0.1769486 -0.02270788 0.14850551 -0.02657789 0.08882212 0.13016127
0.11229558 0.103428625 -0.021863304 -0.09377711 0.2613076 0.053295497 -0.21184589 -0.13299035
-0.11395 0.0077710976 -0.2438692 -0.26075932 0.11606633 0.17897792 -0.1606305 -0.23656633
0.16063443 -0.13632107 -0.13772073 0.19639674 0.1777425 0.081113406 -0.16304627 0.10085819
0.07042264 0.06787944 -0.21685477 0.093748614 -0.075982116 0.18225832 -0.039762337 0.056640737
0.1478153 0.26224396 0.04337396 0.083069295 -0.12053244 -0.009109035 0.2109483 -0.28615087
-0.18197533 -0.16648881 -0.23736283 0.24039523 -0.04013433 0.11024921 0.13962653 0.20628509
-0.24515751 0.26549342 0.16102496 -0.1806534 0.1526656 -0.21315008 -0.049399327 0.17691204
-0.19709535 -0.25961626 0.117529295 -0.0029296556 -0.19459043 0.1437127 0.107922316 -0.073742636
-0.27357587 -0.067898765 -0.024608381 0.19982058 -0.076641895 0.097536445 0.2714842 -0.12319198
-0.04692395 -0.24616177 -0.24163464 -0.035766166 -0.006480658 -0.065136276 0.11157682 -0.03432824
0.25926533 -0.092753045 0.16033475 -0.25806165 -0.09941587 -0.04629378 -0.01680111 0.2007669
-0.11381522 0.24387224 0.032346178 0.20132354 -0.05250534 0.18797462 0.061527025 -0.2379292
-0.071950115 0.20481394 0.16771044 0.22052023 -0.22784416 0.12282366 0.28551412 -0.20783666
0.21307997 -0.2484452 0.0017569003 0.19392005 -0.07680642 0.23124896 0.25933143 -0.03020277
0.063290484 0.10953792 0.1416818 -0.20684664 0.15328713 0.23482828 -0.22869733 0.08651817
-0.004722006 -0.17005268 -0.1318044 0.1192406 0.0927273 0.026007643 0.10171691 0.23879269
0.068800904 0.2808148 0.110793784 -0.13274865 -0.1336635 0.14519969 -0.11037223 -0.11362025
00000000: 9c6b b5bc 6ffd 823e 7dd7 453c d170 03be
00000010: 3495 563e 64ba de3d 830c 803e 3451 a3bd
00000020: efe0 00be 331c 80be f5f3 8bbe 0a8a 46bd
00000030: 2eb7 f4bd 7c63 113e 7d08 6cbe 21c4 3b3d
00000040: b509 853e a65e f83d 24dc 313d 9113 13be
00000050: 3f6f 4a3d 7e3d 2ebe 0647 5fbe 82b2 7f3e
00000060: dd62 f13d 4eb8 903e 1c78 72be 5f5f 2f3e
00000070: 0821 c43d 99fb 18bd e31c 853e 2bce 5b3d
00000080: bb4f 86be f924 81be c55e 07be 4e18 853d
00000090: 4c3a c63c 51b7 82bd 607f e83d 6a42 babd
000000a0: ca9e b7bc db1c e6bd bcf0 653e 1100 4fbd
000000b0: 942e 583e 7cb9 0d3e 0caf 5dbe 9c00 82be
000000c0: cb29 4bbe 4933 93be 65c0 5b3a 892b f6bd
000000d0: 3017 13be 3430 3dbe fecb 903e 6716 3f3e
000000e0: fd7a 803c 7d37 97bd 5d34 64be 4563 613d
000000f0: 3ab4 cebd c3e4 733e 53ac 0fbe 001e ed3d
00000100: eefd 84be 37db e0bd bdda 033e b069 733e
00000110: 04d8 843e a08d 10be c034 d9bd b58a 9fbd
00000120: 1e9f fc3b d379 53be d583 ea3d d560 5a3d
00000130: ef95 ef3d 7ad0 b93d c306 01be 114a 1a3e
00000140: 8ba3 163d b152 273d d31b 6c3e 385b 56be
00000150: 7a3a 12be 0968 f93c 52f3 683d bfc0 87be
00000160: 8a5f 20be 6dcf 513e c01a 43be c90e 143e
00000170: 5ffe 3f3e da08 c6bd 1418 f0bb 3ce3 ee3d
00000180: 7de9 033e d0d2 92be e422 4f3e 5ba1 8b3d
00000190: 5652 b3bd a661 3fbe 4421 8d3e 7e1e 643e
000001a0: cfc5 163e df5a 4cbe 4058 6d3d 0153 883e
000001b0: c31f bf3c fd77 903c 46eb 7abe 3bb1 933d
000001c0: 8034 de3d 8a16 473d 0432 353e e005 babc
000001d0: d411 183e e0b9 d9bc 5fe8 b53d ff48 053e
000001e0: 3afb e53d 63d2 d33d ac1a b3bc 370e c0bd
000001f0: 1cca 853e 614c 5a3d 21ee 58be 9f2e 08be
00000200: 9e5e e9bd b1a4 fe3b d9b8 79be 3f82 85be
00000210: 2fb4 ed3d fd45 373e 527c 24be 723e 72be
00000220: 5a7d 243e c097 0bbe aa06 0dbe 3a1c 493e
00000230: 2102 363e c91e a63d 9af5 26be bd8e ce3d
00000240: bf39 903d 6004 8b3d 2d0f 5ebe 46ff bf3d
00000250: 839c 9bbd eda1 3a3e d5dd 22bd 1e00 683d
00000260: e55c 173e d744 863e e5a8 313d 3c20 aa3d
00000270: b6d9 f6bd 103e 15bc d502 583e 5e82 92be
00000280: be57 3abe 0b7c 2abe 3e0f 73be 2b2a 763e
00000290: e563 24bd 56ca e13d 42fa 0e3e 663c 533e
000002a0: 920a 7bbe c1ee 873e bae3 243e 34fd 38be
000002b0: 5f54 1c3e 0444 5abe f356 4abd 6e28 353e
000002c0: 5dd3 49be 6cec 84be 33b3 f03d 77ff 3fbb
000002d0: b742 47be 6c29 133e 6006 dd3d 6106 97bd
000002e0: 2312 8cbe 820e 8bbd 8497 c9bc c49d 4c3e
000002f0: 6df6 9cbd 30c1 c73d faff 8a3e 144c fcbd
00000300: 5433 40bd d511 7cbe 126f 77be 8b7f 12bd
00000310: b35b d4bb 2b66 85bd 6382 e43d c59b 0cbd
00000320: 6dbe 843e 4ff5 bdbd cb2e 243e a820 84be
00000330: 8c9a cbbd 8c9e 3dbd 7ba2 89bc d795 4d3e
00000340: f417 e9bd a5b9 793e 6d7d 043d c227 4e3e
00000350: d70f 57bd 6b7c 403e c303 7c3d b6a3 73be
00000360: 955a 93bd bfba 513e 49bc 2b3e 0ed0 613e
00000370: fb4f 69be f98a fb3d e82e 923e 22d3 54be
00000380: a331 5a3e 6b68 7ebe cb47 e63a fa92 463e
00000390: af4c 9dbd 87cc 6c3e 17c7 843e cd6b f7bc
000003a0: 719e 813d 6b55 e03d 0915 113e 9bcf 53be
000003b0: 4df7 1c3e d376 703e a22f 6abe 7030 b13d
000003c0: 0fbb 9abb 4a22 2ebe bcf7 06be 6a34 f43d
000003d0: d0e7 bd3d fb0d d53c f550 d03d 1286 743e
000003e0: 7de7 8c3d f5c6 8f3e dae7 e23d 43ef 07be
000003f0: 16df 08be 3aaf 143e d60a e2bd bcb1 e8bd

encoder.attention.fc_out.bias f4 [8]
0.04150344 0.026927758 -0.043914054 0.07715298 0.0917992 0.11692415 -0.011839924 0.018551711
00000000: 83ff 293d 9a97 dc3c 39df 33bd 6202 9e3d
00000010: 3801 bc3d ee75 ef3d 3efc 41bc c2f9 973c

encoder.norm.weight f4 [8]
0.94168705 0.94168705 0.94168705 0.94168705 0.94168705 0.94168705 0.94168705 0.94168705
00000000: 6712 713f 6712 713f 6712 713f 6712 713f
00000010: 6712 713f 6712 713f 6712 713f 6712 713f

encoder.norm.bias f4 [8]
0.0 0.0 0.0 0.0 0.0 0.0 0.0 0.0
00000000: 0000 0000 0000 0000 0000 0000 0000 0000
00000010: 0000 0000 0000 0000 0000 0000 0000 0000

encoder.feed_forward.0.weight f4 [128, 8]
0.76779693 -0.07275494 -0.28380698 -0.813987 0.20045276 0.23777397 -0.46333897 0.04456472
0.7781427 -0.2136335 0.7719834 0.110156015 0.34320545 -0.14030825 0.77398205 0.19418117
0.38756374 0.41056976 -0.73128724 0.7322931 0.30151758 -0.08686986 -0.35673556 0.29229096
0.42910588 -0.39056742 -0.7385611 0.0181244 0.78551126 0.41093373 -0.21980785 0.18403581
0.2357297 -0.52455354 0.73887163 0.24863942 0.2913401 0.79197454 0.33928278 0.40433902
-0.5056019 -0.016290078 -0.46482673 0.35681385 0.2309454 -0.7056394 -0.43091607 0.733173
0.09973435 0.49742165 0.05812553 -0.3419903 -0.52646476 0.7464083 0.09517207 0.46027687
-0.4676047 -0.345266 0.3213559 0.41207954 0.5554546 0.7817266 0.22336482 0.23864542
-0.15064035 0.6368452 0.5339058 0.43302312 0.6782487 -0.71132857 -0.08578859 0.545518
-0.4865469 0.47280344 0.16795819 -0.58998114 0.36524814 0.6512331 -0.082969986 -0.5589418
0.48413086 -0.73830074 0.6449462 0.09854898 -0.42622894 0.580911 -0.48405492 -0.42000306
0.45473152 -0.76716244 0.67935777 -0.23313656 -0.5943524 0.13656422 0.41094455 0.74734265
0.48337412 -0.4649797 0.68434286 0.8085157 -0.17020106 0.77868104 -0.4772744 -0.23588325
-0.03854119 0.123078786 0.7508712 0.6636431 -0.40557912 0.33282477 -0.6882777 -0.4448831
0.3716078 -0.026950445 0.10833189 0.31869423 -0.48337987 -0.7333996 0.43710595 -0.008427888
0.71582556 0.24169622 -0.6469399 0.32577437 0.021104332 -0.7902362 -0.7679653 -0.49638748
0.5879946 -0.35320055 -0.44652972 0.09462418 -0.20240045 -0.2334129 0.6027424 0.49502808
-0.24857508 0.4444472 -0.3204567 -0.33807525 -0.37462604 -0.14245963 -0.21137393 -0.50756085
0.13567746 0.65080094 0.57333064 0.1705558 -0.37030888 0.19019364 0.27643856 -0.02742795
-0.49802765 0.29782423 0.6586716 0.4584582 0.6182594 0.28935823 -0.5843075 -0.3145084
0.23076375 0.0061643957 0.36220443 0.1255498 -0.22849266 0.45790747 0.553183 0.65901047
-0.79385096 -0.18978167 -0.6264149 -0.34424305 -0.37544447 0.6646863 0.46742582 -0.070983425
0.048363432 0.19946752 -0.01542273 0.041551854 -0.110194 0.16477242 0.124145366 0.6165735
-0.1102485 -0.11300544 -0.3933545 0.7109734 -0.3463926 -0.48870608 0.06662866 -0.13496509
0.55390364 0.4733944 0.62594765 0.31269586 0.7645547 0.7079072 0.7427436 0.38520944
-0.21716696 -0.15976925 0.6042735 -0.41826764 -0.15558086 -0.026922945 -0.14426683 0.2660023
-0.06901816 0.58811575 -0.44206718 0.019105565 0.68691033 0.22008575 0.15889576 0.28409442
-0.13040157 0.08031186 0.43756396 -0.16471606 -0.16161044 -0.4494342 -0.022813683 0.4896811
-0.17539121 0.46741134 0.4490685 -0.6559651 -0.43475577 -0.09634639 0.6750476 0.47329667
-0.08943709 -0.07994651 -0.0685284 0.30808198 0.599038 -0.22334169 0.45838252 -0.3488011
0.15138742 -0.2999436 0.19601727 -0.41764674 0.27367374 -0.40328944 0.58807933 -0.72662157
-0.75498736 0.40972403 0.14960788 0.556702 0.55454874 0.48057255 -0.30322284 0.43750095
00000000: 578e 443f 8b00 95bd 264f 91be 7461 50bf
00000010: 7d43 4d3e 057b 733e c43a edbe 7f89 363d
00000020: 5c34 473f bdc2 5abe b4a0 453f 7a99 e13d
00000030: a0b8 af3e f7ac 0fbe b023 463f 6ed7 463e
00000040: c16e c63e 3336 d23e a435 3bbf 9077 3b3f
00000050: 8360 9a3e d3e8 b1bd 0ba6 b6be 29a7 953e
00000060: c4b3 db3e 74f8 c7be 5712 3dbf 9f79 943c
00000070: 4417 493f e865 d23e 4f15 61be e273 3c3e
00000080: 2063 713e 2449 06bf b126 3d3f 559b 7e3e
00000090: 882a 953e d8be 4a3f 79b6 ad3e 8605 cf3e
000000a0: 206f 01bf c572 85bc c5fd edbe 4eb0 b63e
000000b0: f37c 6c3e c9a4 34bf 08a1 dcbe 3ab1 3b3f
000000c0: 8641 cc3d 0dae fe3e 0915 6e3d 5a19 afbe
000000d0: 65c6 06bf 9d14 3f3f 93e9 c23d 69a9 eb3e
000000e0: e269 efbe b5c6 b0be c388 a43e 17fc d23e
000000f0: 4632 0e3f 3c1f 483f bfb9 643e 775f 743e
00000100: 7741 1abe 4908 233f 0dae 083f 35b5 dd3e
00000110: b5a1 2d3f a119 36bf eeb1 afbd 11a7 0b3f
00000120: ad1c f9be 4b13 f23e 3bfd 2b3e 0109 17bf
00000130: ce01 bb3e 36b7 263f 2bec a9bd cf16 0fbf
00000140: 00e0 f73e 4701 3dbf 321b 253f 0cd4 c93d
00000150: ae3a dabe 95b6 143f 0cd6 f7be a40a d7be
00000160: 92d2 e83e c264 44bf 64ea 2d3f 5abb 6ebe
00000170: 7b27 18bf 7ed7 0b3e 5367 d23e d951 3f3f
00000180: d07c f73e d211 eebe 1831 2f3f e3fa 4e3f
00000190: 3049 2ebe a457 473f 4f5d f4be 618b 71be
000001a0: 5edd 1dbd bb10 fc3d 1839 403f 84e4 293f
000001b0: 11a8 cfbe 0268 aa3e f832 30bf b8c7 e3be
000001c0: 6143 be3e 2ec7 dcbc 1cdd dd3d e42b a33e
000001d0: 917d f7be 14c0 3bbf 5acc df3e 2015 0abc
000001e0: 5840 373f 377f 773e da9d 25bf e6cb a63e
000001f0: fee2 ac3c eb4c 4abf 6099 44bf 8026 febe
00000200: d086 163f b4d6 b4be 8b9f e4be 52ca c13d
00000210: 1042 4fbe cb03 6fbe 534d 1a3f 5274 fd3e
00000220: 778a 7ebe 958e e33e e712 a4be 3318 adbe
00000230: fcce bfbe f0e0 11be 6872 58be 82ef 01bf
00000240: 08ef 0a3e e49a 263f ccc5 123f 2ea6 2e3e
00000250: 2099 bdbe 1fc2 423e 5b89 8d3e 95b0 e0bc
00000260: 7bfd febe 6b7c 983e b49e 283f 08bb ea3e
00000270: 3f46 1e3f c326 943e 2d95 15bf 3f07 a1be
00000280: 554d 6c3e b3fe c93b dc72 b93e 2090 003e
00000290: fbf9 69be d972 ea3e 679d 0d3f e9b4 283f
000002a0: d139 4bbf 2056 42be ba5c 20bf a040 b0be
000002b0: 423a c0be e228 2a3f 7052 ef3e c25f 91bd
000002c0: bc18 463d 3741 4c3e 9eaf 7cbc 4732 2a3d
000002d0: 64ad e1bd 1aba 283e ed3f fe3d c3d7 1d3f
000002e0: f7c9 e1bd 656f e7bd c365 c9be 5a02 363f
000002f0: 5f5a b1be af37 fabe 9b74 883d 4a34 0abe
00000300: a1cc 0d3f c060 f23e 1b3e 203f ac19 a03e
00000310: dbb9 433f 6839 353f 7224 3e3f 2c3a c53e
00000320: 0461 5ebe 8d9a 23be abb1 1a3f 2d27 d6be
00000330: 9750 1fbe 828d dcbc afba 13be 7431 883e
00000340: 6559 8dbd c18e 163f a156 e2be 4683 9c3c
00000350: 5bd9 2f3f 295e 613e 92b5 223e d374 913e
00000360: fd87 05be 8b7a a43d 6208 e03e 54ab 28be
00000370: 357d 25be 3d1c e6be c3e3 babc 7bb7 fa3e
00000380: c199 33be 8a50 ef3e 4eec e53e 54ed 27bf
00000390: 4f98 debe 4251 c5bd ebcf 2c3f f153 f23e
000003a0: cb2a b7bd ffba a3bd 9e58 8cbd ecbc 9d3e
000003b0: 8e5a 193f afb3 64be 1db1 ea3e 0f96 b2be
000003c0: 4e05 1b3e 3592 99be c0b8 483e cbd5 d5be
000003d0: f71e 8c3e f47b cebe 5e8c 163f df03 3abf
000003e0: da46 41bf 59c7 d13e cf32 193e 0684 0e3f
000003f0: e8f6 0d3f 9b0d f63e 0640 9bbe 2000 e03e

encoder.feed_forward.0.bias f4 [128]
0.18032902 0.0002960525 0.2561746 0.047473416 0.17427239 0.043557078 0.31791583 -0.03138167
0.14051938 0.31713313 -0.32304013 0.24934503 0.29127157 -0.016356684 -0.022503356 0.08497889
-0.25668058 -0.004697873 0.024199178 0.2749117 -0.17404945 0.20313717 0.27361196 -0.066997044
0.31448695 -0.009080559 0.32237127 -0.19528292 0.10077711 -0.07967729 0.29203013 0.2438551
-0.32711193 0.33163282 -0.014598778 -0.023494383 -0.20993172 -0.009529053 -0.092232704 0.22263217
0.0048573585 -0.26108035 -0.1840377 0.24216881 -0.119102344 -0.3228342 0.24798308 0.16773884
0.25507003 0.1882983 0.09111333 0.17911422 0.14297555 -0.04074519 -0.09735512 -0.16931184
-0.19781691 0.17105094 -0.06553446 -0.22906643 -0.075181074 -0.02827937 0.21158408 -0.05477162
0.24256709 -0.302279 -0.19127293 0.24928772 -0.060470905 -0.08921879 0.19478436 -0.014165623
-0.0851618 0.27708498 0.22110179 -0.017785022 -0.11267782 0.027422844 -0.20329656 -0.30367705
0.158689 -0.24142538 0.3196982 0.08083264 0.27431267 -0.1954981 0.06906335 -0.17482936
-0.28337225 0.2108786 -0.324885 -0.30543768 0.11571479 0.3027147 -0.12416993 0.07546203
0.31222323 -0.14511298 0.26904684 0.06806402 -0.14784315 0.25389513 -0.13150507 -0.09093986
-0.21575652 0.1308495 0.22765578 0.21954578 0.0845741 0.070682295 -0.10090768 0.19426554
-0.17888114 -0.16940558 0.19921596 0.0868502 -0.1861432 0.02635491 -0.23963164 -0.1537419
-0.2834264 -0.21898614 -0.29362103 0.1079646 0.26877812 0.14238141 -0.22472596 -0.18271971
00000000: 2ca8 383e 7e37 9b39 5129 833e 7c73 423d
00000010: 7674 323e e868 323d ddc5 a23e 118a 00bd
00000020: 50e4 0f3e 465f a23e 8465 a5be 4e54 7f3e
00000030: 8c21 953e 74fe 85bc f558 b8bc 6a09 ae3d
00000040: a36b 83be 9df0 99bb 5b3d c63c 3ac1 8c3e
00000050: 053a 32be 3103 503e de16 8c3e bf35 89bd
00000060: 6f04 a13e a0c6 14bc d90d a53e 3ff8 47be
00000070: 3b64 ce3d d92d a3bd f984 953e 27b5 793e
00000080: 377b a7be c7cb a93e b72f 6fbc 4b77 c0bc
00000090: 57f8 56be bf1f 1cbc 80e4 bcbd b0f9 633e
000000a0: 7a2a 9f3b 53ac 85be 6174 3cbe 1afb 773e
000000b0: eeeb f3bd 864a a5be 47ef 7d3e bbc3 2b3e
000000c0: 8a98 823e 45d1 403e a099 ba3d b869 373e
000000d0: 2f68 123e 6ee4 26bd 1f62 c7bd 1560 2dbe
000000e0: 8490 4abe fa27 2f3e ee36 86bd 6490 6abe
000000f0: 89f8 99bd 23aa e7bc 7fa9 583e 3558 60bd
00000100: 8263 783e 50c4 9abe 0ddd 43be 4845 7f3e
00000110: 57b0 77bd 57b8 b6bd 8d75 473e ee16 68bc
00000120: 4f69 aebd 15de 8d3e 8268 623e e5b1 91bc
00000130: a1c3 e6bd dfa5 e03c f92c 50be 8f7b 9bbe
00000140: 5f7f 223e 3738 77be 7caf a33e 958b a53d
00000150: b672 8c3e a730 48be 1671 8d3d 7806 33be
00000160: 2b16 91be 8ff0 573e 5457 a6be 5462 9cbe
00000170: e0fb ec3d 6cfd 9a3e ce4c febd d68b 9a3d
00000180: b9db 9f3e 7f98 14be 82c0 893e 2665 8b3d
00000190: 3264 17be 8bfe 813e 44a9 06be ad3e babd
000001a0: 47ef 5cbe 69fd 053e 991e 693e 9cd0 603e
000001b0: 3035 ad3d e1c1 903d b0a8 cebd 8ced 463e
000001c0: 9e2c 37be a878 2dbe 45ff 4b3e 85de b13d
000001d0: 539c 3ebe 41e6 d73c ff61 75be 846e 1dbe
000001e0: 441d 91be e73d 60be 7f55 96be 8b1c dd3d
000001f0: 499d 893e 6fcc 113e 901e 66be e01a 3bbe

encoder.feed_forward.2.weight f4 [8, 128]
-0.11424101 0.027333098 -0.17666304 -0.19631523 -0.093905315 -0.14562155 -0.16836588 0.08803652
-0.08061659 0.018305996 0.19626415 0.19368747 0.14851871 -0.05948938 -0.011217913 -0.06705634
0.15607736 -0.14721876 -0.082383275 0.07536813 -0.090961516 -0.14493196 0.12429503 -0.058163032
-0.11221889 0.009654359 0.028020628 -0.11585649 -0.18996732 -0.11083163 0.14453049 -0.08041651
0.008080597 -0.014912347 0.045056537 -0.08198899 -0.106809966 0.0029529051 -0.06868148 -0.10924159
-0.046753466 -0.20176491 0.026402283 -0.057348426 0.09612548 0.18941487 -0.19505298 -0.11272171
-0.01016452 0.062209714 0.18643017 -0.15250078 -0.16081516 0.20339721 -0.08934903 -0.12019363
-0.088714264 0.12097881 -0.13984816 0.19339345 0.12907383 -0.20120637 0.19059646 -0.041201685
0.1561206 0.012540885 0.14992298 -0.13637468 -0.016929507 -0.12819353 -0.073722295 0.1567551
0.19728717 -0.09111895 -0.1046488 0.0144617995 -0.121391766 0.19023867 -0.031150976 -0.0030395207
0.1175108 -0.025213294 0.08520693 -0.043301035 -0.04965827 -0.06344 -0.077396534 -0.1881367
-0.063326076 0.09783551 -0.042806752 -0.021319076 0.06629492 0.074855216 -0.14610298 -0.026943034
-0.11106155 -0.122392796 0.067985915 0.05693382 -0.041178763 0.16972044 -0.18297148 -0.2035631
0.0435301 0.14722826 0.18392487 0.05199858 0.14373904 0.039861012 0.15564865 0.10347998
-0.09200095 -0.13093148 0.097117245 0.18242447 -0.15598628 -0.15688531 0.048542395 0.11126838
0.19842328 -0.036906105 -0.16465911 0.035561364 -0.17257203 0.018246364 -0.068161204 -0.15078051
0.06466064 0.15663432 -0.0034843457 0.008456666 -0.19681476 0.1402202 0.0740754 -0.018205909
-0.1288025 0.16991618 -0.080948174 0.13518763 0.13916837 0.17600074 -0.09364605 0.021040361
-0.13417682 0.09201705 0.16032708 -0.09855433 0.11547635 0.18469028 0.18945386 -0.02554588
0.0776093 -0.019799378 -0.09437879 -0.16735946 -0.007773306 0.011730225 0.07320257 0.13303323
-0.027866276 -0.188499 0.1622269 0.101963334 -0.14762928 -0.058840405 -0.1370246 -0.19691549
0.1479121 -0.1663507 -0.005789525 0.15569222 -0.13808692 0.14748138 -0.0039212806 0.116376825
-0.10265913 -0.1385141 0.09750209 -0.18631366 0.19172026 -0.017715903 -0.12749955 -0.08477573
0.13341023 -0.10639507 -0.0122332955 0.11010225 -0.03311999 -0.1470753 -0.08242049 0.060248625
0.0280042 -0.17817852 0.03140423 -0.17880587 -0.08802588 -0.1795382 0.111986406 -0.15791687
0.049231984 0.15981285 0.17814706 -0.18421595 0.016409045 0.037399106 0.14537513 -0.09339473
0.16523184 0.15689543 -0.0081321765 0.12318589 -0.084940895 0.04260322 0.12458792 -0.012140514
-0.19909109 -0.18898775 0.17448705 0.04512774 0.10935635 -0.15406679 -0.07122414 -0.17056395
-0.15881558 0.16875045 -0.06419696 0.16365771 -0.0026394888 0.061934702 -0.19803649 -0.111558355
-0.16833572 0.09978244 0.19944766 0.1798572 -0.1188978 -0.051085565 0.006335229 0.1712525
-0.18402432 -0.05683677 0.091103405 0.19221167 0.113618344 -0.13795123 -0.12610361 0.029867632
0.13375314 0.019489132 -0.11195478 -0.021517852 0.08883199 -0.1862239 -0.19622588 -0.0068753613
00000000: 31f7 e9bd a9e9 df3c 28e7 34be dc06 49be
00000010: 6e51 c0bd d11d 15be 1b68 2cbe 7e4c b43d
00000020: 501a a5bd 75f6 953c 78f9 483e 0256 463e
00000030: 4a15 183e 23ab 73bd 56cb 37bc d654 89bd
00000040: bed2 1f3e 84c0 16be 90b8 a8bd 9b5a 9a3d
00000050: 084a babd 0b69 14be 658e fe3d 5c3c 6ebd
00000060: 04d3 e5bd 512d 1e3c 848b e53c 2b46 edbd
00000070: cb86 42be b2fb e2bd cdff 133e 69b1 a4bd
00000080: 7b64 043c eb52 74bc 348d 383d d8e9 a7bd
00000090: 2fbf dabd 8785 413b e0a8 8cbd 0eba dfbd
000000a0: 9080 3fbd 769b 4ebe 9a49 d83c 2fe6 6abd
000000b0: 70dd c43d f9f5 413e f8bb 47be a4da e6bd
000000c0: 1689 26bc 9dcf 7e3d 8de7 3e3e 2a29 1cbe
000000d0: bbac 24be 5c47 503e a0fc b6bd 1428 f6bd
000000e0: d3af b5bd bdc3 f73d 5b34 0fbe ef08 463e
000000f0: ee2b 043e 0b09 4ebe b82b 433e 19c3 28bd
00000100: 14de 1f3e 4978 4d3c 6985 193e cea5 0bbe
00000110: c0af 8abc 2a45 03be b7fb 96bd 6984 203e
00000120: a605 4a3e 929c babd 1c52 d6bd 2ff1 6c3c
00000130: 3f9c f8bd edcd 423e 5530 ffbc b232 47bb
00000140: 81a9 f03d 1c8c cebc f980 ae3d 6d5c 31bd
00000150: 7866 4bbd d5ec 81bd 1382 9ebd e8a6 40be
00000160: 1ab1 81bd fc5d c83d 2256 2fbd 58a5 aebc
00000170: a2c5 873d b14d 993d 059c 15be a3b7 dcbc
00000180: 3d74 e3bd 13a9 fabd 333c 8b3d 7033 693d
00000190: 10ab 28bd 32cb 2d3e e05c 3bbe d872 50be
000001a0: 9e4c 323d 01c3 163e cd56 3c3e 77fc 543d
000001b0: 5430 133e 4d45 233d 5c62 1f3e 50ed d33d
000001c0: fe6a bcbd e712 06be 68e5 c63d 7bcd 3a3e
000001d0: deba 1fbe 8ba6 20be 64d4 463d ade0 e33d
000001e0: 792f 4b3e db2a 17bd 669c 28be cba8 113d
000001f0: b9b6 30be 6679 953c 1a98 8bbd 3566 1abe
00000200: cc6c 843d bf64 203e 9f59 64bb d48d 0a3c
00000210: cf89 49be e295 0f3e d8b4 973d 8f24 95bc
00000220: cde4 03be 82fe 2d3e 28c8 a5bd a06e 0a3e
00000230: 2782 0e3e 8a39 343e 80c9 bfbd d65c ac3c
00000240: a665 09be 6f73 bc3d c82c 243e dad6 c9bd
00000250: dd7e ec3d 731f 3d3e 3100 423e 9845 d1bc
00000260: a0f1 9e3d 4e32 a2bc ab49 c1bd 4760 2bbe
00000270: 38b7 febb 2130 403c 3beb 953d dd39 083e
00000280: d147 e4bc e205 41be cf1e 263e 27d2 d03d
00000290: 212c 17be a302 71bd 2d50 0cbe 37a4 49be
000002a0: 4576 173e d757 2abe 0eb6 bdbb c86d 1f3e
000002b0: a866 0dbe 5c05 173e 167e 80bb f956 ee3d
000002c0: f33e d2bd a4d6 0dbe 2daf c73d 02c9 3ebe
000002d0: 5152 443e f120 91bc 3e8f 02be e69e adbd
000002e0: b19c 083e a9e5 d9bd 296e 48bc 4a7d e13d
000002f0: d4a8 07bd e89a 16be 13cc a8bd 43c7 763d
00000300: 1069 e53c 6e74 36be b9a1 003d e318 37be
00000310: ea46 b4bd ddd8 37be 2159 e53d f6b4 21be
00000320: 7aa7 493d fba5 233e 2f6c 363e 1ba3 3cbe
00000330: 436c 863c ce2f 193d 38dd 143e bc45 bfbd
00000340: 8932 293e 32a9 203e d23c 05bc e248 fc3d
00000350: 7ef5 adbd b780 2e3d f427 ff3d 02e9 46bc
00000360: 89de 4bbe 0186 41be bcac 323e ddd7 383d
00000370: 39f6 df3d afc3 1dbe f6dd 91bd 51a8 2ebe
00000380: 8da0 22be ebcc 2c3e b279 83bd e395 273e
00000390: 46fb 2cbb 3eaf 7d3d 14ca 4abe b578 e4bd
000003a0: 3360 2cbe bc5a cc3d 023c 4c3e 7c2c 383e
000003b0: b180 f3bd 193f 51bd c197 cf3b d15c 2f3e
000003c0: df70 3cbe accd 68bd 6c94 ba3d 23d3 443e
000003d0: bcb0 e83d 1643 0dbe 4e21 01be f7ac f43c
000003e0: 95f6 083e aca7 9f3c 8c48 e5bd 3546 b0bc
000003f0: 8ced b53d 7ab1 3ebe 70ef 48be b64a e1bb

encoder.feed_forward.2.bias f4 [8]
-0.011530135 0.051786147 0.04927281 -0.005338689 -0.07722873 0.05180386 -0.015556304 0.02675123
00000000: e4e8 3cbc b61d 543d 49d2 493d 2bf0 aebb
00000010: 192a 9ebd 4930 543d dedf 7ebc 6525 db3c

decoder.attention.values.weight f4 [64, 8]
0.11937879 -0.43236816 -0.34340987 0.42643198 0.16112284 0.2760413 -0.5567876 0.22184464
-0.15120278 -0.11392892 0.1903987 0.881374 0.34335902 0.6918029 0.06670654 0.72500736
-1.0281613 -0.6466363 0.62456626 -0.5521651 0.6989089 -0.0141163375 -0.021778788 0.45625696
-0.28707257 0.29326284 0.5709081 -0.36135867 0.06687469 0.4235325 -0.56672454 -0.36808398
-0.8970085 0.60018045 0.48819178 0.10645381 0.31815103 0.62645584 -0.6042255 0.13775985
0.20976669 0.6955506 -0.40125927 -0.1754357 -0.29720014 0.45305306 -0.17653811 0.2949256
-0.36966792 -0.14349362 0.6276345 0.07934066 0.37254968 -0.24110425 -0.17963436 0.22090524
-0.62249017 -0.6930973 -0.30128133 0.81234497 0.24318272 -0.37971026 -0.44057864 -0.15552023
0.19826125 0.68490666 0.23160389 0.65733635 -0.44601783 0.45441857 -0.020145822 -0.21193518
0.12930076 0.5970497 0.26203036 -0.8398263 0.13244966 0.34378994 -0.006364922 0.68939245
0.020559262 0.13334668 0.28903773 -0.5710092 0.40151936 -0.40925217 0.21931636 0.6040804
0.55379754 -0.35017702 -0.25617898 -0.5624971 0.28740227 -0.55629677 0.6278888 -0.054574836
-0.79558766 -0.5548175 -0.29732397 0.31888583 -0.12531708 0.5279262 0.637849 0.029634781
0.23095626 -0.1266087 0.2670201 -0.31828946 0.20855564 0.34774023 0.15078248 0.6333547
0.034163915 -0.02958585 0.61210185 -0.35559365 -0.24187253 -0.044083104 0.026778022 -0.15666625
-0.43825427 -0.31468213 0.3569528 -0.34999725 0.6447644 -0.57418865 0.55857253 -0.24854736
-0.6937213 0.050730523 -0.15608028 0.60209423 0.6190612 0.01793303 -0.5605508 -0.40327758
0.6729558 -0.5071751 0.4171927 0.9677434 0.2964047 -0.49603477 0.05847106 0.09650083
-0.052224446 0.26033282 -0.43311697 -0.36345944 -0.2397825 0.45775446 -0.47645873 -0.639438
0.051771548 -0.4024767 0.20047931 -0.53450745 0.20224646 0.088592745 0.9366282 -0.22099721
-0.7874074 -0.09674027 -0.38185018 0.23114784 0.4531436 0.5195053 0.33380187 0.05856425
-0.36779663 0.10564322 0.0270798 0.19076638 0.40837267 0.38144448 -0.58211064 -0.27543223
0.511839 0.15811564 0.22234182 0.8218331 0.56914896 -0.48085958 -0.08198206 -0.021363126
-0.7891956 -0.2887528 0.019328013 0.914112 0.6150804 0.5677533 0.3861645 -0.41601798
-0.31057835 0.1659414 0.06970158 0.49760997 0.07024147 0.5994587 -0.36596718 0.293335
-0.4002026 -0.455765 0.23822297 -0.24991009 0.054407027 -0.1256596 0.37203628 0.623276
0.20922686 0.06534633 -0.30495736 -0.5970725 0.18393724 0.6885329 -0.12673436 -0.7907407
-0.43325388 0.09855245 -0.11915046 0.6129315 -0.2182805 -0.46625426 0.31422883 -0.79847074
-0.20173337 0.05771234 0.2989081 0.43985665 0.30312708 0.1753144 -0.47158322 0.68697786
-0.9614881 0.7493921 -0.3307451 -0.5781491 0.4138988 0.37114316 0.46194693 -0.22787984
-0.4666571 -0.06734245 -0.44110605 0.42238045 0.44546962 0.14711359 -0.5650304 -0.07367548
0.70875317 0.051168464 -0.6735543 0.12920907 0.34294507 0.35325575 0.29199845 0.3905745
00000000: de7c f43d 5c5f ddbe 6bd3 afbe 4b55 da3e
00000010: 63fd 243e 4955 8d3e a289 0ebf 3e2b 633e
00000020: e7d4 1abe 9153 e9bd e0f7 423e baa1 613f
00000030: c1cc af3e ff19 313f 709d 883d 159a 393f
00000040: ca9a 83bf f589 25bf 93e3 1f3f b15a 0dbf
00000050: b2eb 323f 3648 67bc 6e69 b2bc 839a e93e
00000060: 2dfb 92be 8c26 963e 0927 123f 0104 b9be
00000070: 99f5 883d 40d9 d83e dc14 11bf 8175 bcbe
00000080: 59a2 65bf 6da5 193f 46f4 f93e 7504 da3d
00000090: b1e4 a23e 695f 203f 86ae 1abf eb10 0d3e
000000a0: 14cd 563e 9b0f 323f db71 cdbe 6ba5 33be
000000b0: 9e2a 98be 92f6 e73e 68c6 34be 7d00 973e
000000c0: 1d45 bdbe feef 12be a8ac 203f 5b7d a23d
000000d0: d5be be3e 08e4 76be 12f2 37be fc34 623e
000000e0: 845b 1fbf d36e 31bf 8c41 9abe d7f5 4f3f
000000f0: e404 793e 6269 c2be 8693 e1be b240 1fbe
00000100: ff04 4b3e 0b56 2f3f 9229 6d3e 3247 283f
00000110: 735c e4be 8da9 e83e da08 a5bc 8905 59be
00000120: 6b67 043e 40d8 183f d828 863e dbfe 56bf
00000130: e2a0 073e 3c05 b03e d690 d0bb 067c 303f
00000140: e66b a83c 088c 083e c1fc 933e a92d 12bf
00000150: f293 cd3e 8089 d1be 7894 603e 03a5 1a3f
00000160: adc5 0d3f 674a b3be e429 83be cfff 0fbf
00000170: 6426 933e 7769 0ebf 52bd 203f dd89 5fbd
00000180: a2ab 4bbf 8508 0ebf d93a 98be 0145 a33e
00000190: 1f53 00be 2c26 073f 124a 233f a4c4 f23c
000001a0: cc7f 6c3e b6a5 01be dcb6 883e d6f6 a2be
000001b0: 9c8f 553e 020b b23e b966 1a3e 8923 223f
000001c0: 76ef 0b3d 065e f2bc b5b2 1c3f 5f10 b6be
000001d0: 6fad 77be 7c90 34bd 955d db3c 1e6d 20be
000001e0: dd62 e0be 041e a1be 84c2 b63e d732 b3be
000001f0: 480f 253f 07fe 12bf 9cfe 0e3f 3383 7ebe
00000200: b897 31bf cfca 4f3d 82d3 1fbe d922 1a3f
00000210: cb7a 1e3f 4ae8 923c 4280 0fbf 667a cebe
00000220: d546 2c3f 3ad6 01bf 489a d53e 08be 773f
00000230: 5bc2 973e 45f8 fdbe 5a7f 6f3d 3aa2 c53d
00000240: 4de9 55bd 584a 853e 82c1 ddbe 5b17 babe
00000250: 8b89 75be cb5e ea3e 66f2 f3be 35b2 23bf
00000260: 670e 543d 6d11 cebe 734a 4d3e 7bd5 08bf
00000270: b219 4f3e 1d70 b53d dec6 6f3f 184d 62be
00000280: 8893 49bf c31f c6bd de81 c3be 05b2 6c3e
00000290: 7002 e83e 4dfe 043f 14e8 aa3e 11e1 6f3d
000002a0: d74f bcbe 795b d83d 75d6 dd3c 4358 433e
000002b0: 3916 d13e b14c c33e 3405 15bf 7405 8dbe
000002c0: e107 033f 11e9 213e 93ad 633e a763 523f
000002d0: bfb3 113f 3a33 f6be 36e6 a7bd b901 afbc
000002e0: b908 4abf 68d7 93be c855 9e3c 3e03 6a3f
000002f0: e975 1d3f 4858 113f 5ab7 c53e 4f00 d5be
00000300: 2004 9fbe 8bec 293e b4bf 8e3d bcc6 fe3e
00000310: c3da 8f3d 2076 193f 0d60 bbbe 0130 963e
00000320: 5be7 ccbe 085a e9be b9f0 733e 6ee8 7fbe
00000330: e7d9 5e3d e9ac 00be 8a7b be3e 048f 1f3f
00000340: 913f 563e 4cd4 853d 5f23 9cbe bed9 18bf
00000350: 0b5a 3c3e b143 303f a7c6 01be fc6d 4abf
00000360: 74d3 ddbe ded5 c93d 2805 f4bd 14e9 1c3f
00000370: ec84 5fbe e1b8 eebe 9ae2 a03e 9468 4cbf
00000380: 3193 4ebe c663 6c3d 7c0a 993e e434 e13e
00000390: 7933 9b3e 9e85 333e 5b73 f1be c8dd 2f3f
000003a0: 1624 76bf 29d8 3f3f 6c57 a9be 9401 14bf
000003b0: 8bea d33e 7a06 be3e 4f84 ec3e 5559 69be
000003c0: aeed eebe d7ea 89bd a7d8 e1be 4042 d83e
000003d0: 9814 e43e f2a4 163e d5a5 10bf 2ce3 96bd
000003e0: d970 353f 0696 513d 0e6e 2cbf 624f 043e
000003f0: 7f96 af3e f0dd b43e d280 953e 62f9 c73e
